pretrain_models/ml-100k-gcmc-0-64.pt (torch, 776667 bytes, 14 tensors)

embedding_user.weight f4 [943, 64]
0.41892147 -0.89328396 -0.19136249 0.3038553 1.0920359 -0.38852227 -0.42054343 0.16271728
0.55109316 -1.3953393 0.3037463 -0.39660344 -0.9779416 -0.25565684 -1.0077153 -1.3094243
0.0063718054 -0.48293284 -0.40999457 -1.1142358 0.07847866 -0.380561 -1.2947568 -0.118163645
0.27227607 0.00060423976 0.3930509 -0.32169944 1.2812173 -0.2435302 -0.3432676 0.073921345
0.32797825 -0.038790695 0.31757554 -0.8740731 -0.5567515 -0.66355264 0.72706246 -0.28114155
0.26531804 1.0132661 -0.5583576 -1.2804114 -1.3243501 -0.29224563 -0.6572469 0.19273575
1.0391798 0.42523798 0.104432955 0.8060976 -0.36852455 1.1337432 0.46750173 -0.38640153
-0.08266909 -0.3304207 -0.23931068 -0.76519763 0.86369467 -0.55357486 0.11973239 0.6622422
0.0651486 0.2889589 0.13827838 -0.29450634 -0.26949993 -0.16270411 0.03428614 0.4108625
-0.18531711 0.05871044 -0.037502907 -0.29080275 0.41281155 0.33510983 0.40189874 0.0010247262
0.17760925 0.19295004 0.4516168 -0.25558406 0.26492786 -0.07938591 0.32401296 0.25775012
-0.054071836 0.17940542 -0.0012543286 0.27162194 0.0619047 -0.2609579 -0.2845553 0.28528824
-0.023170862 -0.18536386 0.05750231 -0.37832218 -0.35871148 -0.21055783 -0.18651028 -0.0021959846
0.0753377 0.32249624 0.030382073 0.042616714 -0.4416381 0.51293844 -0.07066024 0.013393421
0.18770254 -0.023473205 0.33050898 -0.06597608 -0.26672933 -0.14380737 -0.34907538 0.0832151
-0.39376953 -0.28188205 0.017616116 -0.010873449 -0.22918491 -0.03294923 0.0062442906 0.092033416
-0.1432726 -0.17967132 0.35328728 0.1933937 -0.16642033 -0.108406454 0.26384524 -0.08724622
0.17375962 -0.06450658 -0.03334467 0.41461444 -0.26576862 -0.0929744 0.20096819 0.22190109
-0.03190519 -0.1513707 -0.15952098 0.1216794 0.42869553 0.42995667 -0.13298371 -0.39267874
-0.02148901 0.102152824 0.26202434 -0.08840609 -0.27342916 -0.093182035 0.1927237 0.13037898
0.16123417 -0.19392799 0.20079143 0.0055926936 0.2589854 -0.2907201 -0.1551664 0.13886705
0.2532052 0.08082772 -0.034161903 -0.2503078 0.23449434 -0.021975014 0.16928653 0.10744528
-0.13097885 -0.05877018 -0.21837819 0.13314839 -0.094067864 -0.52502155 0.20191123 -0.058914155
-0.17692141 -0.27669072 0.028898288 0.17661999 -0.056821514 -0.15938403 0.05071266 0.29909396
-0.20992877 0.11581244 0.16265914 -0.04872713 0.011690709 0.6681498 0.01647869 -0.04075623
-0.115530014 0.06059599 -0.20500205 0.06768907 0.07526396 -0.23543544 0.0051111286 0.4965488
0.03761711 0.17013913 -0.026260233 0.51556754 0.2112945 0.048165064 0.2146414 -0.031031014
0.2625064 -0.21046054 0.24343616 0.18222292 -0.07168268 0.028993156 -0.105100095 0.17757252
-0.08253742 0.5218272 0.29893348 0.09854692 0.16491336 -0.24307805 -0.012351291 0.093703255
-0.29045838 -0.5970789 0.086571485 -0.09508191 0.1932455 0.30571 -0.53546613 -0.2668326
-0.37110704 0.15945658 -0.19299886 0.08734726 -0.14754844 -0.32603803 0.22133997 -0.14196077
0.09939164 -0.097551934 -0.13066313 -0.3280039 -0.14620544 0.13418882 -0.11769689 0.07134509
00000000: e07c d63e 42ae 64bf 87f4 43be ec92 9b3e
00000010: d5c7 8b3f 64ec c6be 7851 d7be 5c9f 263e
00000020: 7114 0d3f 7a9a b2bf a384 9b3e 9b0f cbbe
00000030: 615a 7abf 74e5 82be d1fc 80bf 379b a7bf
00000040: 94ca d03b f942 f7be cfea d1be 479f 8ebf
00000050: 6bb9 a03d e4d8 c2be 97ba a5bf c8ff f1bd
00000060: c567 8b3e d865 1e3a f83d c93e cab5 a4be
00000070: eefe a33f fb5f 79be c5c0 afbe 1364 973d
00000080: c4ec a73e fee2 1ebd 4399 a23e 41c3 5fbf
00000090: 4487 0ebf 96de 29bf c420 3a3f c9f1 8fbe
000000a0: c4d7 873e b4b2 813f 86f0 0ebf 85e4 a3bf
000000b0: 4e84 a9bf 38a1 95be 5541 28bf 855c 453e
000000c0: d803 853f cbb8 d93e f2e0 d53d 6a5c 4e3f
000000d0: 40af bcbe 7f1e 913f 635c ef3e 6cd6 c5be
000000e0: 694e a9bd e72c a9be dc0d 75be fee3 43bf
000000f0: 181b 5d3f 15b7 0dbf 4136 f53d b488 293f
00000100: a16c 853d 6cf2 933e d998 0d3e 89c9 96be
00000110: e5fb 89be e89b 26be a06f 0c3d 925c d23e
00000120: c5c3 3dbe 5c7a 703d a69c 19bd 19e4 94be
00000130: 095c d33e 8493 ab3e acc5 cd3e 1b50 863a
00000140: 33df 353e b294 453e 513a e73e eadb 82be
00000150: a0a4 873e 1495 a2bd 07e5 a53e d3f7 833e
00000160: 6e7a 5dbd 0eb6 373e 4968 a4ba 0812 8b3e
00000170: c88f 7d3d 469c 85be 3bb1 91be 4d11 923e
00000180: d2d0 bdbc 06d0 3dbe 8b87 6b3d 72b3 c1be
00000190: 08a9 b7be 799c 57be 8dfc 3ebe 82ea 0fbb
000001a0: a74a 9a3d 3a1e a53e d3e3 f83c dd8e 2e3d
000001b0: 641e e2be ef4f 033f 51b6 90bd 1470 5b3c
000001c0: 1835 403e e14a c0bc 7938 a93e 781e 87bd
000001d0: bf90 88be 3d42 13be 02ba b2be ae6c aa3d
000001e0: 299c c9be d852 90be ac4f 903c 8d26 32bc
000001f0: 73af 6abe c6f5 06bd e89c cc3b 047c bc3d
00000200: 0db6 12be c2fb 37be 12e2 b43e 0009 463e
00000210: 176a 2abe 3404 debd b916 873e 25ae b2bd
00000220: 0bee 313e 071c 84bd 6c94 08bd 5848 d43e
00000230: d312 88be 5d69 bebd 9bca 4d3e 0a3a 633e
00000240: 04af 02bd ec00 1bbe 7859 23be 0d33 f93d
00000250: fb7d db3e 4823 dc3e e22c 08be 300d c9be
00000260: b809 b0bc 8035 d13d 0e28 863e 410e b5bd
00000270: e8fe 8bbe 39d6 bebd 5d59 453e 1182 053e
00000280: 921a 253e 0f95 46be 459c 4d3e ea42 b73b
00000290: bc99 843e 44d9 94be f1e3 1ebe 2a33 0e3e
000002a0: 1da4 813e 0189 a53d 5aed 0bbd 5828 80be
000002b0: 491f 703e f204 b4bc 7359 2d3e 450c dc3d
000002c0: 521f 06be 00b9 70bd 889e 5fbe 0d58 083e
000002d0: a7a6 c0bd d067 06bf d1c1 4e3e f84f 71bd
000002e0: e32a 35be 68aa 8dbe 1abc ec3c dfdb 343e
000002f0: adbd 68bd 9135 23be 14b8 4f3d d822 993e
00000300: 91f7 56be 132f ed3d 1e90 263e 1996 47bd
00000310: 638a 3f3c de0b 2b3f 51fe 863c 01f0 26bd
00000320: 009b ecbd 8033 783d 0fec 51be 91a0 8a3d
00000330: fe23 9a3d fd15 71be 417b a73b a53b fe3e
00000340: 6614 1a3d f438 2e3e b31f d7bc 3cfc 033f
00000350: 965d 583e bb48 453d f5ca 5b3e c134 febc
00000360: 3d67 863e f882 57be 5447 793e a598 3a3e
00000370: 5ece 92bd 0e83 ed3c b83e d7bd 92d5 353e
00000380: 6109 a9bd 7896 053f cf0d 993e f8d2 c93d
00000390: 0cdf 283e 74e9 78be 125d 4abc 7ee7 bf3d
000003a0: f6b6 94be 2ada 18bf 644c b13d 4eba c2bd
000003b0: 26e2 453e 0586 9c3e 4f14 09bf 489e 88be
000003c0: be01 bebe 9648 233e 7ea1 45be 1fe3 b23d
000003d0: f016 17be 75ee a6be f2a6 623e 2a5e 11be
000003e0: d88d cb3d 4fc9 c7bd 8ecc 05be 21f0 a7be
000003f0: e1b6 15be cb68 093e 110b f1bd 601d 923d

embedding_item.weight f4 [1682, 64]
-0.37507504 0.05072803 0.19723764 -0.041960355 0.08033467 0.006243523 0.21395394 -0.07112704
0.14506705 -0.09303004 0.19096614 0.2790093 0.055545192 -0.034416217 0.03201331 0.24571516
0.057909533 -0.055395197 -0.28707325 -0.08490192 -0.20776924 -0.21971096 0.1730854 0.24299133
0.0019106468 0.29547644 -0.49292278 0.28602877 -0.0063384594 -0.1414392 -0.13768847 -0.093105264
0.3427929 0.120181635 -0.06606409 0.29270408 -0.11826331 -0.24926926 -0.14448793 -0.3212734
-0.021881389 0.15068497 -0.28975546 -0.016903024 0.5039283 -0.1999894 0.2570941 -0.048850685
0.33963007 0.3963056 -0.13386618 0.00243586 0.072875604 0.056170657 0.685838 0.25270006
0.14614241 0.12260326 -0.24586508 -0.24828537 0.13625494 0.09570018 0.29852295 -0.087829046
-0.2131363 -0.2759024 0.15157221 0.39504853 -0.38586125 -0.1946687 -0.24313234 0.5266028
-0.092369325 -0.25311598 -0.5538666 -0.09798356 -0.123420745 0.04391764 0.39393833 0.076711774
0.47115576 -0.22126715 -0.271115 -0.29974675 0.020755345 0.24611156 -0.31903344 0.09022285
0.56580687 0.2282486 0.05948486 0.14499128 0.16202103 -0.58216447 0.18276696 -0.004785325
0.108957544 0.24643157 -0.20358312 -0.53197384 -0.3694041 -0.100043155 -0.16091092 0.4009155
-0.037896015 0.12381685 -0.5913712 0.41049862 0.1812596 -0.38930765 -0.3106123 -0.005861551
-0.5812369 0.18571934 0.10015383 0.37610587 -0.7890101 0.4693274 0.10316851 -0.59575623
-0.4104509 0.16294254 -0.14131765 0.19901289 0.15033382 -0.52865565 0.26525196 0.04843488
0.36156842 0.24995947 -0.13040802 0.007200139 -0.021535313 0.60460395 0.14958785 -0.59066397
-0.22610515 0.3808207 0.205681 0.25804433 -0.1486568 -0.32314804 0.355375 -0.5839756
0.047305264 -0.3770405 -0.22815485 0.23874713 -0.09537758 -0.11523625 0.7896291 0.3539512
-0.75481206 0.67930377 -0.14533141 -0.009315848 -0.19324881 -0.033607397 -0.2271732 -0.44393587
0.35168603 -0.2639721 -0.23466374 -0.27123255 0.28633368 0.71369725 0.8305828 -0.55771905
-0.09534258 -0.049242914 0.33152038 -0.32757467 -0.70942473 0.06608653 -0.230414 0.79066414
0.40043423 -0.52337724 -0.35559824 -0.513167 -0.33454627 0.18055962 -0.11618166 0.14234035
-0.5206847 0.11555022 0.12721588 -0.5625729 0.531681 -0.41869056 -0.55821866 -0.18278804
-0.29616088 -0.07978326 0.13780338 0.06884263 -0.34399366 -0.04997612 -0.06635618 -0.16807751
-0.023025049 -0.44627705 -0.1324943 -0.23469627 -0.08611444 0.11548533 0.36259755 -0.03853008
0.22818632 0.03314824 -0.42582104 -0.36465722 0.15211746 -0.092533216 -0.13019828 -0.08248244
0.21832584 0.075965874 0.54462206 0.059070382 -0.1275542 0.4598471 -0.18491699 -0.08052496
0.0012190095 -0.086879864 0.018691197 -0.63787454 -0.425672 0.25286213 0.15933117 0.085596405
0.20986126 0.048442196 0.092000805 0.20069593 -0.22285043 -0.0030237928 0.065910675 0.33834502
-0.32478648 0.24718389 0.6178114 0.2183218 -0.002705129 0.2592838 0.07687892 -0.06350672
0.022403454 0.26610783 0.34185675 0.24155162 0.71568084 -0.3778241 0.2315475 -0.42995748
00000000: d609 c0be 32c8 4f3d aaf8 493e 9fde 2bbd
00000010: 8186 a43d 7896 cc3b be16 5b3e 0eab 91bd
00000020: 758c 143e 8986 bebd a18c 433e 4fda 8e3e
00000030: 5b83 633d 05f8 0cbd 6320 033d c19c 7b3e
00000040: 8c32 6d3d 13e6 62bd 44fb 92be 0fe1 adbd
00000050: 76c1 54be e9fb 60be 4d3d 313e b8d2 783e
00000060: ab6e fa3a b048 973e 6060 fcbe 5d72 923e
00000070: dab2 cfbb 70d5 10be 35fe 0cbe f9ad bebd
00000080: 8d82 af3e ca21 f63d 9c4c 87bd 4fdd 953e
00000090: 0934 f2bd 7140 7fbe a5f4 13be f27d a4be
000000a0: 9940 b3bc 294d 1a3e d45a 94be 3678 8abc
000000b0: 7201 013f 05ca 4cbe d6a1 833e a817 48bd
000000c0: fee3 ad3e 91e8 ca3e 3714 09be f3a2 1f3b
000000d0: ce3f 953d 3413 663d 1493 2f3f e761 813e
000000e0: 5ba6 153e 6b17 fb3d 0ec4 7bbe 853e 7ebe
000000f0: 6a86 0b3e 75fe c33d 00d8 983e b7df b3bd
00000100: 6740 5abe 1443 8dbe bf35 1b3e cd43 ca3e
00000110: 9b8f c5be 3b57 47be aff7 78be 71cf 063f
00000120: 212c bdbd 6b98 81be 34ca 0dbf 9bab c8bd
00000130: 04c4 fcbd fce2 333d 49b2 c93e 101b 9d3d
00000140: 543b f13e db93 62be 96cf 8abe 6878 99be
00000150: 1d07 aa3c ab04 7c3e 5a58 a3be c2c6 b83d
00000160: b8d8 103f 00ba 693e 66a6 733d 9878 143e
00000170: d7e8 253e bb08 15bf 4327 3b3e 37ce 9cbb
00000180: 2225 df3d 8f58 7c3e 1878 50be 702f 08bf
00000190: 8922 bdbe 6de3 ccbd d5c5 24be cc44 cd3e
000001a0: da38 1bbd b093 fd3d 1a64 17bf e02c d23e
000001b0: 1e9c 393e 5553 c7be 9308 9fbe 4112 c0bb
000001c0: f1cb 14bf 362d 3e3e 741d cd3d f390 c03e
000001d0: 91fc 49bf ae4b f03e 034a d33d 7b83 18bf
000001e0: 9f26 d2be 69da 263e 93b5 10be 09ca 4b3e
000001f0: 1cf1 193e fa55 07bf 1bcf 873e a763 463d
00000200: 7f1f b93e 60f5 7f3e ae89 05be 25ef eb3b
00000210: d36a b0bc 53c7 1a3f 8f2d 193e c135 17bf
00000220: 1c88 67be eefa c23e 0a9e 523e 631e 843e
00000230: 7d39 18be a973 a5be b6f3 b53e 6d7f 15bf
00000240: 2ac3 413d 740b c1be 6da1 69be 217a 743e
00000250: 5255 c3bd fc00 ecbd 2225 4a3f 1739 b53e
00000260: 5d3b 41bf dae6 2d3f c2d1 14be 80a1 18bc
00000270: 04e3 45be e9a7 09bd 17a0 68be 904b e3be
00000280: 3110 b43e 5a27 87be b14b 70be fede 8abe
00000290: 549a 923e ddb4 363f 13a1 543f adc6 0ebf
000002a0: f842 c3bd f0b2 49bd 0abd a93e deb7 a7be
000002b0: dc9c 35bf 6058 873d a6f1 6bbe f768 4a3f
000002c0: b705 cd3e 0dfc 05bf f910 b6be ea5e 03bf
000002d0: a649 abbe 9fe4 383e a6f0 edbd abc1 113e
000002e0: 984b 05bf 98a5 ec3d e144 023e c704 10bf
000002f0: 3f1c 083f 9c5e d6be 6be7 0ebf ca2c 3bbe
00000300: 66a2 97be 6865 a3bd 541c 0d3e 5dfd 8c3d
00000310: f01f b0be c3b3 4cbd c0e5 87bd 831c 2cbe
00000320: 079f bcbc 6d7e e4be 96ac 07be 3854 70be
00000330: c45c b0bd 9383 ec3d 63a6 b93e b8d1 1dbd
00000340: ada9 693e 73c6 073d 3705 dabe 5ab4 babe
00000350: aec4 1b3e 0e82 bdbd b352 05be 8eec a8bd
00000360: cf90 5f3e ff93 9b3d 5a6c 0b3f c9f3 713d
00000370: 919d 02be 1471 eb3e e15a 3dbe 45ea a4bd
00000380: 2cc7 9f3a 12ee b1bd 481e 993c bf4b 23bf
00000390: aef1 d9be 2577 813e b627 233e 2b4d af3d
000003a0: dfe5 563e 536b 463d eb6a bc3d 3c83 4d3e
000003b0: e732 64be d32a 46bb 2dfc 863d 8f3b ad3e
000003c0: 6a4a a6be c61d 7d3e e328 1e3f c08f 5f3e
000003d0: 8948 31bb d9c0 843e b272 9d3d d00f 82bd
000003e0: 7387 b73c 493f 883e d907 af3e 4f59 773e
000003f0: dc36 373f 2972 c1be ca1a 6d3e 6323 dcbe

gc_mlp.0.weight f4 [64, 64]
-0.06881598 -0.1732018 -0.102265134 0.2810526 0.07228665 0.19526714 -0.018239813 0.015751887
-0.19802746 0.077718586 0.08538525 0.12678844 -0.11915974 0.020327998 0.21120808 -0.18158846
0.09240126 -0.08816259 -0.058773108 -0.18245487 -0.022168715 -0.12845229 0.34118313 0.15772143
-0.028581047 0.27919826 -0.16746248 -0.007101803 0.24306741 0.26563147 -0.1486077 -0.24540477
-0.0793089 -0.24215539 -0.20261773 -0.30953753 -0.059885543 -0.06485951 0.099626645 0.23922504
-0.09719173 -0.18313819 0.10239743 -0.17088418 0.012446765 0.07896725 -0.22282071 0.13853517
-0.15624757 0.22942956 -0.2105629 -0.4677628 0.11031498 0.22999129 0.037801627 -0.08471875
0.18242565 0.09859302 -0.009870738 -0.22328462 -0.20388235 0.02563923 0.3318481 -0.17141092
-0.41204035 0.23892637 0.07423545 0.3340138 0.28046834 0.48689798 -0.47393236 -0.36319613
0.462034 0.2279111 -0.051245403 -0.21347135 0.16969694 -0.028523257 0.4316283 0.4757054
-0.10521108 0.1979594 0.07148816 0.3847462 0.18885417 -0.24864691 -0.41858187 0.30221656
0.45563468 -0.05534686 -0.52598655 0.08940268 -0.079693526 -0.07466851 0.06942409 -0.4203168
-0.07199593 0.32468426 -0.030542336 -0.124474496 -0.036703546 0.057721917 -0.1171233 0.29924342
0.13043278 0.32960907 -0.18584128 -0.26977807 0.09572593 -0.0867587 -0.34435633 -0.09251875
-0.0038589227 -0.18335879 -0.13682981 -0.26340985 -0.112536654 0.02091957 0.286006 -0.01631723
-0.5395768 0.14656629 -0.22247368 0.06736194 -0.12104911 0.21375999 0.40343997 -0.12005946
-0.23316176 0.080055945 0.008617967 -0.3409987 -0.12420272 -0.08191774 0.053963106 -0.08169923
-0.18910146 0.16260707 0.30431128 0.0668204 0.07370813 -0.10472565 -0.073151685 0.096614845
0.09165216 -0.0064918986 0.05427664 0.10469704 -0.061540015 -0.16878761 -0.15563679 0.11282106
0.25975057 0.27485994 0.0038212338 -0.19593288 0.31067163 0.047102522 0.10557937 -0.09797398
-0.32648313 -0.010391905 -0.014281071 0.109292425 0.20731361 -0.06629357 0.34861016 -0.38932288
-0.0057747685 -0.01972591 -0.041913763 -0.12685204 -0.047380444 0.11069825 0.15879104 -0.25652707
0.12866418 0.05491827 0.0021059248 0.18900645 -0.12779659 0.30043986 0.08789853 0.08454382
0.28582436 0.04825012 0.026003813 -0.18006316 0.17271174 -0.15944512 0.056101162 -0.26941147
0.12353871 0.46255288 0.35340905 0.20454311 0.26821765 -0.045572616 -0.11213885 0.061189257
-0.027949924 0.19153416 -0.14960445 0.0711334 -0.189361 0.14826798 0.13048099 -0.0014779632
0.16552374 0.27000254 -0.16213354 0.031958826 -0.116419956 -0.27497852 0.12326007 0.32684276
-0.3194674 0.15747875 -0.22684737 -0.24526162 0.3614081 0.065798886 -0.15196234 -0.06991901
0.15423076 0.25091767 -0.1340479 -0.15847872 0.07721047 0.22860669 0.09242161 -0.009251835
0.009074995 -0.051085014 -0.06557807 -0.05871657 -0.24989295 0.13537325 0.0011042114 0.21002817
0.14763713 0.2050084 -0.11713218 -0.103551865 -0.028465848 -0.013257353 0.20397735 0.09220336
-0.036820684 0.27578825 0.1323892 0.11477094 0.18842702 -0.043759063 0.18645227 -0.18516894
00000000: 64ef 8cbd d05b 31be 6270 d1bd 20e6 8f3e
00000010: 060b 943d 1cf4 473e a96b 95bc 1a0a 813c
00000020: b6c7 4abe ec2a 9f3d 76de ae3d d4d4 013e
00000030: 060a f4bd e786 a63c ee46 583e 53f2 39be
00000040: df3c bd3d 978e b4bd 12bc 70bd 73d5 3abe
00000050: 2a9b b5bc ff88 03be 8eaf ae3e ba81 213e
00000060: cd22 eabc 13f3 8e3e 497b 2bbe 3eb6 e8bb
00000070: aae6 783e d900 883e 9e2c 18be 634b 7bbe
00000080: b46c a2bd 95f7 77be 067b 4fbe b47b 9ebe
00000090: 8b4a 75bd 10d5 84bd 0e09 cc3d 69f7 743e
000000a0: 750c c7bd 9488 3bbe beb5 d13d 43fc 2ebe
000000b0: 84ed 4b3c 95b9 a13d 1d2b 64be 2adc 0d3e
000000c0: 5dff 1fbe 95ef 6a3e cd9d 57be 9b7e efbe
000000d0: d2ec e13d d682 6b3e e1d5 1a3d 0681 adbd
000000e0: cacd 3a3e 23eb c93d e0b8 21bc b9a4 64be
000000f0: 89c6 50be 5d09 d23c ffe7 a93e 5886 2fbe
00000100: f4f6 d2be 1da9 743e c108 983d db03 ab3e
00000110: 8c99 8f3e b14a f93e 43a7 f2be d8f4 b9be
00000120: b88f ec3e 8761 693e b3e6 51bd 3c98 5abe
00000130: 09c5 2d3e 9ba9 e9bc 62fe dc3e a88f f33e
00000140: e878 d7bd deb5 4a3e 6268 923d 74fd c43e
00000150: fd62 413e 4c9d 7ebe 5d50 d6be 21bc 9a3e
00000160: f348 e93e 64b3 62bd 0ea7 06bf c118 b73d
00000170: 5c36 a3bd ceeb 98bd 382e 8e3d c333 d7be
00000180: 9a72 93bd 043d a63e ec33 fabc 7cec febd
00000190: 7556 16bd d16d 6c3d 57de efbd 6f36 993e
000001a0: 2c90 053e 85c2 a83e 2d4d 3ebe 5a20 8abe
000001b0: f50b c43d 8cae b1bd 794f b0be 787a bdbd
000001c0: fbe5 7cbb 68c2 3bbe 1d1d 0cbe a8dd 86be
000001d0: 9e79 e6bd 855f ab3c 616f 923e b6ab 85bc
000001e0: b521 0abf 7915 163e 24d0 63be 0ff5 893d
000001f0: 99e8 f7bd e6e3 5a3e af8f ce3e bce1 f5bd
00000200: f5c1 6ebe 5ff4 a33d 6032 0d3c 6297 aebe
00000210: ff5d febd 7dc4 a7bd 6b08 5d3d ed51 a7bd
00000220: d0a3 41be 7882 263e b0ce 9b3e 22d9 883d
00000230: 4af4 963d 677a d6bd 8dd0 95bd 01de c53d
00000240: 21b4 bb3d feb9 d4bb 2f51 5e3d 676b d63d
00000250: 6211 7cbd a9d6 2cbe 405f 1fbe ba0e e73d
00000260: 07fe 843e 71ba 8c3e aa6d 7a3b a1a2 48be
00000270: 5a10 9f3e 93ee 403d ff39 d83d 95a6 c8bd
00000280: cc28 a7be cf42 2abc 27fb 69bc b5d4 df3d
00000290: 054a 543e ecc4 87bd 087d b23e 5455 c7be
000002a0: 453a bdbb 3b98 a1bc c4ad 2bbd 80e5 01be
000002b0: ff11 42bd c4b5 e23d 1e9a 223e 8457 83be
000002c0: 8bc0 033e fbf1 603d 8e03 0a3b e88a 413e
000002d0: 1cdd 02be 41d3 993e 2504 b43d 4f25 ad3d
000002e0: 9257 923e eba1 453d f305 d53c 7a62 38be
000002f0: 59db 303e 9545 23be 55ca 653d 4df0 89be
00000300: dd01 fd3d bbd3 ec3e 08f2 b43e c073 513e
00000310: d353 893e 5aaa 3abd 0ea9 e5bd 96a1 7a3d
00000320: 3df7 e4bc 8821 443e e931 19be 63ae 913d
00000330: dae7 41be 90d3 173e cf9c 053e 37b8 c1ba
00000340: 0e7f 293e c63d 8a3e 5606 26be 42e7 023d
00000350: 966d eebd fcc9 8cbe c76f fc3d ef57 a73e
00000360: 3b91 a3be 1c42 213e ad4a 68be dd25 7bbe
00000370: 7c0a b93e 91c1 863d 049c 1bbe b331 8fbd
00000380: abee 1d3e 4878 803e da43 09be 3f48 22be
00000390: 8620 9e3d df17 6a3e 8b47 bd3d 0295 17bc
000003a0: 4aaf 143c 853e 51bd cc4d 86bd c980 70bd
000003b0: f0e3 7fbe 499f 0a3e 30bb 903a a011 573e
000003c0: 302e 173e b9ed 513e ffe2 efbd 0013 d4bd
000003d0: 3631 e9bc 5e35 59bc 70df 503e 1dd5 bc3d
000003e0: 49d1 16bd 1e34 8d3e 0991 073e 070d eb3d
000003f0: 03f3 403e b43c 33bd 58ed 3e3e ed9c 3dbe

gc_mlp.0.bias f4 [64]
0.06838395 0.15959616 0.08468956 0.08770623 -0.15255909 0.13566698 0.09324953 0.17423853
0.12495805 -0.054330546 -0.092110336 0.14346111 0.03936144 -0.08549685 0.06742423 0.1276119
0.047380563 0.16185798 0.15732056 0.12556969 0.08568191 0.13893822 0.14779775 0.09106335
0.11092719 0.09152235 0.13032839 -0.0739814 0.07065591 0.13323729 0.13879004 0.14034683
0.10952219 0.092539206 0.13656335 0.08050356 0.110808514 0.16816525 -0.08882144 0.1347376
0.12503271 0.052191883 0.06187809 0.065175734 0.11729016 0.07048911 0.071522176 -0.08320976
0.11319441 -0.06751633 0.16320446 0.11932057 -0.024614604 -0.13514522 0.102010526 -0.0089253485
0.11697978 0.13781561 0.12792818 0.11733262 0.09439959 0.14074478 0.10779302 0.1405105
00000000: e20c 8c3d 2d6d 233e b871 ad3d 539f b33d
00000010: 7338 1cbe 49ec 0a3e 9cf9 be3d 966b 323e
00000020: 02ea ff3d b589 5ebd 58a4 bcbd 78e7 123e
00000030: 7639 213d f918 afbd b715 8a3d b2ac 023e
00000040: 1f12 423d 19be 253e a418 213e 5795 003e
00000050: ff79 af3d d245 0e3e 4b58 173e 6c7f ba3d
00000060: cb2d e33d 1270 bb3d ce74 053e 8f83 97bd
00000070: 0cb4 903d 5b6f 083e fa1e 0e3e 14b7 0f3e
00000080: 2c4d e03d 3285 bd3d 43d7 0b3e 0ddf a43d
00000090: 93ef e23d 8333 2c3e 04e8 b5bd a7f8 093e
000000a0: 9308 003e 28c7 553d e173 7d3d db7a 853d
000000b0: d335 f03d 985c 903d 387a 923d e169 aabd
000000c0: 79d2 e73d 0046 8abd 121f 273e 585e f43d
000000d0: 91a4 c9bc 8263 0abe e5ea d03d a03b 12bc
000000e0: 1893 ef3d 891f 0d3e 9bff 023e 164c f03d
000000f0: 9254 c13d 661f 103e 96c2 dc3d fce1 0f3e

gc_mlp.1.weight f4 [64, 64]
0.11223022 0.21280201 0.030370932 0.113068074 0.02845161 0.16759549 0.100559525 -0.10114326
-0.06954802 -0.28711236 -0.291788 0.033463772 0.02819723 -0.23790778 -0.13155553 -0.22277564
0.018970404 0.116322644 0.19950499 0.045841914 0.092591904 0.069941714 0.23396038 0.10610459
0.23030634 -0.12021271 -0.10907394 -0.14517215 0.011266974 -0.0063132583 0.10684242 -0.10873762
-0.038646344 0.17958045 0.10022131 0.013734667 0.08691322 -0.036234666 -0.1560619 0.20966256
0.08633611 -0.22193131 -0.4574197 0.12897079 0.01656488 -0.0543266 0.06474754 -0.30787683
0.08451535 -0.06332127 0.21977863 -0.011690996 -0.37966338 -0.15489678 -0.03794564 -0.29751593
0.043892745 0.052576903 -0.028620096 -0.007755814 -0.32924128 -0.020021053 0.025356507 0.059427593
0.19180435 -0.08644232 -0.47825703 -0.52328086 -0.21456358 0.088115044 -0.18770717 -0.061523136
-0.19421408 0.003701819 0.1291262 -0.15715937 -0.26365557 -0.04275076 0.36282283 -0.09899986
-0.25688472 -0.08366134 0.13423498 -0.043123174 -0.50523347 -0.13411656 0.03456566 0.07534458
0.15307795 0.46637696 0.028030805 0.49387184 -0.98583984 0.06878413 -0.23737565 -0.15684219
0.004924714 0.4256836 -0.17581588 0.29918283 -0.200277 -0.10954766 0.08512927 0.12933607
-0.1464145 -0.42302772 -0.1495711 0.10991249 0.016659873 -0.08543303 0.3795968 0.2389974
-0.21274924 0.11714142 -0.1311746 -0.13750565 -0.32779214 0.48830423 -0.2884267 0.10544012
-0.20306098 -0.04213398 -0.18457541 -0.3182917 -0.2856644 -0.29081598 0.19375964 -0.04594054
-0.14211085 0.058835045 0.065192595 0.16316026 0.07209418 0.045203794 -0.06801225 0.05667439
0.048374344 -0.107283 -0.094837 0.09147402 0.05369092 0.09552827 -0.09688897 -0.027339933
0.05882307 -0.0006342737 -0.07516238 -0.06515985 0.048690125 0.049010552 0.039528728 -0.15399118
0.016418165 -0.04299021 0.023681413 -0.059807163 0.15780427 0.0033654636 0.06009604 0.04634956
0.10573749 -0.029850567 0.08503153 -0.04806338 0.05002007 -0.112527385 -0.13582845 0.08530891
0.07664306 0.12711078 0.048195824 -0.0033227159 -0.062901095 0.107465155 -0.03747652 -0.008037223
-0.13197875 0.057857186 -0.00994068 0.050181795 -0.062207527 -0.04385773 0.024618391 -0.1636747
0.01881055 -0.072775215 -0.07468646 0.110816345 -0.12266093 0.035088737 -0.041858982 0.068628065
-0.08111788 0.024894448 -0.025593786 -0.38092712 -0.093753405 -0.010349136 -0.083957024 -0.11284128
-0.096003346 0.0100262035 0.13429575 -0.078944 0.14795339 -0.09565073 0.0848998 -0.07264916
0.04028851 0.037380952 0.15379126 0.16909657 -0.047240056 0.20036066 0.16175719 0.27020144
-0.0368001 0.1306071 -0.08194829 0.124916546 -0.15644878 -0.10348621 0.07038924 -0.08397434
-0.081079945 -0.03182185 -0.03219064 0.12259566 -0.036977995 0.009063577 -0.08487433 -0.17572209
-0.011622151 0.040534433 0.021024166 0.21945737 -0.00046949496 -0.060442433 0.027887728 0.0026629074
-0.054885376 -0.20949568 -0.14855358 0.042756896 0.026488552 0.049279664 -0.049470782 -0.028433388
-0.35666865 -0.009865127 0.101394236 -0.04883319 0.3327409 -0.070606686 -0.21550852 0.13678099
00000000: f5d8 e53d c5e8 593e 76cc f83c 3c90 e73d
00000010: 5a13 e93c 279e 2b3e 27f2 cd3d 3324 cfbd
00000020: 316f 8ebd 6400 93be 3d65 95be 4f11 093d
00000030: e1fd e63c 199e 73be 7eb6 06be 4c1f 64be
00000040: d267 9b3c 913a ee3d 094b 4c3e bbc4 3b3d
00000050: d3a0 bd3d 9a3d 8f3d 4f93 6f3e 5d4d d93d
00000060: 6dd5 6b3e 1532 f6bd 2862 dfbd 02a8 14be
00000070: 1d99 383c 73df cebb 33d0 da3d d4b1 debd
00000080: a14b 1ebd f0e3 373e d540 cd3d 5e07 613c
00000090: 8fff b13d cd6a 14bd b1ce 1fbe c8b1 563e
000000a0: fdd0 b03d f641 63be ea32 eabe eb10 043e
000000b0: 12b3 873c 9285 5ebd 5c9a 843d 08a2 9dbe
000000c0: 6216 ad3d 95ae 81bd a60d 613e 978b 3fbc
000000d0: 3d63 c2be 439d 1ebe e36c 1bbd 0254 98be
000000e0: e1c8 333d e15a 573d b174 eabc 7c24 febb
000000f0: 5092 a8be 3103 a4bc 73b8 cf3c 596a 733d
00000100: 5c68 443e ac08 b1bd 1bde f4be bcf5 05bf
00000110: 8eb6 5bbe a975 b43d 4f36 40be afff 7bbd
00000120: 0ee0 46be 389a 723b a939 043e 63ee 20be
00000130: ddfd 86be 6c1b 2fbd eac3 b93e 70c0 cabd
00000140: 6586 83be a356 abbd e574 093e eda1 30bd
00000150: fb56 01bf da55 09be b994 0d3d 424e 9a3d
00000160: 77c0 1c3e f6c8 ee3e dca0 e53c c5dc fc3e
00000170: 0060 7cbf b2de 8c3d 9a12 73be 3d9b 20be
00000180: 7f5f a13b 33f3 d93e 1409 34be 7e2e 993e
00000190: 6a15 4dbe 865a e0bd 4158 ae3d ad70 043e
000001a0: afed 15be 1797 d8be 2b29 19be cd19 e13d
000001b0: 497a 883c 83f7 aebd 835a c23e bcbb 743e
000001c0: f0da 59be d7e7 ef3d a252 06be 48ce 0cbe
000001d0: 5fd4 a7be 0303 fa3e aaac 93be fdf0 d73d
000001e0: 38ef 4fbe ae94 2cbd 5601 3dbe 21f7 a2be
000001f0: 9b42 92be d5e5 94be ed68 463e 262c 3cbd
00000200: 8285 11be 04fd 703d b283 853d 7c13 273e
00000210: 1da6 933d 9d27 393d 024a 8bbd 6823 683d
00000220: 2d24 463d 31b7 dbbd e739 c2bd bb56 bb3d
00000230: 03eb 5b3d 53a4 c33d b96d c6bd fff7 dfbc
00000240: 76f0 703d 6345 26ba bcee 99bd 8772 85bd
00000250: 4c6f 473d 4abf 483d e0e8 213d ddaf 1dbe
00000260: 637f 863c 8116 30bd 86ff c13c 5bf8 74bd
00000270: 7197 213e 1c8f 5c3b 4427 763d 09d9 3d3d
00000280: e68c d83d 2d89 f4bc 0325 ae3d 1bde 44bd
00000290: d8e1 4c3d c274 e6bd 9d16 0bbe 70b6 ae3d
000002a0: 09f7 9c3d 5429 023e fc68 453d ecc1 59bb
000002b0: 4ad2 80bd b116 dc3d fb80 19bd 8eae 03bc
000002c0: 7025 07be a8fb 6c3d 3cde 22bc 6d8b 4d3d
000002d0: 52cd 7ebd 2aa4 33bd 82ac c93c 579a 27be
000002e0: 9518 9a3c 2c0b 95bd 37f5 98bd aef3 e23d
000002f0: a735 fbbd 35b9 0f3d 5374 2bbd df8c 8c3d
00000300: 2221 a6bd 71ef cb3c 0faa d1bc e108 c3be
00000310: c901 c0bd 6c8f 29bc a9f1 abbd 5419 e7bd
00000320: 679d c4bd f244 243c d384 093e 64ad a1bd
00000330: 1881 173e 88e4 c3bd f2df ad3d 15c9 94bd
00000340: 9105 253d c51c 193d 757b 1d3e a727 2d3e
00000350: ca7e 41bd 582b 4d3e ada3 253e d857 8a3e
00000360: b4bb 16bd debd 053e 81d4 a7bd 3fd4 ff3d
00000370: 1c34 20be 94f0 d3bd 3c28 903d bdfa abbd
00000380: 3e0d a6bd a157 02bd 55da 03bd 6f13 fb3d
00000390: 3d76 17bd 667f 143c 98d2 adbd 7ef0 33be
000003a0: d66a 3ebc 6f07 263d df3a ac3c 6fb9 603e
000003b0: 8c26 f6b9 7c92 77bd ce74 e43c 2c84 2e3b
000003c0: 7dcf 60bd 0986 56be 6e1e 18be db21 2f3d
000003d0: 85fe d83c 79d9 493d e0a1 4abd 23ed e8bc
000003e0: 469d b6be 57a1 21bc c8a7 cf3d 5005 48bd
000003f0: 045d aa3e 3d9a 90bd 44ae 5cbe 5110 0c3e

gc_mlp.1.bias f4 [64]
-0.13736983 0.14552313 -0.004678871 0.06468457 -0.01679388 0.09751899 0.072571576 0.049393814
0.18383949 -0.08019654 0.06696481 0.07890696 0.06897126 0.066842325 0.17187321 0.081054926
-0.043019466 -0.08331043 0.091325246 -0.038387712 -0.038897835 -0.02221491 -0.04861752 -0.011056455
0.06728018 0.043022092 0.14099042 0.23041306 0.08466201 -0.04096227 0.02408505 -0.18755865
0.0054365993 -0.09280014 0.02691043 0.035881553 0.03694198 -0.049192283 -0.13878311 0.18330464
0.083750546 -0.12221507 -0.066491365 -0.007989634 -0.041247472 -0.0557685 -0.1471886 -0.038434807
0.09468681 -0.03303035 -0.040090676 0.15697995 0.05606227 -0.11161026 -0.069356166 -0.0037416206
0.090015925 -0.061668076 0.21742178 -0.050822597 -0.10387494 -0.048473634 0.19784047 -0.018405344
00000000: adaa 0cbe 0404 153e 3751 99bb 5879 843d
00000010: 5293 89bc 09b8 c73d 68a0 943d 2b51 4a3d
00000020: 6b40 3c3e 153e a4bd d924 893d f999 a13d
00000030: ce40 8d3d a1e4 883d 88ff 2f3e 2000 a63d
00000040: 2e35 30bd a99e aabd bb08 bb3d 6f3c 1dbd
00000050: 5653 1fbd 0bfc b5bc 2a23 47bd 2226 35bc
00000060: 31ca 893d ef37 303d cb5f 103e 67f1 6b3e
00000070: 4763 ad3d 0ec8 27bd 034e c53c 600f 40be
00000080: 8025 b23b 000e bebd 4373 dc3c 89f8 123d
00000090: 7950 173d d97d 49bd 291d 0ebe 36b4 3b3e
000000a0: 6885 ab3d e54b fabd a02c 88bd f4e6 02bc
000000b0: 1cf3 28bd 836d 64bd 9cb8 16be d16d 1dbd
000000c0: 29eb c13d d54a 07bd 1f36 24bd 5abf 203e
000000d0: 8da1 653d ec93 e4bd 9b0a 8ebd fa35 75bb
000000e0: 455a b83d aa97 7cbd d1a3 5e3e 5b2b 50bd
000000f0: 62bc d4bd 4a8c 46bd b196 4a3e cec6 96bc

gc_mlp.2.weight f4 [64, 64]
0.10644628 0.017382246 -0.1775302 -0.4934367 -0.39750633 0.06060973 -0.4137454 -0.07831644
-0.10583273 0.12882069 -0.15132505 -0.10766243 -0.10235748 -0.106809504 -0.026735974 0.10786198
0.062934056 0.12939577 -0.14645426 -0.16472825 -0.1399831 -0.10669192 -0.1812168 0.15213813
-0.12940797 -0.14731663 -0.30895513 -0.09854663 0.056596782 -0.19245301 -0.27117568 0.47861642
0.05890405 -0.20676461 -0.082371175 -0.11085595 -0.11409961 -0.08798906 0.18141948 -0.07629108
0.12505102 -0.2807181 -0.15607037 -0.30348852 -0.19753109 0.01356944 0.36273175 0.10040847
-0.19446228 -0.09808129 0.25923586 -0.21497324 -0.038265232 -0.11802522 0.08326684 -0.1598936
-0.12440598 -0.26249614 0.016035985 0.16610482 -0.13095984 0.11302415 0.07412817 -0.07841311
-0.029032193 -0.07236854 -0.009451228 0.030800633 -0.12615992 -0.042692617 0.12274713 -0.00022809641
0.0981242 -0.06341621 0.045821127 -0.05971616 0.026435936 -0.06866079 0.012325896 0.06966635
0.07909418 -0.04202945 0.037478194 0.016930267 0.039378237 0.028059112 -0.033872906 -0.05559638
0.05024122 0.09457237 -0.028448941 0.10325578 -0.07604293 0.080582514 -0.014046328 0.051259387
0.12748884 0.023928815 0.028945215 0.1363787 0.07587969 0.0051617166 -0.10706568 0.022553327
-0.0904923 0.091068946 0.07799659 0.07731755 -0.12746558 -0.053833466 0.06357569 -0.056553684
0.051494785 0.13819021 -0.050065838 -0.008440639 -0.028439648 -0.05388551 -0.06757125 -0.15273416
-0.09641541 0.09517217 0.031579047 -0.04080902 -0.038635645 -0.12793972 -0.1710648 -0.014801237
-0.015885022 -0.062066264 -0.108491 -0.009933895 -0.14400153 -0.07634212 0.047482785 -0.030768586
0.08198847 0.12239667 -0.0781351 -0.048190366 -0.04200132 0.041471038 -0.040799033 -0.006636543
0.004335671 0.0069406596 -0.046879083 0.063517824 -0.08141206 0.02811173 -0.12028283 -0.12124246
0.003595125 -0.10785785 -0.092275836 0.0091485595 -0.037181348 0.1004831 0.09099022 0.045007873
0.02359477 0.027496187 -0.0048254956 -0.03019116 -0.11619624 -0.1016831 -0.07705283 0.06050783
-0.0479796 0.01641317 -0.042410214 -0.10153516 -0.06765809 0.011158756 0.017910508 -0.07367424
-0.012323907 -0.0047385087 0.11097148 0.030168794 0.10127037 -0.09300624 0.04143511 -0.09415134
-0.00307936 0.109883726 0.1648288 -0.021429408 -0.01734301 -0.0643161 0.12439842 0.0743821
-0.1583588 -0.34784412 0.02717152 0.07620073 -0.008815283 -0.03675385 -0.31273782 0.12234308
-0.12810123 -0.106948785 0.059322797 0.12488776 -0.13901484 0.00491047 -0.17671403 0.12351492
0.017546123 -0.07127906 0.1113543 -0.057254087 0.10493456 0.048013963 -0.4462347 -0.028502116
0.10522401 0.016131962 -0.11576022 0.099864624 0.08484783 0.073908366 -0.058950517 -0.18452853
0.11701023 0.027532421 0.09788547 0.13760951 -0.007817788 -0.014479559 0.0382638 -0.12411565
0.06244807 -0.019670516 0.06643334 0.07448554 -0.07112042 0.054259684 -0.14385499 0.112980224
0.11854084 -0.074494906 -0.12823515 0.026638681 0.033676546 -0.026183536 -0.081346445 -0.38424048
-0.0009531915 -0.38651922 0.06556929 -0.0733911 -0.6324152 0.010248515 -0.22220796 0.16101766
00000000: 8200 da3d 3665 8e3c 7aca 35be bca3 fcbe
00000010: f385 cbbe e941 783d 70d6 d3be 5f64 a0bd
00000020: d5be d8bd 92e9 033e f4f4 1abe 1f7e dcbd
00000030: cca0 d1bd f1be dabd 6705 dbbc bee6 dc3d
00000040: 92e3 803d 5380 043e 1bf8 15be 86ae 28be
00000050: bb57 0fbe 4b81 dabd e690 39be 19ca 1b3e
00000060: 8683 04be 2cda 16be 5e2f 9ebe d1d2 c9bd
00000070: 07d2 673d 6712 45be 8ad7 8abe 360d f53e
00000080: 6045 713d 1aba 53be 38b2 a8bd 7208 e3bd
00000090: 0ead e9bd 9c33 b4bd 07c6 393e 7f3e 9cbd
000000a0: 600d 003e 48ba 8fbe e9d0 1fbe d962 9bbe
000000b0: 9745 4abe 5b52 5e3c fab7 b93e f5a2 cd3d
000000c0: 1f21 47be d8de c8bd 90ba 843e f221 5cbe
000000d0: 01bc 1cbd 35b7 f1bd ce87 aa3d 26bb 23be
000000e0: 90c8 febd e565 86be e65d 833c 6217 2a3e
000000f0: 561a 06be 3579 e73d 83d0 973d 0d97 a0bd
00000100: ecd4 edbc f535 94bd 53d9 1abc 9c51 fc3c
00000110: 1130 01be 74de 2ebd d962 fb3d 2a2d 6fb9
00000120: 57f5 c83d 5ce0 81bd efae 3b3d ef98 74bd
00000130: 2d90 d83c 079e 8cbd 8ef2 493c 3bad 8e3d
00000140: 21fc a13d 1327 2cbd bc82 193d 58b1 8a3c
00000150: 134b 213d 39dc e53c 51be 0abd 08b9 63bd
00000160: bdc9 4d3d 29af c13d c10d e9bc c477 d33d
00000170: 65bc 9bbd 7208 a53d 9222 66bc 5df5 513d
00000180: 6f8c 023e 5d06 c43c 841e ed3c dca6 0b3e
00000190: d066 9b3d 9e23 a93b 4045 dbbd c1c1 b83c
000001a0: 0754 b9bd 5b82 ba3d adbc 9f3d aa58 9e3d
000001b0: 5686 02be 7b80 5cbd f933 823d d6a4 67bd
000001c0: 32ec 523d bc81 0d3e d611 4dbd 9b4a 0abc
000001d0: 44fa e8bc 0db7 5cbd cc62 8abd 5866 1cbe
000001e0: 7175 c5bd a0e9 c23d 0859 013d 5c27 27bd
000001f0: 6940 1ebd a102 03be 9c2b 2fbe e380 72bc
00000200: 4e21 82bc 3239 7ebd 8830 debd c7c1 22bc
00000210: 2375 13be 4259 9cbd 4f7d 423d 670e fcbc
00000220: 92e9 a73d 1bab fa3d 4c05 a0bd 4363 45bd
00000230: 9309 2cbd 89dd 293d e31c 27bd 5c77 d9bb
00000240: 3f12 8e3b 796e e33b 4804 40bd a215 823d
00000250: 5ebb a6bd 924a e63c d856 f6bd f84d f8bd
00000260: 309c 6b3b 94e4 dcbd 1dfb bcbd d7e3 153c
00000270: 784b 18bd 15ca cd3d 1559 ba3d 2d5a 383d
00000280: d249 c13c af3f e13c 311f 9ebb 7453 f7bc
00000290: 4bf8 edbd 3b3f d0bd e0cd 9dbd 0fd7 773d
000002a0: 4286 44bd ea74 863c 55b6 2dbd aaf1 cfbd
000002b0: 5390 8abd 37d3 363c 0fb9 923c 85e2 96bd
000002c0: 36ea 49bc 7e45 9bbb 0445 e33d 8c24 f73c
000002d0: d766 cf3d 0e7a bebd ddb7 293d 6bd2 c0bd
000002e0: 16cf 49bb b80a e13d e2c8 283e ba8c afbc
000002f0: ee12 8ebc 29b8 83bd 99c4 fe3d a455 983d
00000300: cf28 22be a018 b2be cf96 de3c 210f 9c3d
00000310: fa6d 10bc 348b 16bd 2c1f a0be 028f fa3d
00000320: f82c 03be f707 dbbd 76fc 723d 27c5 ff3d
00000330: e859 0ebe 02e8 a03b 86f4 34be 64f5 fc3d
00000340: e3bc 8f3c c1fa 91bd b90d e43d 4383 6abd
00000350: eee7 d63d 4aaa 443d e078 e4be 457d e9bc
00000360: b07f d73d 2d27 843c b213 edbd d385 cc3d
00000370: b3c4 ad3d 455d 973d 1976 71bd 0cf5 3cbe
00000380: 0fa3 ef3d ac8b e13c 2d78 c83d 82e9 0c3e
00000390: 2e16 00bc ac3b 6dbc 81ba 1c3d 5930 febd
000003a0: 8cc9 7f3d 1024 a1bc 340e 883d e08b 983d
000003b0: 95a7 91bd 673f 5e3d b94e 13be 2d62 e73d
000003c0: 8ac5 f23d c990 98bd 1350 03be 5d39 da3c
000003d0: 6bf0 093d db7e d6bc f798 a6bd 2bbb c4be
000003e0: 99df 79ba d9e5 c5be 3149 863d 134e 96bd
000003f0: f6e5 21bf 63e9 273c 7c8a 63be d0e1 243e

gc_mlp.2.bias f4 [64]
0.15213059 -0.08173453 -0.10337549 0.109657705 0.10854809 0.059792258 -0.04517191 -0.09710125
0.20849727 -0.17022648 -0.047612518 0.06661247 0.19819681 -0.08530604 0.04279238 -0.049839064
0.12935221 -0.1243531 -0.07002241 0.14470427 0.096651256 0.002991426 -0.11858228 -0.058440045
0.0573473 0.29079852 0.21670574 -0.023406826 0.10408474 0.062412947 0.05673446 -0.12766168
0.24308741 0.09828153 0.13185003 -0.0022542435 0.021446416 0.003641925 -0.17714266 -0.05457338
0.012555337 -0.12037469 0.13173087 0.049396284 0.06740731 0.10362657 -0.0703956 0.15019897
-0.086267546 -0.01569815 0.26339978 0.18020335 -0.11812939 0.029369375 0.073943645 0.11854177
0.30273226 -0.096086234 0.27413124 0.18225995 -0.02710255 0.11486017 -0.11891656 -0.06682756
00000000: 1fc8 1b3e 6f64 a7bd 87b6 d3bd 3894 e03d
00000010: 764e de3d bae8 743d 2e06 39bd 05dd c6bd
00000020: 4f80 553e da4f 2ebe 5805 43bd 1e6c 883d
00000030: 1bf4 4a3e efb4 aebd 1047 2f3d 0c24 4cbd
00000040: e874 043e d7ac febd e967 8fbd 5b2d 143e
00000050: 18f1 c53d cd0b 443b 44db f2bd d45e 6fbd
00000060: 01e5 6a3d 8be3 943e 1ce8 5d3e acbf bfbc
00000070: 612a d53d b8a4 7f3d 6562 683d beb9 02be
00000080: e8eb 783e d447 c93d b203 073e eebb 13bb
00000090: 65b0 af3c 5dad 6e3b e364 35be 5688 5fbd
000000a0: e6b4 4d3c 0187 f6bd 75e4 063e c253 4a3d
000000b0: d80c 8a3d 2b3a d43d 912b 90bd c2cd 193e
000000c0: 0aad b0bd 6899 80bc 56dc 863e 3a87 383e
000000d0: d2ed f1bd 0b98 f03c c46f 973d 07c6 f23d
000000e0: b9ff 9a3e dcc8 c4bd ee5a 8c3e 5aa2 3a3e
000000f0: 2b06 debc cf3b eb3d 878a f3bd e3dc 88bd

bi_mlp.0.weight f4 [64, 64]
-0.22530174 0.4612208 -0.15804099 -0.08146275 -0.15708424 -0.1276992 0.114650585 0.26740178
-0.2709681 0.08656241 0.12161018 0.016262112 0.18319935 0.036731545 0.06327186 -0.13394354
0.06390037 0.22685765 0.59282386 0.032028876 0.14520149 0.114185974 0.05296231 0.032173533
-0.38762978 0.13966574 0.06884893 0.26946452 0.060585372 -0.39932686 0.41663098 -0.00046264616
0.13060346 0.2759892 -0.07184361 0.068418086 0.26577783 0.20472543 0.13778201 0.37423587
0.30786276 -0.025308622 0.31821445 0.06989114 0.23116581 -0.15929484 -0.1577286 0.054053485
-0.10445133 0.13854074 0.2795453 0.10526305 0.23901397 0.26179805 0.05467037 0.18602413
-0.2692245 -0.015225692 -0.14664827 -0.020809405 -0.5044219 0.1950441 -0.27608615 0.40140894
-0.19845057 0.3269991 -0.1285949 -0.2456849 -0.10076112 -0.42652893 -0.030981468 0.28607535
0.009108779 0.08254671 0.0035048756 0.036617704 -0.097038 0.13015442 0.20433983 0.340893
0.03633367 -0.23858848 0.4132863 0.09339396 0.18624504 0.13546807 0.28026742 -0.14954601
-0.45485696 -0.14669257 0.37918034 0.09453485 -0.14495048 -0.56468755 0.0185119 0.13955809
-0.41175938 -0.038092963 0.10768361 0.059731394 0.062010664 0.412955 0.2611532 0.3130481
0.41033545 -0.051853497 0.087220185 -0.13002829 0.27365014 -0.22136913 -0.22777356 0.012253429
-0.19058704 0.12372902 -0.21925536 0.07859344 -0.058666296 0.18864897 0.14952202 0.24880886
0.07854357 0.070770994 0.024293855 0.12282866 -0.19822907 0.2502813 -0.31217837 0.40268877
-0.08884214 -0.18664391 -0.12085032 0.05452679 0.029756015 0.022146983 -0.08436465 -0.059483435
0.3434196 -0.2315008 -0.2656035 0.018407915 -0.26582676 -0.10342066 0.0642243 0.20733525
-0.20867881 0.22305103 -0.23074974 -0.17244507 0.013768762 -0.0611054 -0.006139494 -0.3303959
0.18773939 -0.14594644 0.2179405 -0.055580635 0.018808264 0.46001443 -0.030802356 -0.03680711
0.42899936 -0.1165788 -0.038940605 -0.12820724 0.10207869 0.033540506 0.08573514 0.18278594
-0.13005152 -0.067217946 0.32552236 0.124304555 -0.0027636213 0.13290617 0.21041888 -0.1311087
-0.10041162 -0.071409106 0.038271785 -0.099903286 0.22030422 -0.01774427 0.087328956 -0.039313417
0.24796236 0.22630061 -0.11521977 0.15992999 -0.26616144 0.026686933 0.06016965 -0.16535577
0.0072900853 0.024566071 0.16549781 0.18734981 -0.04061237 0.19489814 0.33384228 -0.15783934
-0.38419405 0.26310346 -0.003082019 -0.16651595 0.16300163 0.019686596 0.056141634 -0.16085793
0.42115894 -0.11544877 0.17462793 0.10156738 0.062203083 -0.012446146 -0.2217385 0.25517282
-0.15295039 -0.018636141 0.14658889 -0.044053037 -0.08088799 -0.34376517 0.052981183 0.5946364
-0.11457799 0.3157633 0.05107308 0.22165258 -0.11992573 0.09967229 -0.13843642 -0.30510032
0.044383235 0.18262677 0.018256588 0.06353697 -0.27185062 -0.015990818 0.00017125893 -0.067008086
0.32769072 -0.036214903 0.31575522 -0.15495713 0.016600527 0.031431664 0.046271652 -0.11175106
-0.058300573 -0.47689018 -0.22807601 -0.07342175 0.124556795 0.09852986 0.19544612 0.13005394
00000000: 80b5 66be 2225 ec3e 7fd5 21be f1d5 a6bd
00000010: b1da 20be 94c3 02be edcd ea3d e3e8 883e
00000020: 55bc 8abe a247 b13d c20e f93d 1f38 853c
00000030: 9c98 3b3e d173 163d ad94 813d 7f28 09be
00000040: 32de 823d 5f4d 683e 4ec3 173f b630 033d
00000050: b3af 143e 56da e93d 02ef 583d 65c8 033d
00000060: 6977 c6be 8904 0f3e ab00 8d3d 41f7 893e
00000070: 5e28 783d 9274 ccbe a850 d53e 518f f2b9
00000080: eabc 053e 754e 8d3e be22 93bd c81e 8c3d
00000090: 0814 883e 8ba3 513e ba16 0d3e d89b bf3e
000000a0: 30a0 9d3e 0754 cfbc 01ed a23e 1623 8f3d
000000b0: bbb6 6c3e 301e 23be 9b83 21be 3067 5d3d
000000c0: 94ea d5bd a0dd 0d3e 9020 8f3e 2794 d73d
000000d0: 14c0 743e 650a 863e 0aee 5f3d 1c7d 3e3e
000000e0: cbd7 89be 2e75 79bc f72a 16be 7c78 aabc
000000f0: cb21 01bf a4b9 473e 2a5b 8dbe 7985 cd3e
00000100: a036 4bbe 6d6c a73e 62ae 03be d394 7bbe
00000110: d95b cebd 0062 dabe d9cc fdbc 7878 923e
00000120: fd3c 153c 400e a93d 0eb2 653b 72fc 153d
00000130: dcbb c6bd 3347 053e 763e 513e 8789 ae3e
00000140: 9dd2 143d 8a50 74be 439a d33e 5545 bf3d
00000150: 05b7 3e3e 24b8 0a3e 367f 8f3e 9722 19be
00000160: 03e3 e8be 9436 16be ed23 c23e 7d9b c13d
00000170: e66d 14be 5d8f 10bf 45a6 973c 51e8 0e3e
00000180: 20d2 d2be 5e07 1cbd 3989 dc3d e8a8 743d
00000190: e5fe 7d3d d66e d33e dfb5 853e d747 a03e
000001a0: 7d17 d23e 5564 54bd 7fa0 b23d 2326 05be
000001b0: df1b 8c3e 97ae 62be 793d 69be 9bc2 483c
000001c0: 4029 43be a465 fd3d 7a84 60be 99f5 a03d
000001d0: 124c 70bd 322d 413e 4d1c 193e c0c7 7e3e
000001e0: 74db a03d 62f0 903d e803 c73c 988d fb3d
000001f0: 90fc 4abe df24 803e d8d5 9fbe 392d ce3e
00000200: def2 b5bd 951f 3fbe 5f80 f7bd 7c57 5f3d
00000210: e3c2 f33c 976d b53c 60c7 acbd e7a4 73bd
00000220: b2d4 af3e 8c0e 6dbe 2ffd 87be 32cc 963c
00000230: 721a 88be 36ce d3bd 0888 833d b14f 543e
00000240: e6af 55be 7d67 643e a949 6cbe 7195 30be
00000250: 6096 613c a849 7abd cf2d c9bb a729 a9be
00000260: c13e 403e fc72 15be cb2b 5f3e 85a8 63bd
00000270: ca13 9a3c 0387 eb3e 3955 fcbc 0dc3 16bd
00000280: cea5 db3e dec0 eebd 2f80 1fbd c248 03be
00000290: a20e d13d c561 093d e895 af3d 3d2c 3b3e
000002a0: 3a2c 05be 90a9 89bd deaa a63e 6393 fe3d
000002b0: df1d 35bb 8e18 083e 0c78 573e 5c41 06be
000002c0: 9ca4 cdbd f03e 92bd e0c2 1c3d 189a ccbd
000002d0: 6e97 613e 6e5c 91bc 86d9 b23d 1b07 21bd
000002e0: d8e9 7d3e 59bb 673e 58f8 ebbd b0c4 233e
000002f0: 5046 88be 8e9e da3c 7374 763d 0653 29be
00000300: abe1 ee3b c93e c93c 4278 293e a1d8 3f3e
00000310: 2859 26bd 6193 473e 60ed aa3e a3a0 21be
00000320: 15b5 c4be 7fb5 863e b3fb 49bb 2883 2abe
00000330: e6e9 263e c945 a13c c5f4 653d f1b7 24be
00000340: 25a2 d73e 6870 ecbd aad1 323e 8f02 d03d
00000350: a9c8 7e3d ecea 4bbc 6b0f 63be 03a6 823e
00000360: 079f 1cbe d2aa 98bc 661b 163e f570 34bd
00000370: 9aa8 a5bd fd01 b0be cc02 593d 173a 183f
00000380: dda7 eabd baab a13e 0232 513d e5f8 623e
00000390: 9f9b f5bd fc20 cc3d 47c2 0dbe 1c36 9cbe
000003a0: 32cb 353d 8302 3b3e d78e 953c ac1f 823d
000003b0: 0130 8bbe 2dff 82bc f893 3339 893b 89bd
000003c0: 14c7 a73e 1456 14bd abaa a13e 15ad 1ebe
000003d0: d4fd 873c 7dbe 003d 5887 3d3d bddd e4bd
000003e0: 95cc 6ebd f32a f4be c28c 69be 245e 96bd
000003f0: a217 ff3d 06ca c93d 0723 483e dc2c 053e

bi_mlp.0.bias f4 [64]
-0.25092313 -0.11392676 -0.005211594 -0.12838772 -0.09621365 0.1357616 0.12249846 0.15702854
-0.055964712 0.09509086 -0.024389742 0.08994505 -0.014675383 0.05836337 -0.03520582 -0.06481749
-0.0048967707 0.118939795 0.06472446 -0.19237106 0.09326595 0.028004749 0.004846524 -0.006852903
0.1672085 0.052689653 0.034551017 -0.01601813 -0.14369474 -0.05005379 0.07861715 -0.084197536
0.025331262 -0.109085634 -0.13278092 0.016443146 -0.008894221 -0.0016845054 0.05577744 -0.031892303
-0.015067378 0.04935634 -0.13433398 0.0032339953 0.07798708 0.12113055 -0.043482047 0.06380684
0.15164289 0.018356994 0.026016083 -0.040588737 -0.031644993 -0.08526546 0.12847814 0.046557162
0.09490157 0.08593039 -0.010888725 0.13135168 -0.21419877 0.24452576 0.15377308 -0.17235453
00000000: ff78 80be 6f52 e9bd 05c6 aabb 1278 03be
00000010: aa0b c5bd 1705 0b3e 79e0 fa3d 17cc 203e
00000020: 413b 65bd ffbe c23d ffcc c7bc 1c35 b83d
00000030: 0571 70bc 6e0e 6f3d fa33 10bd 08bf 84bd
00000040: 1775 a0bb b596 f33d 428e 843d ebfc 44be
00000050: 3802 bf3d 376a e53c 97cf 9e3b 518e e0bb
00000060: b438 2b3e 1bd1 573d 5e85 0d3d 7438 83bc
00000070: b724 13be 3405 4dbd 0702 a13d c26f acbd
00000080: 8283 cf3c 4a68 dfbd b9f7 07be c7b3 863c
00000090: 11b9 11bc 9fca dcba e376 643d 81a1 02bd
000000a0: 2add 76bc e029 4a3d d98e 09be 70f1 533b
000000b0: b1b7 9f3d 4b13 f83d 3b1a 32bd 29ad 823d
000000c0: 4648 1b3e 6861 963c ae1f d53c 6040 26bd
000000d0: 2e9e 01bd a89f aebd c68f 033e b9b2 3e3d
000000e0: c15b c23d 46fc af3d 9f66 32bc 0e81 063e
000000f0: ec56 5bbe f664 7a3e b176 1d3e b57d 30be

bi_mlp.1.weight f4 [64, 64]
0.111312486 0.78841394 -0.1703852 0.11411232 -0.00033620678 -0.47849447 0.11031141 -0.028459499
0.1525074 0.22453192 -0.015739491 -0.082386106 0.112475075 -0.0832019 0.6506575 -0.018611405
0.074876785 -0.02458676 -0.16897646 0.009487329 0.047941376 -0.027713919 -0.010338651 0.09782021
-0.11582085 -0.12186699 0.09467566 0.29021606 -0.06895892 -0.14557502 -0.016356867 0.0016049345
-0.06078492 0.043282274 -0.14992169 -0.08362557 -0.1293836 0.017108822 0.034441575 0.09432312
-0.20414197 -0.16921572 -0.06764598 0.11274102 0.0049998835 0.03232929 -0.037506096 -0.04164787
-0.00026714825 -0.14529479 0.14493962 -0.033341788 -0.23404434 -0.017842349 0.087644 0.19548512
-0.11474985 -0.06956857 0.35192537 0.13571022 -0.12351441 0.017034698 -0.07796545 0.080975026
0.10910249 0.26297686 -0.009232627 0.043028627 -0.21305299 -0.1511261 -0.12477668 0.11370069
-0.11579563 0.118404426 0.09248502 -0.08250975 0.03506264 0.031677626 0.033761412 0.0070690736
0.025068367 -0.045205817 0.044079483 0.01719327 0.0010508704 0.097249396 -0.06423724 -0.099840134
-0.13571812 -0.08986092 0.033686567 -0.29838663 0.01825662 0.1315348 0.18459111 -0.107888915
-0.06519528 -0.1129993 -0.10912755 0.06278605 0.004678915 0.030555485 -0.08944524 -0.26560995
-0.06594792 -0.22788657 -0.020683413 -0.115873404 -0.079039276 0.084379464 0.21659237 0.02742821
0.0057685217 -0.028441634 0.0780362 -0.3970203 -0.006766593 -0.0326152 0.027026964 -0.05668949
0.13509658 -0.012388783 0.016670482 0.011071985 -0.04646012 0.06922453 -0.43923414 0.07211773
-0.048656266 0.2896908 -0.13697588 0.13268103 0.09727813 -0.24690011 0.051190212 -0.054716818
0.28528556 -0.037543915 -0.06873414 0.11586701 -0.0628816 -0.008934292 0.04823851 -0.15798184
0.02670741 0.07140979 0.024736304 -0.07773531 0.16215605 -0.042198736 0.12565745 0.101929456
0.018593311 0.004992326 0.020522919 0.29770577 -0.10183189 0.11685172 0.02509705 -0.01655849
-0.090091854 0.017168177 -0.035873853 -0.08166954 -0.13689438 0.07691953 0.06271993 0.21752487
-0.13866132 0.15280364 0.104579024 0.23109739 0.030566689 -0.07871027 -0.23735934 0.046393327
-0.11575349 -0.061226156 0.06664613 0.20373872 -0.09683212 0.03388557 -0.07872355 0.06737425
-0.26696226 0.085086524 0.14349343 0.029004926 -0.08380322 0.05118636 0.41882533 0.102878995
0.13447452 0.91659 -0.07996725 0.047702752 0.04070224 -0.6253758 -0.033448447 -0.090669096
0.031766202 0.0670934 -0.0905427 -0.039825473 0.02485538 -0.071883194 0.42036897 -0.07172515
-0.009825876 -0.047037534 -0.0025060445 -0.07646865 0.11134372 0.10291624 0.15056089 0.11598618
-0.25430605 -0.06775946 -0.07986297 0.18350385 -0.04804058 -0.08859662 0.18451723 -0.086055614
-0.043584436 -0.12474371 0.047392193 -0.06569843 -0.03081515 -0.032593668 0.14303042 -0.14994355
-0.32600957 -0.058480263 -0.089139394 0.14374623 0.055359848 -0.0858659 -0.07065509 -0.05297731
-0.19849887 0.0755388 -0.014776665 0.024069222 -0.103991196 -0.124968514 -0.0356711 0.1406292
-0.17758706 -0.03419114 0.55813855 0.089562654 -0.20328577 0.06153226 -0.27391946 -0.12194493
00000000: cdf7 e33d 7fd5 493f 7579 2ebe b8b3 e93d
00000010: e944 b0b9 3afd f4be f3ea e13d e523 e9bc
00000020: e62a 1c3e b2eb 653e 1bf0 80bc 0cba a8bd
00000030: 5559 e63d c265 aabd 7d91 263f f276 98bc
00000040: 0059 993d 2c6a c9bc 2a08 2dbe be70 1b3c
00000050: 2d5e 443d 4d08 e3bc 7263 29bc f655 c83d
00000060: 7b33 edbd 6795 f9bd 50e5 c13d 3397 943e
00000070: 563a 8dbd 9e11 15be d6fe 85bc aa5c d23a
00000080: 9cf9 78bd c148 313d 1285 19be e243 abbd
00000090: 227d 04be cd27 8c3c 9c12 0d3d 7b2c c13d
000000a0: 980a 51be e346 2dbe fa89 8abd c4e4 e63d
000000b0: 10d6 a33b b86b 043d fe9f 19bd f596 2abd
000000c0: 0810 8cb9 28c8 14be 0d6b 143e 6691 08bd
000000d0: 52a9 6fbe 1e2a 92bc b37e b33d 402d 483e
000000e0: f801 ebbd f779 8ebd 902f b43e 9ff7 0a3e
000000f0: 1ff5 fcbd 5a8c 8b3c 5aac 9fbd 3cd6 a53d
00000100: 2071 df3d e7a4 863e 7244 17bc c93e 303d
00000110: 902a 5abe cdc0 1abe ea8a ffbd e8db e83d
00000120: 4226 edbd 057e f23d c968 bd3d dffa a8bd
00000130: d89d 0f3d 66c0 013d 6849 0a3d b0a3 e73b
00000140: 2d5c cd3c bc29 39bd b08c 343d e7d8 8c3c
00000150: 5cbd 893a b12a c73d d08e 83bd fc78 ccbd
00000160: b1f9 0abe 0109 b8bd edfa 093d 22c6 98be
00000170: e88e 953c 0fb1 063e 7405 3d3e ddf4 dcbd
00000180: 1a85 85bd 2d6c e7bd 447e dfbd f995 803d
00000190: 9551 993b 7f4f fa3c 112f b7bd 07fe 87be
000001a0: b40f 87bd 195b 69be 4370 a9bc 094f edbd
000001b0: 58df a1bd 24cf ac3d 64ca 5d3e 20b1 e03c
000001c0: de05 bd3b 6efe e8bc 71d1 9f3d 3f46 cbbe
000001d0: 4cba ddbb 8497 05bd a767 dd3c 3d33 68bd
000001e0: c256 0a3e 52fa 4abc 8990 883c 4567 353c
000001f0: f74c 3ebd 97c5 8d3d 4ce3 e0be 76b2 933d
00000200: cb4b 47bd 5a52 943e 6843 0cbe 89dd 073e
00000210: c239 c73d 62d3 7cbe d4ac 513d be1e 60bd
00000220: f310 923e a6c7 19bd 7cc4 8cbd af4b ed3d
00000230: 11c8 80bd 2361 12bc be95 453d fec5 21be
00000240: 80c9 da3c 4c3f 923d caa3 ca3c b133 9fbd
00000250: 3c0c 263e 95d8 2cbd 59ac 003e 64c0 d03d
00000260: 0051 983c aa96 a33b ae1f a83c e46c 983e
00000270: 3d8d d0bd f44f ef3d 5498 cd3c aca5 87bc
00000280: 1482 b8bd 47a4 8c3c 76f0 12bd 5c42 a7bd
00000290: 0a2e 0cbe fd87 9d3d 4f73 803d d7be 5e3e
000002a0: 3cfd 0dbe 8f78 1c3e 872d d63d cba4 6c3e
000002b0: fe66 fa3c da32 a1bd 540e 73be ee06 3e3d
000002c0: 2a10 edbd 47c8 7abd c47d 883d e2a0 503e
000002d0: eb4f c6bd 98cb 0a3d d039 a1bd 83fb 893d
000002e0: 47af 88be d841 ae3d f1ef 123e bd9b ed3c
000002f0: 06a1 abbd caa8 513d 4670 d63e 39b2 d23d
00000300: b0b3 093e a4a5 6a3f dfc5 a3bd f663 433d
00000310: 64b7 263d a118 20bf 3d01 09bd b8b0 b9bd
00000320: 471d 023d 4468 893d 736e b9bd 0920 23bd
00000330: 839d cb3c 7f37 93bd 9a3a d73e a3e4 92bd
00000340: b6fc 20bc 6eaa 40bd 733c 24bb 989b 9cbd
00000350: 2d08 e43d c0c5 d23d a22c 1a3e 2a8a ed3d
00000360: 6734 82be 79c5 8abd 328f a3bd 6fe8 3b3e
00000370: 33c6 44bd 2572 b5bd 16f2 3c3e ed3d b0bd
00000380: 9885 32bd a179 ffbd 511e 423d e68c 86bd
00000390: 0e70 fcbc f080 05bd 9176 123e cd8a 19be
000003a0: baea a6be 0089 6fbd b78e b6bd 3632 133e
000003b0: 02c1 623d 76da afbd 9eb3 90bd bcfe 58bd
000003c0: 4a43 4bbe 16b4 9a3d d319 72bc d12c c53c
000003d0: 56f9 d4bd 7eef ffbd dc1b 12bd 1a01 103e
000003e0: 62d9 35be 020c 0cbd 2be2 0e3f a06c b73d
000003f0: 252a 50be 4009 7c3d 2c3f 8cbe 43be f9bd
