pretrain_models/ml-100k-bpr-0-64.pt (torch, 673227 bytes, 2 tensors)

embedding_user.weight f4 [943, 64]
00000000: 55eb 45bc 0c14 7cbf bc37 aabe 6cd7 b63e
00000010: e826 b93e b05a 18bd 7d46 c9be c937 963d
00000020: e5b1 1e3f 563a c6bf 5b6c 973e 90d1 9ebd
00000030: 3258 83bf 4558 84bc aa2c 373e 2033 29bf
00000040: 7ffa 0abf 70ca b2be a4a2 32bf 530d f2be
00000050: 8e49 d33e 97c6 46bf 77d7 5abf f0f5 ff3e
00000060: b9c3 413e f68b bcbd fa64 223e f45e 0cbf
00000070: 3bce b33f 5ad2 5c3e b225 d63c e72b d4be
00000080: 4ce2 543d 00ed 7d3d 67ae 10be ad4a 6d3d
00000090: e67f 4bbf d033 3b3d 2f36 6f3f 23f6 fbbd
000000a0: 477b 26be ec46 603f 407e 62be 0dca 53bf
000000b0: f3d2 0dbf b4c1 723e b686 5ebf 7298 ebbd
000000c0: 9947 0a3f 107d 7f3e b060 81bd 1719 133f
000000d0: 8788 49bf 2e87 a23f 26bf 533d b4cf c3be
000000e0: 05d5 de3e 4734 8f3e 30c3 1abf 5917 48bf
000000f0: b659 7f3f 05c2 09bf 654c 79be 67ad a63e
00000100: ae57 993c eab6 383f c15e d93e c352 12bf
00000110: 6618 30bf 95a8 e6bc 1d2d e73e 8670 303c
00000120: e07e 27be baac afbe 407b 9a3e 58aa 2abf
00000130: abf0 a73d 426c 6d3f 487c 403f dae6 d63c
00000140: fbed ccbd b099 0abf 1ad5 373c 7eda 45bd
00000150: fef9 75be 38e0 e2be d813 eebc 01d0 6d3f
00000160: 465a c3be 47a4 483f 30ee 143e f195 57be
00000170: d996 10be d7d4 06bf 6488 47bf 3f9e 263e
00000180: 3904 e83e 80da 6b3e 3e5b 843d 553f 0b3e
00000190: 43c0 07bf e11d b1be 1ac8 9f3e 8dc0 66bf
000001a0: f4b1 9abe 7aa5 dd3d e357 fd3e 3c7b fe3e
000001b0: 71f0 4d3e 58de b83e 7b8c 02bf 6210 bc3b
000001c0: 74d1 523f 374c b53e 3aa1 2a3f 27b2 7d3e
000001d0: 83c5 e4be 5445 e6bc a13f 1cbf 5a00 d33e
000001e0: ccba 00bf 6462 543e dfff 143f 0118 81bd
000001f0: 2ce6 853e 0771 fd3d 68f1 d2be 48dc 85be
00000200: cf0f c0be d856 4b3e af57 433f 4a08 58bc
00000210: c5d0 cfbe 2ecb 913e 9917 033f be53 03bf
00000220: de8e 193f 94fd cabe 191e d2be b1d1 263f
00000230: 7c20 4abf 094c 69be 7754 313f eef4 bebe
00000240: 497b a7bd 9083 0ebf 486a bbbe e199 b7bd
00000250: 1a00 debe cea0 a73e a800 353e 2226 d93e
00000260: f7d6 a2be 7f2e 463f b4b2 3d3d 091b cdbe
00000270: f287 26bf 9dfe d4bd 1221 04be cbb5 0ebe
00000280: 770e 0f3f cf75 193e 0f43 bd3e 5f65 473d
00000290: 66b3 013f 85de 8bbe 11a7 ffbe 36d7 c93c
000002a0: 9dff 673c 73cf 203e be16 79be cca7 3fbf
000002b0: 327c 4f3e 0aea 60be aa96 78be 825e 953e
000002c0: cfcb a03e 76e1 003f 38a6 e93e 2980 593e
000002d0: 7a9e bdbe d7cf 51bf 6975 fdbd 9f8b 0f3e
000002e0: 64e1 41bf 5191 0c3f 216e 063f e724 383f
000002f0: a3bd 183e 9d0c 1ebf 0d88 153e 0e02 053f
00000300: c760 d0be 4726 c23e 35ce fc3e bb41 f7bd
00000310: f778 cebd 5b00 7a3f 14b5 a2be 7009 69be
00000320: 7e5a cf3d f3af b1be 181b 05bf 2e67 7cbc
00000330: a5b5 a4be 6573 c5be a5df ee3d c923 04bd
00000340: 38ed 753e cb4f c43d 83f6 95be c297 163f
00000350: f432 8fbe 1050 0b3e eecc 443e 018b 933e
00000360: f9cc 4e3f e7a5 0b3f 491e 15be cce1 9c3e
00000370: 20cc 92be 89ea 823d 8a3d d8be f04e 623c
00000380: 086d 4e3d fcc0 483f da77 d63d ad80 8a3d
00000390: f84a b03e ed7c b3be 1318 23bf f081 bf3e
000003a0: 12f1 0cbf 2ed3 0dbf 723d 943e 11d3 e1be
000003b0: 8394 1cbe e161 bfbe 1446 26bf 3fe6 67be
000003c0: 3a6b 37be 9a52 083f 1ac4 983e 9999 b13e
000003d0: a759 06bf 162d 54bf fef2 cebc 3fe3 e5be
000003e0: 391b edbe 6423 a33c 7fc7 f53e 21de 14bf
000003f0: 140d 603e e46b 45bd b115 6abe ad4b 863e
-0.012080033 -0.9846809 -0.33245647 0.3571123 0.36162496 -0.03719586 -0.3931159 0.07334859
0.61990196 -1.5486553 0.29574856 -0.077548146 -1.026129 -0.016155371 0.17888132 -0.66093636
-0.54288477 -0.34920073 -0.6977942 -0.4727579 0.41267055 -0.77646774 -0.85485023 0.49992323
0.18922319 -0.09206383 0.15858832 -0.54832387 1.4047312 0.21564618 0.026141021 -0.41439745
0.051973626 0.0619936 -0.14129029 0.057932544 -0.7949203 0.04570371 0.9344205 -0.12302806
-0.16257964 0.8760822 -0.22118473 -0.8273018 -0.5540001 0.23706704 -0.869243 -0.11503686
0.540155 0.24950051 -0.0631727 0.5746016 -0.7872395 1.2697504 0.051695965 -0.38244402
0.43521896 0.27969572 -0.6045408 -0.78160626 0.99746263 -0.53811675 -0.24345548 0.3255417
0.018718567 0.72154105 0.42455104 -0.57157534 -0.6878723 -0.028156558 0.45151606 0.010769015
-0.16356993 -0.34311467 0.30172157 -0.66666174 0.08200201 0.92743313 0.7518964 0.026233125
-0.10006329 -0.5414076 0.011220241 -0.048304074 -0.24021146 -0.4431169 -0.029062197 0.92895514
-0.3815481 0.7837567 0.14543986 -0.21053292 -0.14120044 -0.5266852 -0.7794249 0.16271304
0.45315722 0.2303257 0.064627156 0.13598378 -0.53027743 -0.34593108 0.31207353 -0.9013756
-0.30213892 0.10822578 0.49481115 0.49703395 0.20111252 0.36107135 -0.50995606 0.0057392577
0.8235085 0.3540971 0.6665226 0.24774991 -0.4468194 -0.02810923 -0.6103459 0.41211206
-0.5028503 0.20740658 0.5820293 -0.063034065 0.2615217 0.12375074 -0.41199803 -0.26144624
-0.3751206 0.19857347 0.7630567 -0.01318557 -0.40588966 0.28475326 0.5120788 -0.51299655
0.59983623 -0.3964659 -0.41038588 0.65163714 -0.7895582 -0.22782911 0.6926951 -0.37296242
-0.08177812 -0.556695 -0.36604524 -0.08964897 -0.43359452 0.32739872 0.17676032 0.42411906
-0.3180463 0.774147 0.046313003 -0.4005969 -0.65051186 -0.10400126 -0.1290324 -0.13936536
0.55881447 0.14986347 0.36965224 0.04868066 0.50664365 -0.27318206 -0.4993215 0.024638753
0.014160064 0.15704136 -0.24325082 -0.7486541 0.2026222 -0.21964279 -0.24276224 0.29173666
0.31405494 0.50344026 0.45634627 0.21240295 -0.3703497 -0.81957763 -0.1237591 0.14018105
-0.75734544 0.54909235 0.52511793 0.7193131 0.1491609 -0.61737996 0.1460268 0.5195626
-0.40698835 0.37919828 0.49376073 -0.12073084 -0.10081666 0.9765679 -0.31778777 -0.22757506
0.10124682 -0.3470455 -0.51994467 -0.015405459 -0.32169834 -0.38564602 0.116637506 -0.03226069
0.24016273 0.09585532 -0.29289636 0.58825314 -0.27968562 0.1360476 0.192188 0.2881699
0.80781513 0.5455002 -0.14562334 0.3064102 -0.2867136 0.0639239 -0.4223445 0.0138127655
0.05039695 0.7841947 0.104720786 0.06762824 0.34432197 -0.35056248 -0.6370861 0.37403822
-0.55055344 -0.5540036 0.2895313 -0.44106343 -0.15291028 -0.37379363 -0.6495068 -0.22646426
-0.17911997 0.5325104 0.29837114 0.34687498 -0.5248055 -0.82881296 -0.025262352 -0.44899938
-0.46309832 0.019914337 0.48003766 -0.5815144 0.21879989 -0.048198596 -0.22859837 0.2622961

embedding_item.weight f4 [1682, 64]
00000000: e5bb 18bf 416a f8be 1109 46bd c866 94be
00000010: 5b78 bbbe fd13 2a3f a3f7 00be 2a37 07bf
00000020: 3b8d 2f3e 9699 b2be e9c8 213f f239 19be
00000030: d248 32be ebe9 f73e 299d d03e a41a 613f
00000040: ac10 30bf 31b3 25bf b83a 4bbf e2d1 4e3f
00000050: 866a 0ebf 008f 42bf ea87 9dbe f173 283f
00000060: bb2d 0a3f e3e6 5d3f 47e9 10be 15c9 54bd
00000070: 41ec 183f 444e 03bf d2bf 55bd 483b 40bf
00000080: eb3a a4bc 0895 263f 282f f4be 01f3 323f
00000090: b0fb cebe 348f 1d3e f16f 8d3e bb0a 1bbf
000000a0: 7849 95be f6ef 073f 0334 5f3e a615 fa3d
000000b0: e89b 5c3f ba79 d6bd 3378 a6be 60f8 0fbf
000000c0: 81ce c63d 3fad 093e 7198 783d c6b7 6cbd
000000d0: 7697 16bf 4c92 0a3e 569a 27bc c909 aa3e
000000e0: 04de 2a3d 0506 ab3e 2c79 863d 7c58 13bf
000000f0: 07d1 1b3f 6894 a43e ac95 543e b132 f1be
00000100: a82a 0ebe 5087 2cbf 9e30 01bf 7175 c53e
00000110: 489e 4fbe 6265 113d 67d6 c0be c8d7 4d3f
00000120: 1545 863d 5092 a6be d0d3 9bbe 30c0 aabe
00000130: 9a46 323e 11e5 59be a9ed f63e 296f ae3e
00000140: 5273 0c3e 7532 15be 7449 b6be a8ed babe
00000150: 5adb b53e 7348 9d3e a80f 24be afff 4f3e
00000160: 9a32 3d3f 670e be3e 7709 013e 88f1 e2bb
00000170: 0a9d 883e 9518 9fbe fe8c 003f 6846 c9be
00000180: 7eec 55be 2754 303e 62e8 88be 9e12 cabe
00000190: f164 52bf 6ef2 95bd 14ac 68bd 3ca3 2e3f
000001a0: f095 b2be 4d4b df3e ab8c 20be 35fc 93be
000001b0: ea24 b83e 97da 4fbe 0166 a4be be66 8cbc
000001c0: fdd9 4bbf b601 623e ae18 543e 8fb3 52be
000001d0: 8828 1cbf 97d2 143f c6b2 1dbd e378 f9be
000001e0: 7378 43bf d4fb 1f3e 6a6e a6be cffa bbbd
000001f0: 440e 073e f53d b5be 785e c13e 08f0 21bc
00000200: 560d b93d 3baf 1d3d b2c1 e9be 8605 74bc
00000210: e09e afbe 0118 223f a107 743e 75a9 00bf
00000220: bd24 54be 241d a83e f73f 803e a605 7d3e
00000230: da1b dd3d 04f8 a5be f1ab c93e 1e01 73be
00000240: 7134 f1be 50c9 51be 5570 9fbe 2fe7 393f
00000250: 38da 41be a9bc d33d 1cbd 083f fc1c 3b3e
00000260: 2e72 86bf 36f6 1e3e f7b1 3b3d 0bbf 11be
00000270: c627 54bc b82f a23d 3252 9c3d 804f a3be
00000280: ab7c 513e 2217 dcbc eae0 87be 4557 ca3e
00000290: a7f6 5e3e bf2d 163f fbfe 9a3f 8d85 e0be
000002a0: 799e c53d 98db 0cbe ec38 063f 8b60 70bd
000002b0: 13a6 c6be da5f f33e 0a66 22be 727b a63e
000002c0: 72ed ac3d 58eb b2be 67bb c4be 859b 33bf
000002d0: 404b 29bf 41d2 fe3e ffaf 1bbe 1348 273e
000002e0: 9cac 11bf bb87 b5bd 788d bebe e53e 83be
000002f0: e826 f83e 78af 42be 25ca 2fbf dc75 e2be
00000300: d923 9cbe fc59 73be 0d7b 98be cab6 dabc
00000310: 61dd cfbe f166 0a3e aef6 93be d164 83be
00000320: f8fb 8d3e d4aa 06bf 5c84 293e b895 b6be
00000330: 4640 8fba cd2a 13be 18dd 563f 6240 113f
00000340: 3602 66be 90ca 1d3e 8019 3cbf 4327 24bf
00000350: c438 e53e 13b8 8b3d e7ea e0be aac9 01bd
00000360: b196 ac3e de88 b3bd 6592 2f3f 5c57 7fbe
00000370: 777e 33be 8615 b33e 4c36 0b3f a6ca 9bbe
00000380: c945 fcbe 27f2 62be ea87 47be e2cb a6bd
00000390: e410 22bf 45dc b93e bff3 0b3f 7f3e ef3e
000003a0: e9e0 6e3c 074d d23d 25a1 ea3e 7336 9cbe
000003b0: d90f 8f3d 48b4 8b3e 21a1 6abe 3732 23bd
000003c0: 3232 c3be cadb 8bbe 5c0b 2a3f 9502 bdbe
000003d0: 16b3 76bd 969e 253f d35e 573c c5c6 dfbe
000003e0: 99f1 0f3e 3dd2 093f cc11 cbbd 0f74 33be
000003f0: 140f 3a3f 2aad e1be bb20 49bd c728 0abf
-0.59661704 -0.48518565 -0.04834849 -0.28984666 -0.3661526 0.6643675 -0.12594466 -0.5281855
0.17143719 -0.34882802 0.6319719 -0.1496351 -0.17410591 0.48420653 0.40744904 0.87931275
-0.6877544 -0.6472655 -0.7938647 0.80789006 -0.5563129 -0.7599945 -0.30767757 0.6580191
0.5397603 0.8668043 -0.14151488 -0.05194958 0.59735495 -0.512913 -0.052184887 -0.75090456
-0.020047626 0.65071154 -0.47692227 0.69902045 -0.40426397 0.15386659 0.27624467 -0.6056325
-0.29157615 0.53100526 0.21797185 0.1221116 0.86175394 -0.10472436 -0.3251358 -0.56238365
0.09707356 0.13444994 0.060692254 -0.057792448 -0.5882486 0.1353237 -0.010229668 0.3321059
0.041715637 0.3340303 0.065660805 -0.5755689 0.60865825 0.32144475 0.2076022 -0.47108987
-0.1388346 -0.6739397 -0.5046481 0.38566163 -0.20275223 0.035497077 -0.37663576 0.8040738
0.06556145 -0.32533503 -0.30435038 -0.33349752 0.17409745 -0.21278788 0.48228195 0.34069183
0.13715866 -0.14570029 -0.35602915 -0.36509442 0.35518914 0.30719337 -0.16021597 0.2031238
0.73905337 0.37120363 0.12601267 -0.0069257654 0.2668231 -0.31073442 0.50215137 -0.39311528
-0.20890996 0.17219602 -0.26739794 -0.3946733 -0.82185274 -0.073216304 -0.05680473 0.68217826
-0.34880018 0.43612137 -0.1567866 -0.28903356 0.35965663 -0.20298229 -0.32109073 -0.017138835
-0.796295 0.22070965 0.2071254 -0.20576309 -0.60999346 0.58133835 -0.03850057 -0.48725042
-0.76355666 0.15623409 -0.32506114 -0.09178697 0.13189036 -0.35398832 0.37767386 -0.009883888
0.09035747 0.03849719 -0.4565559 -0.014893895 -0.343009 0.6331788 0.23831035 -0.5025857
-0.2071714 0.32834733 0.250488 0.24709186 0.10796328 -0.32415783 0.39388993 -0.23730895
-0.47110322 -0.20486951 -0.3114039 0.72618383 -0.189309 0.103387184 0.5341356 0.18272775
-1.0503595 0.1552361 0.045824017 -0.14233033 -0.012948936 0.07919258 0.07632865 -0.3189659
0.20457713 -0.0268665 -0.26538783 0.39519706 0.21773778 0.58663553 1.2109064 -0.4385189
0.09649367 -0.13755643 0.52430606 -0.05868582 -0.3879858 0.47534066 -0.15859237 0.32516056
0.084437266 -0.34945178 -0.38424227 -0.7015918 -0.6613045 0.49769786 -0.15203856 0.16336088
-0.56904006 -0.08863779 -0.37217307 -0.25633922 0.48467183 -0.19012249 -0.68667823 -0.44230545
-0.304961 -0.23764795 -0.2978138 -0.026698489 -0.40598586 0.13515832 -0.2889914 -0.25662854
0.277313 -0.52604413 0.16554397 -0.356611 -0.0010929189 -0.14371796 0.8393111 0.56738865
-0.22461781 0.15409303 -0.7347641 -0.6412241 0.4476987 0.06822219 -0.43929216 -0.031686462
0.33708718 -0.0876634 0.68582755 -0.24935669 -0.17528711 0.3497736 0.54379725 -0.30428046
-0.49271992 -0.22162686 -0.19485441 -0.08144356 -0.63307023 0.36300865 0.546688 0.46727368
0.01457999 0.10268598 0.4582607 -0.3051029 0.069854446 0.2728598 -0.22913028 -0.03984281
-0.38124233 -0.27316123 0.66423583 -0.36916032 -0.060229383 0.6469511 0.013145166 -0.43706337
0.14057006 0.53836423 -0.09915504 -0.17524742 0.7267926 -0.44077426 -0.04910348 -0.5396847
