pretrain_models/ml-100k-lgn-1-64.pt (torch, 673678 bytes, 2 tensors)

embedding_user.weight f4 [943, 64]
00000000: 2943 1e3f a072 d33f 46d3 603f d5e4 a33f
00000010: 6c54 7ebe 6eda 6d3d 8bb5 79be 86b6 a7bf
00000020: b8c0 7dbe 26bc 83bf 8b91 5cbf 9b8a c43e
00000030: 39ca 2f3f 56c0 2d3e f425 4c3f db7d b2bf
00000040: 6ad1 8d3f 593d 65bd 24ed 5b3f 28eb 82bf
00000050: 3aa0 0b3f 918b 84bf 4044 313c 4f86 393e
00000060: 4c0f 1940 5a6d 83be 0016 6cbf d74d 06bf
00000070: ab58 493f 971f debf 326e 1a3f ed7d 9b3f
00000080: 54e2 3a3f 5087 243f ce48 50bc b3fc 2abf
00000090: 3bce 73bf eec4 1ebf 276c 43bf d247 6a3f
000000a0: 79e5 943e c470 36bf fe2a b2bf 0e9a 8e3f
000000b0: 051c fa3e d0e9 37be 9ea6 693d e343 0240
000000c0: fcdf 8abd a81e a33f 0f9e 91bf b05e 24be
000000d0: 8844 26bf 19a9 3abe b672 9d3f 2672 fabe
000000e0: 39ef 3e3f 2ba1 5dbf 1945 8fbf dff2 d13f
000000f0: 2e5b f0be 2964 103f 564f 763f e5bf 0cbf
00000100: 8e3a 50be 9887 c7be 87a0 80bf b2ab 3a3f
00000110: 52af f13f 8312 30bd 7476 433f 724d 8b3f
00000120: 166b a73e 838e 66bf f175 0a3f f2b0 6cbd
00000130: 8307 bf3d e53a 92bf 35ff 60bf 8fe4 a03f
00000140: a804 f4be 02ca d33e 8f26 8a3f efcb 70bf
00000150: 36a9 ea3e 6378 113d 1de4 353f 8950 ffbe
00000160: d2e2 ff3d b962 5fbf d8c2 31bf 5c0e ddbf
00000170: 6b50 9fbc 4b8f 8f3f f783 79bf 1b1c e4be
00000180: 2d6a c6bf 6b19 883f 6d24 9cbf 6c17 bd3f
00000190: ae82 a13f 9291 a13f 9dd6 fb3e 0b1f ba3f
000001a0: a446 a53e 85e1 81bc 702f a83f 4a99 903f
000001b0: 2c8d 0ebf a66c 0abd 012c 37bf 806f a4be
000001c0: d008 86be 1289 a03f 3722 8c3f 2dc9 6a3e
000001d0: 42d4 51bf ba62 b6bf 8005 2abf f8b2 3e3f
000001e0: 6e81 8c3f d0aa 3cbf 9048 88bf 4749 eabe
000001f0: 96a2 d13e fd26 2ebf 0186 6f3f daa4 dfbd
00000200: 24a6 b13f bbd5 b4bf 9022 82bd d837 9ebf
00000210: 0e5f 74bf a7fe a8bf 66bf 4f3f e36e c93e
00000220: 6b19 f8bc c789 3abf 6d2d 213f 1e8c 75bf
00000230: 5bf5 c43f 0af4 b83c bae0 fdbc ca5f b5bf
00000240: d5cc f53e 4475 aebe c8ad cbbd 3e9c 8fbe
00000250: dc74 85bf fa7d 76be 6950 afbe 1f6f 5c3f
00000260: ddf1 52bf 6a95 7d3f d1e1 0dbf e92b c93f
00000270: 3b8e 03bf 8804 f53e bdab c8bd 79d7 41bf
00000280: 0a89 433d 57f9 8d3f 5d5b d6bd 9553 3abd
00000290: 57ea 123f a816 3a3f c1e2 bebf eee9 163f
000002a0: cd8b d1bd a27d 2d3f 7e6d 99bf 883f 263e
000002b0: 8d46 1cbf 359b 64bf ac3d 82be 0f39 a2be
000002c0: ba51 21bf d21e 13be 942d 463f 9c5d 973e
000002d0: ac7b 823f 6294 80be fb8f 1f3e aaf8 073f
000002e0: f7f1 bebe b29f d2be e8a4 e43e 0a55 993e
000002f0: 0c98 e13e 1ba9 a2bf 1897 343f e842 08bf
00000300: 354e b23f c9bd b4bf 4f97 8f3d b4fa 27be
00000310: 2967 06bf 5de0 13bf 6f9c 1a3e 23d1 463f
00000320: f2ff c2be 319a 76bf d385 20bf 15b1 5b3e
00000330: ae3a 013f 44b2 8b3e 9c4e 71be abff 1dbf
00000340: 25f0 ac3e e48d c53c 791f 91be e8c2 593f
00000350: b989 04bf e49c aa3d 3d6b 883f 16b6 733f
00000360: 9aac 41bf a9df aa3f c143 74bd 9694 d43f
00000370: 6c05 11bf 7bbf 763f 1845 74bf 0ef9 90be
00000380: d4dc 003f ef26 2e3f eb1c 64bf 72b6 a73e
00000390: 6c42 cc3e 51f5 26be 1c96 cfbf 9600 a6bf
000003a0: a676 06bf 4a0b 793f 327c 1abf 6958 2e3f
000003b0: c695 c33e 4899 053f cc76 173e 6657 51bd
000003c0: 2c53 493e 9807 02bf a1f7 0cbf 3836 7f3d
000003d0: 3179 eb3e 51ba 2d3f f872 793b 9d5d 33bf
000003e0: 11ce dc3e 0df6 0d3f d957 b53c 008b 37bf
000003f0: 28e3 d63f 4d88 73be 9b40 733f dff4 adbf
0.6182123 1.6519356 0.8782238 1.2804209 -0.24836892 0.05806964 -0.2438566 -1.3102577
-0.24780548 -1.0291793 -0.8615958 0.38386998 0.6866794 0.16967902 0.7974541 -1.3944658
1.1079533 -0.05596671 0.8590872 -1.0228014 0.5454136 -1.0355092 0.010819495 0.18117641
2.3915586 -0.25669366 -0.9222107 -0.52462524 0.7865092 -1.735339 0.60324395 1.2147804
0.730016 0.6426897 -0.0127126705 -0.6679184 -0.9523656 -0.6201924 -0.763369 0.9151584
0.29081324 -0.71265817 -1.391937 1.1140764 0.48849502 -0.17960286 0.057043664 2.0353935
-0.06781003 1.274373 -1.1376361 -0.16051745 -0.6494832 -0.18228568 1.2300632 -0.48915213
0.74583775 -0.8657405 -1.1192962 1.6402243 -0.46944565 0.5640283 0.9621481 -0.5498031
-0.20334837 -0.38970637 -1.0048989 0.72918236 1.8881629 -0.042986404 0.7635262 1.088301
0.32698888 -0.90061206 0.54086214 -0.057785936 0.093276046 -1.1424223 -0.87889415 1.256975
-0.47659802 0.41365057 1.0793017 -0.9406118 0.45832223 0.0355152 0.710512 -0.4986613
0.124944344 -0.87260014 -0.6943793 -1.7270007 -0.019447526 1.1215605 -0.9746699 -0.44552693
-1.5501152 1.0632757 -1.2198616 1.4772773 1.2618005 1.262255 0.49187174 1.4540724
0.32280457 -0.015854606 1.3139477 1.129678 -0.5568416 -0.03379502 -0.7155152 -0.32116318
-0.26178598 1.254183 1.0947942 0.22928305 -0.81964505 -1.4248879 -0.6641464 0.74491835
1.0976999 -0.7369814 -1.0647144 -0.4575903 0.40944356 -0.6802824 0.9356385 -0.10920115
1.3878827 -1.4127725 -0.063542485 -1.2360792 -0.9545754 -1.3202714 0.81151426 0.39342412
-0.030285558 -0.7286648 0.6295994 -0.95916927 1.5387377 0.022577304 -0.030990947 -1.4169858
0.48007837 -0.34073842 -0.099452555 -0.2804889 -1.0426288 -0.24071494 -0.34241036 0.8610706
-0.82400304 0.9905611 -0.55422693 1.5716525 -0.513889 0.4785502 -0.097983815 -0.7571941
0.047738113 1.1091717 -0.10466645 -0.045489866 0.57388824 0.7269082 -1.491295 0.589507
-0.10231743 0.67769825 -1.1986539 0.16235173 -0.6104515 -0.8929933 -0.25437677 -0.31684157
-0.6301533 -0.14367226 0.77413297 0.29563606 1.0193992 -0.25113207 0.15582268 0.53113806
-0.3729398 -0.41137463 0.44657063 0.29947692 0.44061315 -1.2707857 0.7054305 -0.5322709
1.3930117 -1.4120418 0.07011282 -0.1640423 -0.5250116 -0.57764226 0.15098737 0.7766287
-0.38085896 -0.9632903 -0.627042 0.2145427 0.50480163 0.27284443 -0.23565143 -0.61718243
0.33776966 0.02411551 -0.28344324 0.8506303 -0.5177265 0.08330706 1.0657727 0.95199716
-0.75653994 1.3349506 -0.059634928 1.6607845 -0.566489 0.96385926 -0.9541793 -0.28315014
0.50336957 0.6802816 -0.89106625 0.32756382 0.39894426 -0.16304518 -1.6217685 -1.2968929
-0.52524793 0.9728285 -0.60345757 0.68103653 0.38200206 0.52187014 0.14791411 -0.05110874
0.19660634 -0.5079284 -0.5506535 0.062307566 0.459909 0.6786242 0.0038062911 -0.7006472
0.43125966 0.5545357 0.022136616 -0.7169647 1.6788073 -0.23782463 0.95020455 -1.3590354

embedding_item.weight f4 [1682, 64]
00000000: 21ff b7bd 67c3 983e af6b 1a3c 238f d93e
00000010: c7de c9be fbd9 193f 3028 c9be cf61 793e
00000020: 083a f1bd eac0 a73d ae21 f5bd bb10 863e
00000030: b66d e1be 52b9 c5be 21d8 8bbe 12ae 073e
00000040: c390 dc3e 7648 e63c 2e1b 0c3e 6ddc 8dbe
00000050: 5877 cd3e ea10 c7be cc75 49be 1988 a8be
00000060: c44a ce3e b4aa 44be 894b 8fbc 2168 81be
00000070: 04f8 14bd 979c 4abf d3ee c8be ed7c 0a3f
00000080: 766b d03e fc4c 86bd 360f bc3e 76d4 86be
00000090: 0096 233d 1e11 bf3e 4ef4 edbd 852f 5d3e
000000a0: 2fec 043e 3666 6e3d e9ac 3cbe 4fcd db3e
000000b0: 4655 bb3e 06b4 3dbd 1d9e 1a3e bd64 d63e
000000c0: 50bd 7dbf 7989 333f 5a58 413e e0ba 17be
000000d0: 3074 d1be 6de6 66be 67f6 f8be eb77 d63d
000000e0: 5631 88bd a50a b7bd 98c2 bbbc cced 29bd
000000f0: cf20 aabe d5f4 1e3e a290 96bd cb56 16be
00000100: 8719 773f 4422 8539 a6e1 053f 9da7 213e
00000110: 091f b4be c6df cfba 74f4 8dbe 2c80 773f
00000120: c6e9 4ebe 1d50 09bf 8081 dfbe f995 3c3e
00000130: c92e bb3e b627 f63d 317e 9d3f 832b e2be
00000140: 88f4 a0be 65fc 933e d1ba 9ebf 2130 e43e
00000150: 8089 b6bc 8bae 13bf ea52 3e3f a8f7 ae3e
00000160: 87cc 5dbd eca6 e93e d560 6f3f 3c81 91be
00000170: cc00 933e 5899 10bf 6cc1 4fbf e5c6 4e3e
00000180: 2477 7e3e 8bed 803f 379c 23be f3af 8dbe
00000190: fe27 00bd 13de 88bf 103a e7be a375 63bf
000001a0: 3dfd 343e 6c58 5f3f bcad 98be 74a4 0b3f
000001b0: 18c4 fc3c b39a 033e e1c4 143f 29d9 d53e
000001c0: 29ac f0be 18ab b0bf 0026 86bf efc5 06bf
000001d0: fef7 65bd d158 293f 2eb5 563f 9fe4 99be
000001e0: 1983 2c3f b900 023f 2d67 73bf fe77 003f
000001f0: c6e5 ca3e 9cf3 0b3f 886e 513f 2ec9 0fbf
00000200: 2243 003f f784 b83e a1d8 183e 1d7b ca3e
00000210: 305d 053f 7d1d b73f cb18 acbe 7050 25bc
00000220: 5f60 16bf 36fa 8fbf e4f8 c13e 6241 7d3f
00000230: f03f 193f 7252 1c3f 0a8c 8cbf 1ad2 063f
00000240: cc13 3abf 52f8 ccbb 9098 953e 0882 12be
00000250: e51f b23f 6e88 5ebc 8209 01bf 3a6d 023f
00000260: fb48 9b3f 4eec 68bf 0039 1a3f 9760 40bf
00000270: 8e97 e93e e58c 8c3f 9215 d1bd 828c 07bf
00000280: be82 83bf 9a1e f0bd 1fa5 d4bd afef 183f
00000290: a77b 173e 14c7 643e 0ae4 29be ed69 483d
000002a0: a45f 0a3f f53c efbe 800e d4bd bb95 503f
000002b0: 3cff 24bf feff d6bd 0ff0 8fbe be60 adbf
000002c0: 697c b8bf fd2a 953f d7c4 bd3e 973a 04bf
000002d0: f664 9ebf 0c12 aabe 2727 b1be 960c 223b
000002e0: d426 6f3f be8d ff3d 154f 27bf e052 bd3f
000002f0: e6fd 7abf 4ebb 58bf cb66 663f 9746 a53f
00000300: 2a51 e33e d748 03be fbe8 ae3e 292e 393d
00000310: aac6 d03e 65f9 b13e c6ed 2abf 73fb 183f
00000320: 9a70 20bd a299 f2be ef1c 5abe d5db 3c3f
00000330: 461f b43e 5860 443f b37a fe3c e499 743a
00000340: 5958 ef3d 0cae 2f3f 010b 9fbf 4ded 163e
00000350: 8cea 443f 611e 69be cc15 2c3f a549 fc3e
00000360: 6c7d 153f 448a 673e 6ef3 353f 1329 0dbf
00000370: f940 323e ef1c 593e 8082 e2bc 8877 2fbf
00000380: aad8 84bf 5dbb e53e 6b78 8bbe e237 4c3f
00000390: be49 ba3e 04dc 84bf bed5 043e 80a8 4dbf
000003a0: 5615 28be 731d 343e 19db 58be 68d7 8b3d
000003b0: 374f ccbd 2f4f 263e 321a 6f3e 7877 33bf
000003c0: ab8d 7f3e 74c5 243e c3a5 83bf 5f7e 83bf
000003d0: b2df f33e 7adc 843e a885 333f 6260 f9be
000003e0: 394f 2e3f f096 9d3e 207b 2cbf 98fd f73e
000003f0: 48de 043f aa17 2a3d bc33 5f3f 4ecf 043f
-0.08984209 0.2983658 0.009425088 0.42492017 -0.39427778 0.60098237 -0.39288473 0.24353717
-0.11778647 0.08191092 -0.119693145 0.2618464 -0.44029015 -0.3861795 -0.2731333 0.13249996
0.43079194 0.028110724 0.13682243 -0.27707234 0.40130115 -0.38880092 -0.19673842 -0.32916334
0.40291417 -0.19205743 -0.017492073 -0.25274757 -0.03636934 -0.7914519 -0.39244708 0.5409687
0.40706986 -0.06557652 0.36730355 -0.2633397 0.039937973 0.37317747 -0.11618863 0.21600159
0.12980722 0.058202945 -0.18425335 0.42930076 0.36588496 -0.04631426 0.15099378 0.41873732
-0.9911699 0.7013164 0.1888136 -0.14817381 -0.40908957 -0.22548838 -0.4862549 0.10472091
-0.06650035 -0.08937577 -0.022919938 -0.041486546 -0.33228156 0.15523084 -0.07351805 -0.14681546
0.96523327 0.00025393267 0.5229744 0.15786596 -0.35179928 -0.0015859536 -0.27725565 0.9667995
-0.20206365 -0.5363787 -0.43653488 0.18416585 0.36559132 0.12019293 1.2304136 -0.44173822
-0.31436563 0.289035 -1.2400762 0.4456797 -0.022282362 -0.57688206 0.74345267 0.34173322
-0.05415013 0.45635164 0.9350713 -0.2841891 0.28711545 -0.56483984 -0.81154513 0.2019306
0.24850136 1.0072492 -0.1597756 -0.276733 -0.03128814 -1.0692772 -0.45161486 -0.88851374
0.17674728 0.87244296 -0.2982005 0.5454781 0.030855224 0.12851982 0.58112913 0.41767243
-0.47006348 -1.3802214 -1.0480347 -0.5264577 -0.056144707 0.6615115 0.8387021 -0.30057237
0.6738754 0.5078235 -0.9507931 0.50183094 0.39628428 0.54668593 0.8180928 -0.5616635
0.50102437 0.36038944 0.14926387 0.39547053 0.5209532 1.4305874 -0.33612666 -0.010089979
-0.587408 -1.1248233 0.378852 0.9892789 0.59863186 0.610633 -1.0980237 0.5266434
-0.7268646 -0.006255188 0.29217958 -0.14307415 1.3915983 -0.013582332 -0.5040513 0.50947917
1.2131647 -0.9098557 0.60243225 -0.75147384 0.4562344 1.0980498 -0.10209192 -0.5294877
-1.0274274 -0.11724587 -0.10383057 0.5974073 0.14793263 0.22341567 -0.16590896 0.048929144
0.54052186 -0.46726194 -0.10354328 0.8147847 -0.64451957 -0.104980454 -0.28112838 -1.3545148
-1.4412967 1.1653744 0.3706424 -0.516519 -1.2374561 -0.33216894 -0.34600183 0.002472674
0.9341862 0.12478207 -0.65355045 1.4790916 -0.9804367 -0.84660804 0.900006 1.2912167
0.4439786 -0.12820755 0.34162125 0.045210037 0.4077657 0.34760585 -0.66769063 0.5975868
-0.039169885 -0.47382838 -0.213001 0.7377294 0.3518011 0.7670951 0.031064367 0.0009330793
0.11686773 0.6862495 -1.2425233 0.1473896 0.7692039 -0.22765495 0.6722076 0.49274936
0.58394504 0.22611338 0.7107457 -0.551408 0.17407598 0.21202444 -0.027650118 -0.68541765
-1.0378621 0.4486951 -0.2724031 0.7977277 0.36384386 -1.0379643 0.12972161 -0.80335236
-0.16414389 0.17589359 -0.21177329 0.06828195 -0.099760465 0.16241144 0.23349836 -0.7010417
0.24956386 0.16090947 -1.0284961 -1.027294 0.47631603 0.2594946 0.7012582 -0.48706347
0.68089634 0.3077922 -0.67375374 0.48435664 0.51901674 0.041526474 0.87188315 0.5187882
