pretrain_models/ml-100k-lgn-0-64.pt (torch, 673678 bytes, 2 tensors)

embedding_user.weight f4 [943, 64]
0.8289118 -1.4209032 -0.06426374 0.17975965 1.9528133 0.08456526 -0.06391522 -0.40278712
0.3372747 -2.4707317 0.60481584 1.0646892 -0.86349636 -0.7793863 0.28983065 -0.5468046
-0.41770685 0.3970498 0.044438682 -0.5263697 0.41559806 -1.301121 -1.9984553 0.2255706
0.36067393 0.3309647 0.9875158 0.35048956 1.1944416 0.31163916 0.07653958 -0.39282513
-0.4842499 0.5329709 0.93878144 1.2089969 -0.85027695 -0.46929243 1.20492 0.21849802
0.7853208 -0.21782157 -0.68676573 -0.8348393 -1.3031036 0.45511663 -0.29141837 0.27962342
1.5321376 0.3542385 -1.3644757 0.94925666 -0.06394911 2.3662508 1.502639 0.30301476
0.93499875 0.679934 -1.4201967 0.8758777 0.9164749 -0.38470736 1.0130721 1.4623337
1.0895559 1.2672668 0.542979 -0.41441584 -1.1813363 -0.14669953 0.4711754 0.44603547
-0.39522007 -1.547892 0.028042274 -1.6891046 -0.277357 1.8794899 1.5903329 0.17093927
-1.6020362 -1.0653656 0.004210579 0.7555147 -0.82233185 -0.76277447 0.32523555 0.91022474
-1.3014672 1.0610983 -0.029150764 -0.07456229 -1.0141921 -0.37840298 -1.8156672 0.64426565
1.2785736 1.0407702 0.32433307 0.78763217 -0.9649095 0.3949781 0.50948 -1.2559276
-0.5005292 1.2350485 0.40652484 0.7444842 0.24273822 0.28339973 -0.6448454 0.7774171
0.4130025 1.0483202 1.6440122 0.99985796 -0.05951399 -0.25751194 -0.041058563 0.58470947
-0.462283 0.6283715 0.84689856 -0.81030047 0.61790526 0.88381374 -1.0148534 0.13770925
-0.36705792 -0.5912071 1.0307629 0.0063881013 -0.10229488 1.0352253 -0.3594304 -0.93801445
0.7498107 -0.27588192 -0.6354056 1.0372362 -0.99543667 -0.8740077 0.53006077 -1.3183488
0.19831409 -0.6475228 -0.59080017 -1.4673568 -0.8433325 1.2298429 1.2649959 0.5617706
-0.63324904 0.98058313 -0.2413649 -0.5262855 -0.7872363 1.1326587 0.42846775 -0.43347996
0.8590756 -0.44264397 0.8237383 -1.3270761 0.11761535 -0.7279117 -0.97792786 0.30774507
0.21820505 0.7060838 0.06251251 -1.3189273 -0.06862659 -0.6637664 -0.3708672 0.6989821
0.4353044 0.9084521 0.30839667 0.45363432 -0.16148216 -0.6167452 -0.13706358 -1.1452076
-0.8414028 0.7016576 0.10628119 0.22066145 -0.34700897 -2.007946 0.12714115 0.35540602
-0.8492265 -0.45081246 0.24710484 -0.075026624 -0.45461422 1.0743331 -1.5056087 -0.39812398
1.2490557 -0.5035988 -0.6009452 -0.3638506 -0.071698576 -0.8586897 0.009568712 -0.5262299
0.17959265 -0.26390663 -0.93360716 -1.2399188 0.0733308 0.6625357 0.5600972 0.41875938
1.4277146 1.1085327 -0.33376953 0.5071195 -0.16235101 0.3516342 -0.35609677 -0.27318972
-0.090600386 0.74863106 0.2703766 -1.1878166 -0.803673 -0.36827487 -0.95463985 0.3255345
-1.5812624 -0.30451748 0.58250225 -1.541439 -0.47240078 -0.45306936 -1.3874718 -0.61007637
-0.44873428 0.6282199 0.33372068 0.07178545 -0.082032666 -1.4508758 -0.37290648 -1.6774184
-0.16648616 0.12632282 0.92259866 -1.111897 -0.28026333 -0.40929458 -0.5461156 0.2904271
00000000: 9033 543f 28e0 b5bf b59c 83bd ea12 383e
00000010: c9f5 f93f 8d30 ad3d fce5 82bd 1d3a cebe
00000020: 45af ac3e 7820 1ec0 36d5 1a3f bc47 883f
00000030: 190e 5dbf dc85 47bf af64 943e 63fb 0bbf
00000040: acdd d5be 1d4a cb3e 5605 363d 2ac0 06bf
00000050: 45c9 d43e 228b a6bf 62cd ffbf fbfb 663e
00000060: 41aa b83e 3574 a93e d6cd 7c3f 5e73 b33e
00000070: 76e3 983f 2b8f 9f3e c9c0 9c3d 6020 c9be
00000080: 9aef f7be c870 083f fb53 703f 69c0 9a3f
00000090: c0ab 59bf 1947 f0be d23a 9a3f f2bd 5f3e
000000a0: c90a 493f 9e0c 5fbe e1cf 2fbf 07b8 55bf
000000b0: 19cc a6bf 0c05 e93e ca34 95be cd2a 8f3e
000000c0: 161d c43f c05e b53e 24a7 aebf 7c02 733f
000000d0: c0f7 82bd a770 1740 7a56 c03f c024 9b3e
000000e0: 145c 6f3f 2810 2e3f 01c9 b5bf 8539 603f
000000f0: 199e 6a3f 5df8 c4be 59ac 813f c02d bb3f
00000100: 9176 8b3f cc35 a23f ac00 0b3f 502e d4be
00000110: 0736 97bf 6738 16be e73d f13e c35e e43e
00000120: 495a cabe 5321 c6bf e9b8 e53c 9434 d8bf
00000130: bd01 8ebe 2093 f03f 0790 cb3f b40a 2f3e
00000140: 860f cdbf e65d 88bf e6f8 893b 6969 413f
00000150: 5784 52bf 3045 43bf 4685 a63e 7d04 693f
00000160: 7a96 a6bf 12d2 873f 95cd eebc 1db4 98bd
00000170: 0cd1 81bf 09be c1be c867 e8bf 98ee 243f
00000180: 4da8 a33f f537 853f fc0e a63e 43a2 493f
00000190: 4f04 77bf 923a ca3e 486d 023f 3cc2 a0bf
000001a0: af22 00bf 1216 9e3f 0624 d03e 8496 3e3f
000001b0: 5e90 783e c519 913e 9714 25bf cf04 473f
000001c0: 1075 d33e 5b2f 863f fe6e d23f b1f6 7f3f
000001d0: f1c4 73bd 9bd8 83be 062d 28bd 85af 153f
000001e0: 5bb0 ecbe f4dc 203f 58ce 583f da6f 4fbf
000001f0: 0a2f 1e3f 9e41 623f b7e6 81bf a703 0d3e
00000200: 04ef bbbe 5959 17bf 0af0 833f 4753 d13b
00000210: fa7f d1bd 4382 843f 4307 b8be b721 70bf
00000220: 98f3 3f3f 6540 8dbe f1a9 22bf 28c4 843f
00000230: f0d4 7ebf f8be 5fbf 10b2 073f a7bf a8bf
00000240: d912 4b3e 0ec4 25bf ae3e 17bf 59d2 bbbf
00000250: a4e4 57bf 7e6b 9d3f 63eb a13f 33d0 0f3f
00000260: 9c1c 22bf 7f07 7b3f 5c28 77be a6ba 06bf
00000270: 5188 49bf f6fa 903f 2060 db3e 16f1 ddbe
00000280: 61ec 5b3f 3ba2 e2be 83e0 523f a1dd a9bf
00000290: 51e0 f03d 6c58 3abf 7b59 7abf c390 9d3e
000002a0: 2571 5f3e e8c1 343f 8f06 803d 9cd2 a8bf
000002b0: 198c 8cbd 98ec 29bf 4ee2 bdbe 7ef0 323f
000002c0: 38e0 de3e 5190 683f 2be6 9d3e c242 e83e
000002d0: 945b 25be 03e3 1dbf 655a 0cbe 2a96 92bf
000002e0: 2d66 57bf d59f 333f f4a9 d93d 13f5 613e
000002f0: 29ab b1be 3082 00c0 4a31 023e c7f7 b53e
00000300: e866 59bf e4d0 e6be 0d09 7d3e 8fa7 99bd
00000310: 32c3 e8be bf83 893f c9b7 c0bf e8d6 cbbe
00000320: 0fe1 9f3f daeb 00bf 8bd7 19bf a04a babe
00000330: b4d6 92bd 17d3 5bbf 16c6 1c3c 01b7 06bf
00000340: 23e7 373e c51e 87be e100 6fbf a9b5 9ebf
00000350: 752e 963d f19b 293f 8862 0f3f a167 d63e
00000360: 5abf b63f 66e4 8d3f d7e3 aabe 95d2 013f
00000370: 583f 26be 6609 b43e 5152 b6be 86df 8bbe
00000380: b28c b9bd 49a6 3f3f cd6e 8a3e 600a 98bf
00000390: 84bd 4dbf 868e bcbe 4763 74bf 75ac a63e
000003a0: ce66 cabf b7e9 9bbe de1e 153f e04d c5bf
000003b0: 84de f1be b5f8 e7be ad98 b1bf f72d 1cbf
000003c0: 80c0 e5be 05d3 203f 70dd aa3e 4004 933d
000003d0: be00 a8bd 4cb6 b9bf 99ed bebe a5b5 d6bf
000003e0: 597b 2abe c55a 013e 6d2f 6c3f a452 8ebf
000003f0: ad7e 8fbe 0f8f d1be 3bce 0bbf dcb2 943e

embedding_item.weight f4 [1682, 64]
-0.41877344 -0.15098065 0.19377348 0.19327556 0.18062621 0.72548187 -0.0062675267 -0.5176107
0.085849985 0.065142184 0.2751701 0.16616887 0.047081698 0.034593754 0.49419484 0.53399265
-0.07300059 -0.14489277 -0.009560971 0.5375845 -0.26463076 -0.56084824 -0.16544735 0.28832337
0.34963137 0.39301074 0.00619063 0.72459805 -0.13343774 -0.5490342 -0.24294545 -0.4160753
0.3246687 0.17728624 -0.10950025 0.74528646 0.10552594 -0.1757472 -0.18459019 -0.43915847
-0.26389357 0.28048715 -0.26523024 0.21239257 0.41177616 -0.2087818 0.57297033 -0.11442844
0.4163966 -0.12645239 -0.6263864 0.5544481 -0.32410347 0.10420936 0.711659 0.53398305
0.17877626 -0.012660643 -0.4552668 0.024474816 0.42179188 0.6536269 0.67832774 0.16710941
-0.4325343 -0.884441 -0.79522353 0.2670135 -0.6949074 1.1815279 -0.7745268 0.6531514
0.48266318 -0.28425482 -0.24290411 -0.20736405 0.33949384 -1.004935 0.35454667 0.65866816
0.14008103 -0.49668366 -0.16568348 -0.8483395 0.7415843 0.3404118 -0.467217 0.27176696
1.2948161 0.90308535 0.46337885 0.570458 0.5587422 -0.80296564 0.107286654 -0.6308759
-0.8282389 0.028284414 -0.17630892 -0.7362284 -1.0501255 0.021150818 0.056782573 0.9775906
-0.6371099 -0.7978384 0.16062778 -0.61019737 0.29770538 -0.75886935 -0.59993404 -0.12166488
-0.5478054 -0.15228257 0.3149376 -0.4863738 -0.8878639 0.7017133 -0.5749943 -0.9069355
-0.34301546 0.5979864 -0.010462045 -0.31061843 0.4418729 -0.33941814 0.31755802 0.009411135
0.51793325 -0.02226965 -0.62712675 -0.11534264 -0.49827877 1.7580775 0.64388907 -0.6332277
-0.8296292 -0.033461533 0.84296715 0.58726543 -0.74831504 -0.27259383 1.7485684 0.4885005
-0.98989123 -1.0574714 -0.48135608 1.2874631 0.0119354725 -0.27389303 0.13431133 1.012823
-1.5595438 0.12517726 0.46712348 -0.88265204 0.3536966 -0.006395844 -0.7016282 -0.65260935
0.407299 0.6728012 -0.50897324 1.0978734 0.48201248 0.4392754 1.8618504 -1.1732018
0.48030293 -0.27681667 1.1227752 0.4819277 0.27778575 0.058634896 -0.44301772 0.32004195
-0.2901896 0.5375702 -0.00807863 -0.77363324 -1.0788423 0.7212236 0.13214543 0.50395226
0.12196763 0.7102497 -0.029182687 -0.46598813 1.0373623 0.5093728 -1.1390415 -0.85657334
-0.09537306 -0.57358795 -0.81016433 -0.40174335 -0.97981304 0.6550081 0.10416612 0.16130474
-0.12765926 -0.74725556 0.40836644 -0.17672728 -0.36588097 -0.27042922 0.6512752 0.82541174
-0.32364938 -0.4810355 -0.64532816 -0.68782765 0.82328236 0.3457562 -0.42996135 -0.25819427
0.38739982 0.0075377044 0.57062024 -0.49084118 0.43305805 -0.33515146 -0.0051366654 -0.074769765
-0.8988878 -0.0030856275 -0.16308336 -0.29030803 -0.81903183 0.2383934 0.88186204 0.31924123
0.30724344 -0.9407844 1.1222993 -0.08029823 0.11447598 -0.08981153 -0.80978066 -0.40821877
-0.6223989 0.08626834 0.8318584 -0.6926606 0.12652962 0.7609555 -0.13235714 -0.6068961
0.5281047 0.8924882 0.33837518 -0.6466875 0.9151611 -0.40263635 -0.2377551 -0.51333106
00000000: 7969 d6be ac9a 1abe 8e6c 463e 07ea 453e
00000010: 14f6 383e 2eb9 393f d35f cdbb 2382 04bf
00000020: 1ed2 af3d 4469 853d 18e3 8c3e 2c28 2a3e
00000030: bdd8 403d 2eb2 0d3d 1b07 fd3e beb3 083f
00000040: 5581 95bd c55e 14be 9ea5 1cbc 239f 093f
00000050: af7d 87be c093 0fbf 086b 29be 1f9f 933e
00000060: e202 b33e b438 c93e c5da ca3b 427f 393f
00000070: e7a3 08be 818d 0cbf b1c6 78be d207 d5be
00000080: fa3a a63e 868a 353e ab41 e0bd 18cb 3e3f
00000090: fc1d d83d 13f7 33be 3605 3dbe 61d9 e0be
000000a0: 0f1d 87be 039c 8f3e 42cc 87be 707d 593e
000000b0: 53d4 d23e e5ca 55be 2fae 123f 7559 eabd
000000c0: ef31 d53e bc7c 01be dc5a 20bf 50f0 0d3f
000000d0: e4f0 a5be b86b d53d 492f 363f 1db3 083f
000000e0: 2011 373e 966e 4fbc bb18 e9be 697f c83c
000000f0: 1bf5 d73e 1854 273f e3a6 2d3f bb1e 2b3e
00000100: 2375 ddbe ba6a 62bf c593 4bbf feb5 883e
00000110: 74e5 31bf 4e3c 973f 6347 46bf ee34 273f
00000120: a11f f73e d989 91be dbbb 78be 3e57 54be
00000130: 23d2 ad3e b6a1 80bf 2487 b53e 7a9e 283f
00000140: 6771 0f3e 524d febe eea8 29be c72c 59bf
00000150: 78d8 3d3f 754a ae3e 1137 efbe 0a25 8b3e
00000160: 89bc a53f 9a30 673f fe3f ed3e 8909 123f
00000170: bb09 0f3f 288f 4dbf 1bb9 db3d 1581 21bf
00000180: 7707 54bf b7b4 e73c 538a 34be 7779 3cbf
00000190: 836a 86bf 7b44 ad3c d894 683d 6143 7a3f
000001a0: a219 23bf 233f 4cbf 9c7b 243e e535 1cbf
000001b0: d76c 983e 4345 42bf 4795 19bf 702b f9bd
000001c0: fa3c 0cbf f6ef 1bbe 803f a13e fd05 f9be
000001d0: 0c4b 63bf 7ca3 333f d432 13bf ed2c 68bf
000001e0: b99f afbe a315 193f ff68 2bbc 6109 9fbe
000001f0: 2a3d e23e 37c8 adbe f796 a23e 2931 1a3c
00000200: 4697 043f d76e b6bc 618b 20bf c338 ecbd
00000210: 651e ffbe af08 e13f ead5 243f 361b 22bf
00000220: 9462 54bf f60e 09bd b2cc 573f 0757 163f
00000230: 9391 3fbf 6b91 8bbe 17d1 df3f bd1c fa3e
00000240: 8369 7dbf 395b 87bf 4e74 f6be 97cb a43f
00000250: 008d 433c b53b 8cbe e988 093e 2fa4 813f
00000260: 229f c7bf 782e 003e cf2a ef3e 7cf5 61bf
00000270: b917 b53e 3a94 d1bb e89d 33bf 6811 27bf
00000280: 7f89 d03e b33c 2c3f 124c 02bf 1e87 8c3f
00000290: 57ca f63e b5e8 e03e 1d51 ee3f 7a2b 96bf
000002a0: 44ea f53e eaba 8dbe 19b7 8f3f 3abf f63e
000002b0: ef39 8e3e 252b 703d 38d3 e2be 8adc a33e
000002c0: bb93 94be 339e 093f 3b5c 04bc d40c 46bf
000002d0: 8117 8abf 1ca2 383f 2251 073e 0403 013f
000002e0: 2aca f93d edd2 353f 8810 efbc ff95 eebe
000002f0: 4ac8 843f 4166 023f 1dcc 91bf 6448 5bbf
00000300: f352 c3bd a9d6 12bf ee66 4fbf 4eb1 cdbe
00000310: 07d5 7abf 9cae 273f 0c55 d53d 122d 253e
00000320: 1cb9 02be 244c 3fbf 6815 d13e fff7 34be
00000330: c054 bbbe b375 8abe f9b9 263f 2f4e 533f
00000340: 5fb5 a5be 494a f6be 3a34 25bf 7915 30bf
00000350: a2c2 523f f506 b13e e523 dcbe 0a32 84be
00000360: 4559 c63e d9fe f63b 2b14 123f 894f fbbe
00000370: c9b9 dd3e f998 abbe 7951 a8bb e420 99bd
00000380: 831d 66bf 3d38 4abb 53ff 26be 41a3 94be
00000390: 12ac 51bf 661d 743e b6c1 613f 9673 a33e
000003a0: 034f 9d3e 3fd7 70bf 81a7 8f3f 6673 a4bd
000003b0: 6272 ea3d 1cef b7bd c94d 4fbf 0d02 d1be
000003c0: 8955 1fbf 75ad b03d acf4 543f 3552 31bf
000003d0: fb90 013e fbcd 423f a188 07be 8b5d 1bbf
000003e0: df31 073f 1b7a 643f 833f ad3e 508d 25bf
000003f0: ff47 6a3f 5a26 cebe 1376 73be aa69 03bf
