pretrain_models/ml-100k-ngcf-1-64.pt (torch, 776667 bytes, 14 tensors)

embedding_user.weight f4 [943, 64]
0.838844 1.0226698 0.28986657 0.59081525 -0.12128653 -0.25077593 -0.48141694 -1.0407039
-0.40169975 -0.2507997 -0.35253066 0.822697 0.3695836 0.23802598 0.88329613 -0.72068787
-0.054185174 0.30496025 0.26844975 -0.5047065 0.51030755 -0.5591811 -0.15756635 0.38067904
1.2914616 0.4353971 -0.84308547 -0.36489144 0.84194446 -1.2629429 0.40637392 0.28607857
-0.04256286 0.49955595 -0.43437412 -0.46661866 -1.2692097 0.5729469 0.13184369 0.6180829
0.81361085 -0.0028703257 -0.93076557 0.4767744 0.789968 -0.051483274 -0.14049505 0.8778219
0.41789603 1.133453 -0.597099 0.10197927 0.21369153 -0.66370493 0.89617115 0.4162096
0.6568055 -0.6338248 -0.79332775 0.18387344 -0.1475825 -0.41590396 0.5072042 -0.5993625
0.014122776 -0.3064688 0.027224742 0.23233871 0.13169514 0.039225265 0.1434739 0.38012442
0.6792718 -0.24667177 0.12284976 -0.15674268 0.11713181 -0.9178891 -0.35412464 0.5169438
-0.25954616 0.15467288 0.57285625 -0.46617484 -0.069185734 0.012910118 0.34939343 -0.033658735
-0.4797873 -0.18947804 -0.28364396 -0.7102123 -0.23291086 0.35623515 -0.34940135 -0.25801864
0.0496411 0.5026879 0.02380202 0.83412313 0.38521382 0.53870034 0.7568575 0.53467727
-0.3480138 0.2872282 0.5858082 0.35832995 -0.44597763 0.30704293 -0.8870296 0.25905836
0.1464625 0.5586219 0.4029434 0.03657863 0.2642488 -0.8110056 0.2564223 0.42422014
0.20583005 -0.13899651 -0.11688379 -0.35734177 0.25063583 0.23423438 0.49317846 0.22255455
0.20480637 -0.5843122 0.44750535 -0.28701463 -0.47991472 -0.48792005 0.21654677 0.47581062
0.22975755 0.15293719 0.19221509 -0.6678708 0.63542324 0.04267312 0.14721262 -0.5173954
0.019964185 -0.23755054 0.55930924 -0.53193927 -0.08158829 -0.25196144 0.029089661 0.61683136
0.22363351 -0.098620266 0.07096192 0.4185675 -0.2691631 0.36363855 0.20484379 -0.44492164
0.09305186 0.5446279 0.2995758 -0.3269585 0.51274025 -0.09306212 -0.77191037 0.44342273
0.010735373 0.21427675 0.041657977 0.14468439 -0.35878688 0.2173424 0.079822816 -0.5234064
-0.27580634 0.026042737 0.6876941 0.19793001 0.20191835 -0.31718394 0.29763725 0.53973955
-0.38189915 -0.18697701 0.0713385 0.22775595 0.30165544 0.012785027 0.16083433 -0.48107442
0.09961815 0.092563614 0.037190247 -0.10803966 -0.30779612 -0.4661188 0.15639469 0.31822032
-0.17147261 -0.48059687 -0.5807193 0.17597772 -0.022556374 -0.4041273 -0.2168439 0.296014
0.30657133 0.0409117 0.49905008 0.06987445 0.36210275 0.5749191 0.35656932 0.5824932
-0.2893627 -0.07356 -0.38310936 0.90365183 0.115845524 0.4646194 -0.15377674 -0.17325419
0.58687526 0.047481447 -0.54111457 0.30155313 -0.32666025 -0.29887947 -0.55041337 -0.51074183
0.033177614 -0.18545899 -0.19792402 0.21234745 0.2516267 0.011066682 0.11744876 0.24811998
0.3753613 -0.31274444 -0.018936506 -0.025530728 0.04100139 -0.060262285 0.47109032 -0.057923537
0.14432149 -0.025033856 -0.024838515 -0.09554621 0.84485626 -0.79535633 0.3768516 -0.4530662
00000000: 7bbe 563f d8e6 823f 6469 943e ab3f 173f
00000010: 1265 f8bd b465 80be 487c f6be c935 85bf
00000020: 97ab cdbe d168 80be e67e b4be 459c 523f
00000030: 103a bd3e 15bd 733e b21f 623f 007f 38bf
00000040: 46f1 5dbd c023 9c3e 3f72 893e 7234 01bf
00000050: 84a3 023f 7e26 0fbf 1359 21be 5de8 c23e
00000060: 9d4e a53f 5eec de3e 73d4 57bf 0dd3 babe
00000070: ac89 573f 1da8 a1bf 3e10 d03e e478 923e
00000080: 6556 2ebd ccc5 ff3e 4966 debe a4e8 eebe
00000090: 7775 a2bf a6ac 123f 0802 073e ae3a 1e3f
000000a0: cd48 503f 131c 3cbb a746 6ebf c61b f43e
000000b0: 583b 4a3f 20e0 52bd efdd 0fbe f0b8 603f
000000c0: 78f6 d53e fd14 913f 7bdb 18bf 82da d03d
000000d0: f4d1 5a3e 91e8 29bf 796b 653f 6d19 d53e
000000e0: 6824 283f 5842 22bf 8717 4bbf 5249 3c3e
000000f0: de1f 17be 5df1 d4be 22d8 013f d26f 19bf
00000100: 3763 673c 7be9 9cbe 6c06 df3c 33ea 6d3e
00000110: 17db 063e acaa 203d d2ea 123e ab9f c23e
00000120: c2e4 2d3f 8697 7cbe a898 fb3d 2781 20be
00000130: cde2 ef3d c8fa 6abf d34f b5be 6e56 043f
00000140: 3ce3 84be 9162 1e3e b5a6 123f 78ae eebe
00000150: 40b1 8dbd f684 533c b2e3 b23e bedd 09bd
00000160: aea6 f5be 8806 42be c839 91be 79d0 35bf
00000170: 2f80 6ebe 7464 b63e bce4 b2be 051b 84be
00000180: 7754 4b3d 27b0 003f 74fc c23c 1889 553f
00000190: bf3a c53e 44e8 093f 6ac1 413f 9ce0 083f
000001a0: dd2e b2be 930f 933e 87f7 153f 0677 b73e
000001b0: 2e57 e4be bb34 9d3e 5f14 63bf 4ca3 843e
000001c0: 44fa 153e d801 0f3f 994e ce3e 79d3 153d
000001d0: 9e4b 873e 109e 4fbf c949 833e 6233 d93e
000001e0: 1dc5 523e 1a55 0ebe c560 efbd 80f5 b6be
000001f0: 5753 803e 23db 6f3e e381 fc3e 57e5 633e
00000200: c3b8 513e 7c95 15bf 6c1f e53e 95f3 92be
00000210: 62b7 f5be a8d0 f9be 70be 5d3e 739d f33e
00000220: 9045 6b3e 919b 1c3e 08d4 443e 95f9 2abf
00000230: 19ab 223f 02ca 2e3d e8be 163e 0674 04bf
00000240: ee8b a33c 7340 73be e42e 0f3f 2c2d 08bf
00000250: c317 a7bd 1701 81be 714d ee3c a9e8 1d3f
00000260: 2f00 653e 6cf9 c9bd 7c54 913d 7b4e d63e
00000270: bfcf 89be d52e ba3e 92c2 513e c5cc e3be
00000280: f991 be3d bc6c 0b3f 0062 993e 1b67 a7be
00000290: f242 033f 5a97 bebd eb9b 45bf 4e08 e33e
000002a0: 6be3 2f3c 5d6b 5b3e 8ea1 2a3d 2528 143e
000002b0: eab2 b7be 028f 5e3e 257a a33d f6fd 05bf
000002c0: 7d36 8dbe 9457 d53c b80c 303f 2aae 4a3e
000002d0: afc3 4e3e ef65 a2be e963 983e 5f2c 0a3f
000002e0: 4988 c3be e776 3fbe eb19 923d db38 693e
000002f0: 9572 9a3e 4a78 513c c1b1 243e 634f f6be
00000300: 9a04 cc3d fe91 bd3d cd54 183d e643 ddbd
00000310: 7497 9dbe 20a7 eebe ee25 203e c6ed a23e
00000320: 8496 2fbe cb10 f6be 05aa 14bf 8133 343e
00000330: 25c8 b8bc c6e9 cebe 540c 5ebe 268f 973e
00000340: ebf6 9c3e 0793 273d 7e83 ff3e 561a 8f3d
00000350: 8865 b93e e62d 133f 4190 b63e 461e 153f
00000360: 5927 94be a0a6 96bd e926 c4be ba55 673f
00000370: 6b40 ed3d 98e2 ed3e a677 1dbe 8c69 31be
00000380: 753d 163f e87b 423d 7c86 0abf 2c65 9a3e
00000390: 0340 a7be bb06 99be e4e7 0cbf fabf 02bf
000003a0: 40e5 073d f6e8 3dbe 98ac 4abe 9c71 593e
000003b0: 37d5 803e 0751 353c fa88 f03d 2a13 7e3e
000003c0: 5b2f c03e 0a20 a0be bb20 9bbc d125 d1bc
000003d0: 13f1 273d 96d5 76bd c032 f13e 3b41 6dbd
000003e0: 03c9 133e cd13 cdbc 247a cbbc bbad c3bd
000003f0: 8048 583f 799c 4bbf b1f2 c03e 4bf8 e7be

embedding_item.weight f4 [1682, 64]
0.49244088 0.20539059 0.45892248 0.54608154 -0.5567221 0.49736476 -1.0532408 0.48214906
-0.57463574 -0.016293129 -0.5912972 0.4152969 0.03991626 -1.0374011 0.18376322 0.2865913
-0.16693754 0.34760725 0.3446484 -0.31855112 0.44240174 -0.1853921 0.07220906 0.25610304
-0.3984986 0.37735727 -0.48535246 -0.29796538 -0.5158677 -0.6203145 -0.6290182 -0.18556929
-0.2920702 0.44332582 -0.4221669 0.38071734 -0.09575009 0.38005593 0.55296826 0.49412784
0.3500164 0.5400151 0.27441117 0.11725276 0.58899087 -0.12706351 -0.117679074 0.45175347
-0.86035025 0.78310096 0.4068201 -0.59899366 0.24406041 -0.51447093 -0.045391824 0.29572758
0.55106765 0.1582218 -0.6569337 0.173254 -0.03925736 -0.5219498 0.43107575 -0.37385184
0.16581687 0.23604563 0.27669424 -0.18669319 -0.22183959 -0.14652665 0.22328052 0.3221066
0.18258427 -0.3986881 -0.13359478 0.12093289 -0.12709641 -0.68932253 0.6676881 -0.4040904
-0.6807873 -0.12115801 -0.39413333 0.44094288 -0.03318908 -0.041730735 0.17007796 -0.30069208
0.06963838 0.040274993 0.5019667 -0.5680876 0.38902274 -0.6175237 -0.32494396 0.30267018
0.5627945 0.63931096 -0.094346456 -0.35689855 -0.3878391 -0.27442494 0.23538367 -0.3640307
0.22694887 0.426379 -0.37243232 -0.011516542 0.13486938 -0.2924623 0.31903514 0.47035736
0.0210809 -1.1431875 -0.31220105 -0.04804357 -0.032061916 0.24040452 0.4259837 0.42837173
0.3547894 0.07277287 -0.4538934 0.345568 0.12307045 0.035856284 0.34741634 -0.4375137
0.44521835 -0.089492925 -0.27188453 0.26941594 0.11152132 0.4908156 -0.18061937 -0.3019494
-0.26878816 -0.043467715 0.067675754 0.30668697 0.39485413 0.011841423 -0.3756114 0.07552564
-0.6303298 -0.6214188 0.3159586 0.006930432 0.34795025 0.41611877 -0.7911803 0.15408155
0.02742721 -0.4315547 -0.0053680097 -0.018317299 0.26375657 0.12502946 0.08112917 -0.07773968
-0.38240105 -0.2724307 0.24070212 -0.08913541 -0.3328487 0.63975 0.303161 0.32656598
0.20510535 0.06031684 0.00987458 -0.21893957 -0.19687961 -0.09516358 -0.11212454 -0.68036515
-0.6859865 0.270436 0.08733193 -0.11778589 -0.07943519 -0.09188599 -0.18251494 0.10845392
0.55253303 0.18161188 -0.45190674 0.48043606 -0.24971835 -0.29421464 0.70015734 0.7865018
0.19170094 0.55324996 -0.052883912 -0.27138248 0.099609874 0.11099891 -0.47502756 0.44362795
0.29693592 -0.2628518 0.107458495 0.46288347 0.19558091 0.2528515 0.14601026 -0.21185239
-0.14535546 0.59838074 -0.6842993 -0.26644093 0.29044548 -0.20642582 0.51726645 -0.0015081686
0.19565567 0.32379153 0.40048993 -0.19650818 0.1951555 -0.2138349 0.03990193 -0.39674422
-0.5994786 0.42116958 -0.08677953 0.7289239 -0.2880553 -0.60291696 0.10424824 -0.32945898
0.17822038 0.6524979 -0.28842548 -0.45719114 0.09679552 0.025746565 0.080362834 -0.19164269
0.29367667 0.21950594 -0.7310475 -0.83453137 0.44204864 0.18732461 0.64203733 -0.26259708
-0.08162159 0.12447947 -0.44250974 0.4470276 0.07893286 -0.30385208 0.5239213 0.04174142
00000000: 3621 fc3e e951 523e e3f7 ea3e 00cc 0b3f
00000010: 5785 0ebf 98a6 fe3e 98d0 86bf 3edc f63e
00000020: 541b 13bf 2b79 85bc 415f 17bf cca1 d43e
00000030: 3b7f 233d 8fc9 84bf 6d2c 3c3e 18bc 923e
00000040: adf1 2abe 94f9 b13e c175 b03e 2219 a3be
00000050: 7b82 e23e 6dd7 3dbe 58e2 933d f01f 833e
00000060: 0208 ccbe f934 c13e 1e80 f8be eb8e 98be
00000070: e80f 04bf eecc 1ebf 5607 21bf e005 3ebe
00000080: 3a8a 95be 9afb e23e 4326 d8be 62ed c23e
00000090: a018 c4bd b196 c23e 548f 0d3f 53fe fc3e
000000a0: 5935 b33e 6e3e 0a3f 9f7f 8c3e 3722 f03d
000000b0: 1bc8 163f f01c 02be ba01 f1bd 3b4c e73e
000000c0: ea3f 5cbf 4e79 483f b94a d03e a657 19bf
000000d0: f9ea 793e 5eb4 03bf c7ec 39bd 9b69 973e
000000e0: c512 0d3f e504 223e cf2c 28bf 7f69 313e
000000f0: 53cc 20bd 819e 05bf f6b5 dc3e 8269 bfbe
00000100: e6cb 293e f2b5 713e deaa 8d3e 802c 3fbe
00000110: eb29 63be 150b 16be a6a3 643e 28eb a43e
00000120: 5ff7 3a3e d920 ccbe 12cd 08be aaab f73d
00000130: 9025 02be 7177 30bf 9bed 2a3f f0e4 cebe
00000140: 1448 2ebf b121 f8bd d8cb c9be 44c3 e13e
00000150: 46f1 07bd d9ed 2abd eb28 2e3e 50f4 99be
00000160: 919e 8e3d 64f7 243d e480 003f 306e 11bf
00000170: fd2d c73e 0916 1ebf 0e5f a6be 96f7 9a3e
00000180: 4d13 103f e2a9 233f b738 c1bd 68bb b6be
00000190: d992 c6be 6d81 8cbe 6b08 713e 3b62 babe
000001a0: 4965 683e 594e da3e 73af bebe e1af 3cbc
000001b0: 331b 0a3e 9ebd 95be 9358 a33e aed2 f03e
000001c0: dab1 ac3c f853 92bf d1d8 9fbe 56c9 44bd
000001d0: 5b53 03bd 9a2c 763e 891a da3e 8a53 db3e
000001e0: f5a6 b53e f109 953d b764 e8be 4aee b03e
000001f0: 5c0c fc3d 0ade 123d 8ee0 b13e cc01 e0be
00000200: a9f3 e33e 1148 b7bd 7334 8bbe e3f0 893e
00000210: 4a65 e43d 2f4c fb3e 49f4 38be 1d99 9abe
00000220: 9a9e 89be 340b 32bd 9699 8a3d 1306 9d3e
00000230: 522a ca3e 8702 423c 2350 c0be 30ad 9a3d
00000240: 4b5d 21bf 4d15 1fbf 53c5 a13e ad18 e33b
00000250: 8926 b23e 850d d53e cb8a 4abf 8ec7 1d3e
00000260: 07af e03c bdf4 dcbe 21e6 afbb 290e 96bc
00000270: 1a0b 873e b907 003e 0d27 a63d fb35 9fbd
00000280: 12ca c3be 097c 8bbe 9e7a 763e a08c b6bd
00000290: 256b aabe a8c6 233f eb37 9b3e a833 a73e
000002a0: 2307 523e ca0e 773d fec8 213c b231 60be
000002b0: cf9a 49be 1fe5 c2bd 8da1 e5bd 692c 2ebf
000002c0: d09c 2fbf 9676 8a3e 15db b23d bb39 f1bd
000002d0: ebae a2bd b92e bcbd 32e5 3abe 171d de3d
000002e0: ce72 0d3f 77f8 393e 5260 e7be b7fb f53e
000002f0: 2bb6 7fbe 4da3 96be 833d 333f 2f58 493f
00000300: 404d 443e caa1 0d3f cd9c 58bd a5f2 8abe
00000310: 4300 cc3d 6653 e33d d036 f3be 3423 e33e
00000320: fc07 983e 8394 86be 3313 dc3d 10ff ec3e
00000330: 5d46 483e c075 813e b783 153e d5ef 58be
00000340: 10d8 14be 7b2f 193f 3d2e 2fbf f26a 88be
00000350: 45b5 943e 4a61 53be 936b 043f bead c5ba
00000360: f659 483e 01c8 a53e 040d cd3e 7139 49be
00000370: d8d6 473e 89f7 5abe 3570 233d 0f22 cbbe
00000380: 6e77 19bf 8aa3 d73e 77b9 b1bd c29a 3a3f
00000390: fc7b 93be c458 1abf 1a80 d53d d9ae a8be
000003a0: 677f 363e 1a0a 273f 81ac 93be f514 eabe
000003b0: bb3c c63d 76ea d23c 4595 a43d fb3d 44be
000003c0: ca5c 963e 2ac6 603e ee25 3bbf d9a3 55bf
000003d0: 3354 e23e 06d2 3f3e 8f5c 243f 2073 86be
000003e0: 3829 a7bd 18ef fe3d a390 e2be cde0 e43e
000003f0: 8da7 a13d 8092 9bbe b51f 063f 0df9 2a3d

gc_mlp.0.weight f4 [64, 64]
-0.24004965 0.6766764 0.21790859 0.23597398 0.017414447 -0.15404768 0.12034381 -0.16272919
-0.18406326 0.098808855 -0.05876911 0.08707327 0.10657205 0.11560099 0.13448717 -0.45698172
0.13061032 0.2020095 -0.29351246 0.15654965 -0.25265136 0.13046184 -0.058462314 -0.12013903
0.17899337 -0.04526713 0.14781667 -0.17692 -0.29123458 0.43846822 -0.11972969 -0.052618865
0.0381816 0.20547108 -0.17216223 0.18277897 -0.3189401 -0.2998489 0.0822033 -0.41374126
0.18617387 0.073885575 -0.2050242 -0.3112988 0.048603985 0.36233598 -0.046945333 -0.1040232
-0.011208453 -0.119211175 -0.012918341 -0.15656064 -0.598328 0.2241171 0.25542438 -0.31658545
0.19076958 0.117906354 0.18186535 -0.101866275 -0.28551376 0.02320395 -0.22414997 -0.011610033
-0.030181592 0.12046136 -0.17977853 0.0077727614 -0.14067735 0.33370784 -0.14591816 -0.095445745
-0.3255056 0.92257094 0.11998049 -0.0444709 0.101026885 0.018022068 -0.029381014 0.06283215
-0.040897984 -0.1876011 0.14770931 -0.041111957 0.1056634 -0.27993816 -0.17081693 0.12951103
-0.16511373 -0.09090078 0.25206113 0.08555626 -0.105822265 0.07764168 -0.034487717 0.13616146
0.09242184 0.106972605 0.014240841 0.12971987 0.077844605 0.13173233 0.20897958 -0.02909038
0.07499207 0.03266352 0.29788777 0.116702564 0.20462127 0.1970857 0.015993955 0.059300635
-0.3781632 0.15358198 0.28730884 0.4219978 -0.116851725 -0.12187782 -0.09949003 -7.629975e-05
-0.088793956 -0.07563941 0.0057574976 -0.15751964 -0.31536615 0.0642738 -0.030675856 -0.21740347
0.0746883 0.6662756 -0.10337705 0.0015470572 0.009801008 0.0703074 -0.11189572 0.07693817
-0.018217597 0.03510915 0.121489376 -0.1262847 0.009307205 0.13432775 0.1896646 -0.34339318
-0.0024300946 0.0635338 -0.064813174 -0.0042027775 0.029808521 0.18013273 -0.024457887 0.061086148
0.019258149 -0.040251933 0.3356459 -0.041080955 0.18711615 0.33488715 0.0070823045 -0.033629447
0.30418184 0.0050685005 -0.21804485 0.013754426 -0.24575567 -0.15173091 0.043856684 -0.05623551
-0.046355736 0.040895842 -0.24569198 -0.13603961 -0.018701559 0.16072893 0.31353155 -0.0063384105
-0.17038363 -0.21913537 0.017411044 0.09763731 -0.22217122 0.34420425 -0.011798392 -0.23992975
-0.10675083 -0.048457205 0.16882958 0.020891367 -0.14346457 -0.03359816 -0.11111334 0.015957613
0.004505762 -0.23742141 -0.3098085 -0.40811008 -0.21469218 0.44738775 0.10444327 0.17963703
-0.20003414 0.28013986 -0.056523424 0.16374487 -0.117707536 -0.086031765 -0.26702943 0.6397376
0.00042989771 0.08197598 -0.08095747 -0.11393719 0.033963166 -0.22040743 0.019220473 0.13330854
-0.11208391 0.01160619 0.085141756 -0.2845258 -0.21987545 0.09462602 -0.057717554 0.15849099
-0.3006071 0.19133462 0.12059428 0.15748353 0.04185128 0.24449484 0.3253936 0.19519877
0.11814811 0.3356913 0.39354286 0.14220648 0.108344465 0.27325153 -0.26629132 -0.3406859
-0.22477318 0.31944343 0.35093442 0.06785112 -0.19128041 -0.41022465 -0.35882893 0.18395898
0.21520555 -0.031103464 -0.21794759 -0.21418571 -0.393563 -0.081089415 -0.055964697 0.019096281
00000000: 93cf 75be aa3a 2d3f 6e23 5f3e 2aa3 713e
00000010: bea8 8e3c adbe 1dbe d176 f63d 7ba2 26be
00000020: 147b 3cbe 4c5c ca3d e1b7 70bd 7853 b23d
00000030: 7242 da3d 36c0 ec3d 01b7 093e 82f9 e9be
00000040: b6be 053e 94db 4e3e 4447 96be 8d4e 203e
00000050: 855b 81be ca97 053e 2e76 6fbd 740b f6bd
00000060: 0a4a 373e 076a 39bd 415d 173e 842a 35be
00000070: b31c 95be e87e e03e d734 f5bd e186 57bd
00000080: 4f64 1c3d 0367 523e 4c4b 30be 692a 3b3e
00000090: 1e4c a3be cc85 99be 345a a83d e5d5 d3be
000000a0: 5da4 3e3e 5251 973d ddf1 51be 8e62 9fbe
000000b0: f914 473d 1a84 b93e c049 40bd 1e0a d5bd
000000c0: a9a3 37bc fd24 f4bd 73a7 53bc 6f51 20be
000000d0: 062c 19bf f47e 653e fcc6 823e 7d17 a2be
000000e0: 1a59 433e e378 f13d e93a 3a3e 449f d0bd
000000f0: dc2e 92be 3616 be3c 9287 65be 0238 3ebc
00000100: 633f f7bc 72b4 f63d dd17 38be a6b2 fe3b
00000110: b90d 10be c1db aa3e 926b 15be 0f79 c3bd
00000120: aca8 a6be 9c2d 6c3f 55b8 f53d 1e27 36bd
00000130: 2fe7 ce3d 04a3 933c 74b0 f0bc 24ae 803d
00000140: a584 27bd 811a 40be 1c41 173e 0365 28bd
00000150: 0d66 d83d 0e54 8fbe a2ea 2ebe 8a9e 043e
00000160: 9313 29be 302a babd 280e 813e 1f38 af3d
00000170: 58b9 d8bd 9a02 9f3d fe42 0dbd e96d 0b3e
00000180: a947 bd3d 7414 db3d 6b52 693c 49d5 043e
00000190: fe6c 9f3d d7e4 063e befe 553e f34e eebc
000001a0: 7195 993d 2fca 053d bf84 983e c101 ef3d
000001b0: 3d88 513e d5d0 493e c105 833c 39e5 723d
000001c0: 9b9e c1be 9844 1d3e 251a 933e 1810 d83e
000001d0: f54f efbd 149b f9bd 6ec1 cbbd 1e03 a0b8
000001e0: 9bd9 b5bd d6e8 9abd 64a9 bc3b d44c 21be
000001f0: ac77 a1be fba1 833d ef4b fbbc 049f 5ebe
00000200: 2ef6 983d 0a91 2a3f 59b7 d3bd a0c6 ca3a
00000210: 6894 203c 53fd 8f3d 9529 e5bd c291 9d3d
00000220: 123d 95bc 9dce 0f3d 6ccf f83d c750 01be
00000230: 3f7d 183c 378d 093e 7037 423e 3bd1 afbe
00000240: 3942 1fbb 021e 823d c5bc 84bd 74b7 89bb
00000250: 0031 f43c b774 383e e85b c8bc 7835 7a3d
00000260: 44c3 9d3c 36df 24bd c8d9 ab3e 8144 28bd
00000270: 609b 3f3e 5476 ab3e ad12 e83b 08bf 09bd
00000280: b9bd 9b3e aa15 a63b 2647 5fbe 3e5a 613c
00000290: 60a7 7bbe 595f 1bbe 11a3 333d 3557 66bd
000002a0: 83df 3dbd 6682 273d ae96 7bbe f84d 0bbe
000002b0: 0334 99bc 2096 243e 3587 a03e 71b2 cfbb
000002c0: 0c79 2ebe 0665 60be 9ba1 8e3c 12f6 c73d
000002d0: da80 63be 8a3b b03e 0b4e 41bc 25b0 75be
000002e0: 2ea0 dabd 107b 46bd a9e1 2c3e 5f24 ab3c
000002f0: 60e8 12be 399e 09bd 648f e3bd 8ab9 823c
00000300: 12a5 933b 991e 73be 389f 9ebe cef3 d0be
00000310: 44d8 5bbe 0210 e53e 5ae6 d53d c5f2 373e
00000320: c0d5 4cbe 7e6e 8f3e 1b85 67bd bcac 273e
00000330: a610 f1bd 6c31 b0bd 15b8 88be d8c5 233f
00000340: e563 e139 06e3 a73d 08cd a5bd e757 e9bd
00000350: f61c 0b3d 7cb2 61be 4174 9d3c 0982 083e
00000360: 408c e5bd e427 3e3c cd5e ae3d 5ead 91be
00000370: 0827 61be 49cb c13d 3e69 6cbd 764b 223e
00000380: 2ce9 99be 39ed 433e 22fa f63d 5d43 213e
00000390: 3f6c 2b3d db5c 7a3e fd99 a63e 30e2 473e
000003a0: a3f7 f13d bbdf ab3e 737e c93e 939e 113e
000003b0: b4e3 dd3d a0e7 8b3e 5657 88be 626e aebe
000003c0: f12a 66be 178e a33e adad b33e 87f5 8a3d
000003d0: 03df 43be f708 d2be 6db8 b7be be5f 3c3e
000003e0: d85e 5c3e b1cc febc a72d 5fbe 8053 5bbe
000003f0: 1781 c9be 3512 a6bd 3d3b 65bd ce6f 9c3c

gc_mlp.0.bias f4 [64]
-0.15196498 -0.06641903 -0.07606894 -0.1280529 -0.13507774 -0.080593586 -0.051899616 -0.09804317
-0.09496153 -0.07394426 -0.12880702 -0.08875111 -0.10194439 -0.050506823 -0.17099823 -0.12516703
-0.17447674 -0.030582841 -0.16674738 -0.069939986 -0.041456226 -0.03217787 -0.18570764 -0.14884117
-0.028265124 -0.13568689 -0.11024402 -0.08819563 -0.16442747 -0.04020592 -0.12300551 -0.07344781
-0.0406882 -0.1309506 -0.09138532 -0.14706512 -0.09959122 -0.049063515 -0.11714315 -0.087193765
-0.150475 -0.18834488 -0.1282881 -0.12010283 -0.04500588 -0.0727369 -0.10232878 -0.07028394
-0.16147791 -0.08296714 -0.0721778 -0.08807581 -0.11384232 -0.16427994 -0.041335844 -0.14940564
-0.09097891 -0.09407081 -0.092984945 -0.15573062 -0.058321763 -0.13867858 -0.05429605 -0.09092014
00000000: b59c 1bbe b306 88bd 08ca 9bbd 4d20 03be
00000010: d251 0abe 400e a5bd b194 54bd dcca c8bd
00000020: 317b c2bd 1770 97bd fde5 03be 24c3 b5bd
00000030: 38c8 d0bd 3ee0 4ebd 291a 2fbe c92b 00be
00000040: 08aa 32be de88 fabc d3bf 2abe b23c 8fbd
00000050: 01ce 29bd f1cc 03bd 252a 3ebe d269 18be
00000060: 438c e7bc 81f1 0abe 9ec7 e1bd e99f b4bd
00000070: ad5f 28be f6ae 24bd 50ea fbbd ce6b 96bd
00000080: aca8 26bd ea17 06be 3a28 bbbd 3d98 16be
00000090: 7bf6 cbbd d3f6 48bd bfe8 efbd a592 b2bd
000000a0: 1e16 1abe 7bdd 40be f55d 03be 79f8 f5bd
000000b0: 1658 38bd 15f7 94bd c091 d1bd 07f1 8fbd
000000c0: 775a 25be adea a9bd f4d1 93bd 1761 b4bd
000000d0: 2a26 e9bd 0039 28be c64f 29bd cbfd 18be
000000e0: 2753 babd 32a8 c0bd e46e bebd d977 1fbe
000000f0: cde2 6ebd c201 0ebe 8965 5ebd 5734 babd

gc_mlp.1.weight f4 [64, 64]
0.14111201 0.12517636 -0.025940083 0.0425458 0.026940696 -0.01487598 -0.018070249 0.17264636
-0.14380097 0.05179577 0.05079072 0.034472115 0.013569155 0.0026988273 -0.03290798 0.005953469
0.10204337 0.014131281 -0.04969032 -0.001244709 -0.013783371 -0.065878205 0.036858533 0.058860324
-0.05998217 0.074033454 -0.0728181 0.013652047 -0.089085884 0.07391977 0.15679574 0.08108587
0.09607814 0.1101834 0.082376786 -0.075545095 -0.108571984 0.108766556 -0.15101461 -0.15523025
0.10947485 0.0081548095 -0.056887373 0.07991907 0.043916132 0.008154354 -0.080969974 -0.1377846
-0.03053541 0.059731167 0.045990918 0.13376468 -0.111360155 0.03223455 -0.06760337 0.032518823
-0.07529823 0.046799615 0.0022715044 0.11153958 -0.07196826 0.08921235 -0.030074526 -0.01910558
-0.04727535 -0.1974201 -0.05725287 -0.5786958 -0.39426655 0.22101142 0.02110794 -0.70645297
0.18017817 -0.16880502 -0.47002065 -0.23823638 0.19978678 -0.46608782 -0.49058855 -0.48585415
-0.600353 -0.27117345 -0.415849 -0.23129453 -0.1713729 -0.09908378 -0.14540789 -0.4838392
-0.16867001 -0.45820788 -0.3236009 0.2094967 -0.3158602 -0.18610041 -0.5127766 -0.3880826
-0.15852614 -0.26630816 -0.3520891 -0.5135053 0.15394242 -0.20117287 -0.09161104 0.09102418
-0.12550017 -0.2739173 -0.35375938 0.2030533 -0.2624936 0.20972852 -0.38677663 -0.085069254
-0.3130301 -0.24717836 -0.3914566 0.24952538 -0.2557213 -0.4691284 -0.20881319 -0.22348037
-0.25375935 -0.044965796 0.034281284 -0.3631806 -0.25258547 -0.47125486 -0.3962947 0.14359948
-0.10201294 0.017376551 0.0060604485 0.05075483 -0.08300377 0.15690266 0.10141231 -0.35452956
0.25102168 -0.06900135 -0.13152169 0.048533052 0.09274446 -0.14461757 -0.07331146 0.077842265
-0.13546936 -0.118165694 0.006201568 -0.07731386 -0.08809421 -0.062804975 -0.07945343 -0.23372279
-0.028622115 -0.11500106 0.01926882 0.058350828 -0.0805188 -0.09528387 -0.21886194 -0.06891776
0.099279344 0.04346784 0.06585689 -0.14720969 0.16690704 0.012418745 0.122643515 0.22001728
-0.21432033 -0.15138578 0.06344881 0.1259335 0.07425064 0.027978104 -0.004387 0.11858864
0.0046150326 -0.13050054 -0.062603496 0.16182385 -0.16237783 -0.01632996 -0.059941575 -0.027773578
-0.073057175 -0.10022723 0.17008963 -0.078738764 0.013399544 -0.14233918 -0.05026341 0.2298983
-0.14007556 -0.07508048 -0.15342991 0.023648445 0.05366493 -0.18225944 0.047877878 0.091532096
-0.09734246 0.073305756 -0.12655625 -0.03226898 -0.19146283 0.07131612 0.07490529 -0.06335991
0.049319495 0.07585843 -0.22286454 -0.03501657 -0.039120413 -0.1186955 -0.09424841 -0.19124071
0.05923305 0.07929154 -0.045252316 -0.1221039 -0.024506612 -0.12190895 0.064417966 -0.023501609
0.06301185 -0.14800784 -0.023825783 -0.054535665 -0.055669256 0.118241176 -0.060491376 -0.05510661
-0.3507594 -0.21162918 0.21262184 -0.16896622 -0.081499 0.14731939 -0.1622315 -0.073667005
-0.18436147 0.10575124 -0.13372254 -0.26313284 -0.028046956 -0.33555397 -0.0326697 -0.119674034
0.024267243 0.09613081 -0.24620958 0.082019016 -0.020755168 -0.301953 0.08134876 -0.28637627
00000000: ab7f 103e 3b2e 003e 4c80 d4bc 8144 2e3d
00000010: bcb2 dc3c 62ba 73bc 0f08 94bc 35ca 303e
00000020: 9040 13be cd27 543d ee09 503d a232 0d3d
00000030: 2951 5e3c cfde 303b 85ca 06bd 5115 c33b
00000040: 1dfc d03d e386 673c 1488 4bbd 8125 a3ba
00000050: a6d3 61bc 27eb 86bd f9f8 163d 8617 713d
00000060: ddaf 75bd da9e 973d a821 95bd d6ac 5f3c
00000070: a972 b6bd 4063 973d 108f 203e 5910 a63d
00000080: 9ec4 c43d d6a7 e13d 29b5 a83d 63b7 9abd
00000090: fd5a debd 00c1 de3d 93a3 1abe aef4 1ebe
000000a0: 5a34 e03d c09b 053c bc02 69bd 9cac a33d
000000b0: 67e1 333d d799 053c 96d3 a5bd 6817 0dbe
000000c0: 6525 fabc aba8 743d f960 3c3d 9cf9 083e
000000d0: cb10 e4bd 6008 043d a373 8abd 7532 053d
000000e0: f535 9abd f4b0 3f3d 85dd 143b dd6e e43d
000000f0: 1864 93bd f7b4 b63d da5e f6bc 4e83 9cbc
00000100: cca3 41bd 7f28 4abe fc81 6abd 6825 14bf
00000110: 4edd c9be d150 623e 8fea ac3c 1ada 34bf
00000120: a080 383e 39db 2cbe 8ca6 f0be 3df4 73be
00000130: e894 4c3e 10a3 eebe 6c2e fbbe e0c1 f8be
00000140: bcb0 19bf 3fd7 8abe 29ea d4be 79d8 6cbe
00000150: 617c 2fbe 70ec cabd cee5 14be c6b9 f7be
00000160: d5b7 2cbe 399a eabe 04af a5be 4e86 563e
00000170: 6eb8 a1be 1b91 3ebe 5445 03bf c3b2 c6be
00000180: ad54 22be 8b59 88be 0645 b4be 1575 03bf
00000190: 15a3 1d3e 4300 4ebe 929e bbbd e36a ba3d
000001a0: 1e83 00be e33e 8cbe f31f b5be 34ed 4f3e
000001b0: 9065 86be 13c3 563e 9607 c6be ca38 aebd
000001c0: 7b45 a0be 531c 7dbe 006d c8be 9583 7f3e
000001d0: e7ed 82be 9931 f0be 20d3 55be 0ad8 64be
000001e0: bfec 81be 0e2e 38bd 886a 0c3d cff2 b9be
000001f0: e252 81be 5148 f1be 24e7 cabe be0b 133e
00000200: 29ec d0bd 4559 8e3c ba96 c63b 4ce4 4f3d
00000210: e1fd a9bd 17ab 203e 42b1 cf3d e684 b5be
00000220: ea85 803e 9450 8dbd 9fad 06be 98ca 463d
00000230: cff0 bd3d a116 14be 5224 96bd c46b 9f3d
00000240: 7bb8 0abe db00 f2bd 8636 cb3b bb56 9ebd
00000250: bd6a b4bd e59f 80bd 7bb8 a2bd 0755 6fbe
00000260: ed78 eabc ad85 ebbd a5d9 9d3c 4701 6f3d
00000270: 0ae7 a4bd 3124 c3bd 581d 60be c124 8dbd
00000280: f852 cb3d 550b 323d fadf 863d 23be 16be
00000290: aee9 2a3e fe77 4b3c 862c fb3d 364c 613e
000002a0: ca76 5bbe e004 1bbe 73f1 813d b6f4 003e
000002b0: b810 983d 5632 e53c d3c0 8fbb 9ade f23d
000002c0: b339 973b efa1 05be 4336 80bd 27b5 253e
000002d0: 6046 26be 69c6 85bc 4c85 75bd 6a85 e3bc
000002e0: 009f 95bd ef43 cdbd fa2b 2e3e ca41 a1bd
000002f0: c389 5b3c 5dc1 11be 01e1 4dbd 766a 6b3e
00000300: f86f 0fbe cbc3 99bd bb1c 1dbe 62ba c13c
00000310: c2cf 5b3d 38a2 3abe 981b 443d 2e75 bb3d
00000320: 7c5b c7bd 5421 963d f697 01be 7a2c 04bd
00000330: d50e 44be 300e 923d f267 993d d7c2 81bd
00000340: 3d03 4a3d aa5b 9b3d 9a36 64be 896d 0fbd
00000350: ba3c 20bd a016 f3bd 4f05 c1bd 9bd4 43be
00000360: 5b9e 723d 9a63 a23d 7e5a 39bd 9c11 fabd
00000370: 17c2 c8bc 66ab f9bd 91ed 833d 7286 c0bc
00000380: 5b0c 813d 5e8f 17be 4a2e c3bc ca60 5fbd
00000390: 7205 64bd 6e28 f23d cec5 77bd 78b7 61bd
000003a0: bc96 b3be 52b5 58be 8ab9 593e 7b05 2dbe
000003b0: f3e8 a6bd e5da 163e 0420 26be bade 96bd
000003c0: 41c9 3cbe 1b94 d83d 90ee 08be 59b9 86be
000003d0: bbc2 e5bc bbcd abbe aad0 05bd a917 f5bd
000003e0: 19cc c63c 3be0 c43d 5d1e 7cbe 96f9 a73d
000003f0: be06 aabc 9599 9abe 2e9a a63d e99f 92be

gc_mlp.1.bias f4 [64]
-0.10237085 -0.35217682 0.18599904 -0.23300286 0.17795433 -0.15395613 0.1382925 -0.1039808
0.12509377 -0.08649 0.039404146 0.10714184 -0.07218606 -0.15245564 0.0670689 -0.11028092
-0.009933148 -0.104078814 -0.13451482 0.13134558 -0.049473066 -0.11912883 -0.15243405 0.09949763
0.1377746 -0.07940669 -0.14587095 0.17453553 -0.21622062 -0.089100726 0.15814526 -0.025474686
-0.05065163 -0.1345375 -0.124032274 -0.20915556 0.14244896 0.040046766 -0.29708165 -0.14709665
-0.087795585 -0.11553659 0.07713558 -0.2783994 -0.08347821 -0.07210787 0.017527 -0.005379127
0.08979945 0.117359236 -0.07914077 -0.05887899 -0.016651759 -0.09083637 -0.114032984 0.12812342
0.16080402 -0.014073584 -0.06528051 -0.16802369 -0.034271132 0.18985566 -0.026498117 0.16755232
00000000: cfa7 d1bd 8550 b4be 8876 3e3e 4d98 6ebe
00000010: a939 363e ada6 1dbe 8d9c 0d3e e3f3 d4bd
00000020: 9518 003e ab21 b1bd 3e66 213d 2e6d db3d
00000030: 49d6 93bd 551d 1cbe 6b5b 893d f7da e1bd
00000040: a4be 22bc 4627 d5bd 41be 09be 757f 063e
00000050: 45a4 4abd d1f9 f3bd ac17 1cbe 6ac5 cb3d
00000060: c914 0d3e fa9f a2bd 325f 15be 71b9 323e
00000070: f068 5dbe 717a b6bd d5f0 213e 4ab0 d0bc
00000080: 1578 4fbd 33c4 09be a204 febd e02c 56be
00000090: 24de 113e 1408 243d 161b 98be 81a0 16be
000000a0: 2cce b3bd 739e ecbd 42f9 9d3d 5e8a 8ebe
000000b0: a0f6 aabd 4aad 93bd c894 8f3c 6343 b0bb
000000c0: c6e8 b73d 0a5a f03d 8e14 a2bd 192b 71bd
000000d0: 4569 88bc 6b08 babd 208a e9bd c932 033e
000000e0: cfa9 243e e494 66bc cab1 85bd 670e 2cbe
000000f0: e35f 0cbd 8669 423e 9412 d9bc d692 2b3e

gc_mlp.2.weight f4 [64, 64]
-0.080890805 0.10170299 0.08840902 -0.0072536855 -0.041282702 0.089124635 -0.0816003 -0.095015116
0.10556499 -0.08345787 0.06980835 -0.021488484 0.043426935 0.15615492 -0.027705604 -0.018765727
0.12616077 -0.16301219 -0.11076046 0.05688553 -0.011562263 0.0033587182 -0.051054027 0.020795148
-0.042540815 -0.063353986 0.02954215 -0.061947625 0.12361744 -0.0070421374 -0.0331932 -0.069987416
-0.10232174 0.06316093 -0.08263639 0.03084686 0.06794892 -0.02258543 0.12926708 -0.09346103
-0.0023135059 -0.07007252 0.09803661 -0.081518464 -0.020415572 -0.004884439 -0.06384335 0.037432764
-0.060526907 0.06791848 -0.058734886 0.08222786 -0.054495018 0.06661322 0.0019055209 -0.0084509505
-0.088500135 0.008195134 0.091302454 -0.06589847 -0.0056085153 0.053510763 0.014367977 0.04968625
0.08059584 -0.011156878 -0.15345697 -0.060631093 -0.06226517 -0.012192782 0.06541115 0.13059121
0.018916452 0.021706674 0.08492687 -0.15420742 -0.14033453 0.016566988 0.07243702 0.13962041
-0.10850091 -0.020909488 0.12068423 -0.09248882 -0.008542256 -0.14881448 -0.08328181 -0.09981006
0.0008625134 0.15275407 -0.102383666 0.09386243 -0.08036399 -0.046620872 -0.092751086 -0.2210749
0.045516193 0.1597889 -0.048238706 -0.16165875 0.03590977 -0.12283226 -0.08193448 0.10078243
-0.17871307 0.078421056 -0.05671435 0.03662561 -0.14637314 -0.07207675 -0.032104567 -0.043049783
-0.12795891 -0.073364094 -0.025646152 -0.019757874 0.029970713 -0.056653567 -0.19620402 -0.08178526
-0.016938074 -0.045213517 -0.1604201 0.13252676 -0.03431804 0.031814463 0.052831113 -0.09175616
-0.0037443577 0.25885803 -0.08615804 0.15991722 0.031556714 -0.10140178 -0.0715051 -0.02755905
0.027325513 0.0014135342 0.041372564 0.0018765408 0.009242785 -0.0892927 0.10713873 -0.09700956
0.10813112 -0.06556507 -0.07826903 -0.0034554757 -0.028829196 -0.054056346 -0.061746318 0.075216375
-0.039185956 -0.13461874 -0.151997 -0.0602322 0.11111029 -0.05164694 -0.02989309 -0.018317088
-0.10190261 -0.044689957 -0.10870586 0.09969768 0.0930172 0.1147786 0.07273475 -0.041414298
0.094694905 -0.076068364 0.0904599 0.14121981 0.048922896 0.0505774 0.20684199 -0.0039288728
0.01864337 0.088060685 -0.09575348 0.09027222 -0.019217392 0.02628967 0.017820511 -0.070614636
-0.013664807 -0.024863899 0.050605215 -0.08529679 -0.023983145 -0.027100384 0.0640746 -0.01972112
0.1152252 0.08125588 -0.118598305 -0.15520443 -0.08581577 0.10252453 0.013534881 -0.007751727
-0.13831511 -0.047567632 0.053460505 0.018043632 -0.1373925 -0.029326731 -0.050058573 0.12880787
-0.1591498 -0.03063265 0.050066307 -0.006567806 -0.036416266 0.026116252 0.04126384 -0.077500686
-0.09452004 0.08359933 -0.08835367 -0.08721354 0.030395115 -0.01343294 -0.026633786 -0.022599535
-0.02639758 0.10802301 0.07306911 -0.07839964 -0.05199972 -0.12512764 -0.12756993 -0.049516138
0.024141004 0.0045883306 -0.014213715 -0.11788402 0.020502923 -0.06489386 -0.13367783 -0.08888673
-0.050270904 -0.11563161 0.19992302 0.01835485 0.06112492 -0.08422139 0.0016198523 -0.15166332
0.010619539 -0.05996576 -0.10609381 0.03980711 -0.012844381 0.01993183 0.07450744 0.014975771
00000000: 14aa a5bd a849 d03d ca0f b53d 53b0 edbb
00000010: 0d18 29bd fa86 b63d 0f1e a7bd 4997 c2bd
00000020: 7532 d83d f6eb aabd aef7 8e3d 9e08 b0bc
00000030: 71e0 313d 13e7 1f3e ddf6 e2bc 95ba 99bc
00000040: 4a30 013e abec 26be 61d6 e2bd cd00 693d
00000050: a56f 3dbc f11d 5c3b 071e 51bd 965a aa3c
00000060: 473f 2ebd bcbf 81bd 6102 f23c cbbc 7dbd
00000070: 242b fd3d bbc1 e6bb 98f5 07bd 9055 8fbd
00000080: 0f8e d1bd 855a 813d 453d a9bd 8eb2 fc3c
00000090: ce28 8b3d 1405 b9bc 975e 043e 7f68 bfbd
000000a0: 309e 17bb 2e82 8fbd 6bc7 c83d 27f3 a6bd
000000b0: 8f3e a7bc a50d a0bb 4dc0 82bd 1953 193d
000000c0: 10eb 77bd d818 8b3d fe93 70bd 1567 a83d
000000d0: 2b36 5fbd 836c 883d acc2 f93a db75 0abc
000000e0: 8f3f b5bd e244 063c c8fc ba3d c7f5 86bd
000000f0: a3c7 b7bb 1a2e 5b3d aa67 6b3c cf83 4b3d
00000100: 6f0f a53d 57cb 36bc d323 1dbe 4f58 78bd
00000110: c309 7fbd 3cc4 47bc 48f6 853d b4b9 053e
00000120: adf6 9a3c 32d2 b13c 24ee ad3d 8de8 1dbe
00000130: dbb3 0fbe 7eb7 873c dc59 943d a7f8 0e3e
00000140: ba35 debd 604a abbc 4b29 f73d c76a bdbd
00000150: d2f4 0bbc d362 18be a78f aabd 3769 ccbd
00000160: 4b1a 623a 906b 1c3e 87ae d1bd f23a c03d
00000170: e095 a4bd 87f5 3ebd 48f4 bdbd 7561 62be
00000180: 306f 3a3d b49f 233e f395 45bd df89 25be
00000190: 1f16 133d 7b8f fbbd 44cd a7bd 0567 ce3d
000001a0: 8f00 37be 389b a03d 4e4d 68bd bc04 163d
000001b0: d7e2 15be fa9c 93bd 1480 03bd f854 30bd
000001c0: a907 03be ea3f 96bd e117 d2bc 44db a1bc
000001d0: 2485 f53c 920d 68bd b5e9 48be 087f a7bd
000001e0: b7c1 8abc cf31 39bd 2b45 24be 18b5 073e
000001f0: 1391 0cbd e24f 023d 7065 583d a7ea bbbd
00000200: e663 75bb 0a89 843e a073 b0bd 57c1 233e
00000210: 9d41 013d bdab cfbd 4471 92bd 84c3 e1bc
00000220: c1d9 df3c 5646 b93a 4776 293d 43f6 f53a
00000230: 0d6f 173c 17df b6bd 8d6b db3d f3ac c6bd
00000240: d973 dd3d fb46 86bd 834b a0bd 4375 62bb
00000250: 352b ecbc 306a 5dbd b5e9 7cbd 0b0b 9a3d
00000260: 7481 20bd 7fd9 09be 1aa5 1bbe 0ab6 76bd
00000270: cb8d e33d be8b 53bd 5ae2 f4bc b80d 96bc
00000280: 51b2 d0bd d10c 37bd 2ea1 debd 4c2e cc3d
00000290: cd7f be3d 0b11 eb3d f5f5 943d 0aa2 29bd
000002a0: 67ef c13d bbc9 9bbd 0a43 b93d ed9b 103e
000002b0: 6063 483d 3f2a 4f3d 63ce 533e c6bd 80bb
000002c0: fbb9 983c 2959 b43d 671a c4bd a4e0 b83d
000002d0: cb6d 9dbc 6f5d d73c 52fc 913c 689e 90bd
000002e0: 5be2 5fbc 60af cbbc 6a47 4f3d 15b0 aebd
000002f0: 4d78 c4bc a001 debc 8b39 833d 308e a1bc
00000300: 31fb eb3d 7c69 a63d abe3 f2bd e9ed 1ebe
00000310: 2ec0 afbd 61f8 d13d 68c1 5d3c 3302 febb
00000320: 7aa2 0dbe 47d6 42bd 67f9 5a3d 3dd0 933c
00000330: 9fb0 0cbe 9d3e f0bc 380a 4dbd 36e6 033e
00000340: 2af8 22be 53f1 fabc 5412 4d3d c036 d7bb
00000350: 3929 15bd c0f1 d53c 4604 293d aeb8 9ebd
00000360: b993 c1bd 2036 ab3d c5f2 b4bd 039d b2bd
00000370: 2dff f83c d515 5cbc 192f dabc a922 b9bc
00000380: bd3f d8bc 2b3b dd3d 42a5 953d fe8f a0bd
00000390: a9fd 54bd 7621 00be b1a1 02be 6fd1 4abd
000003a0: 5bc3 c53c b559 963b a4e0 68bc 2d6d f1bd
000003b0: bff5 a73c 12e7 84bd d7e2 08be 3f0a b6bd
000003c0: dde8 4dbd 44d0 ecbd 9fb8 4c3e e95c 963c
000003d0: 205e 7a3d 447c acbd 3951 d43a a14d 1bbe
000003e0: 93fd 2d3c a89e 75bd b647 d9bd c80c 233d
000003f0: 3d71 52bc 1448 a33c 5b97 983d f05c 753c

gc_mlp.2.bias f4 [64]
-0.018994061 0.010107402 -0.0068737627 0.0010010251 -0.10489482 -0.04795925 -0.052976172 -0.07186616
-0.29884642 0.012777286 -0.27592322 -0.20510255 -0.042146765 -0.19272171 -0.06732755 -0.049129415
-0.107897304 -0.28050333 0.01928818 0.010702873 -0.031290557 -0.051405836 -0.07389418 0.015515987
-0.26539585 -0.12821795 0.009651346 0.020377541 -0.13765381 -0.24986666 -0.06297948 0.0040343846
-0.028429477 -0.04654305 -0.22291048 -0.05483913 -0.06777602 0.024513042 -0.0723435 -0.2693403
-0.055822294 -0.031654615 -0.03155685 -0.07038939 0.015575442 -0.07261285 -0.102290824 0.013644918
0.018548332 0.0027253628 -0.047619406 -0.04166931 -0.112528116 0.006915734 0.0085721845 0.0015608948
0.027462445 -0.014494704 -0.15834202 0.002564802 -0.09081509 -0.049048644 -0.036235146 -0.0397663
00000000: 6f99 9bbc 8499 253c 4d3d e1bb d434 833a
00000010: 18d3 d6bd eb70 44bd 8bfd 58bd 912e 93bd
00000020: 6602 99be d257 513c cf45 8dbe 6706 52be
00000030: 16a2 2cbd d758 45be 07e3 89bd ed3b 49bd
00000040: 43f9 dcbd 229e 8fbe 3f02 9e3c 1a5b 2f3c
00000050: 872a 00bd ed8e 52bd d555 97bd c436 7e3c
00000060: f7e1 87be 914b 03be ae20 1e3c cdee a63c
00000070: 1ff5 0cbe 0cdd 7fbe 63fb 80bd df32 843b
00000080: efe4 e8bc eda3 3ebd a542 64be ff9e 60bd
00000090: 27ce 8abd 93cf c83c d428 94bd f9e6 89be
000000a0: eba5 64bd 45a8 01bd c141 01bd 5028 90bd
000000b0: 2430 7f3c 0cb6 94bd da7d d1bd ef8e 5f3c
000000c0: acf2 973c 009c 323b 910c 43bd 70ad 2abd
000000d0: 2475 e6bd 629d e23b 5972 0c3c f096 cc3a
000000e0: ecf8 e03c 327b 6dbc 6924 22be 3d16 283b
000000f0: 43fd b9bd 3be7 48bd 4e6b 14bd fde1 22bd

bi_mlp.0.weight f4 [64, 64]
-0.16399066 -0.48412248 -0.5073505 -0.48634148 -0.6090364 -0.23225102 -0.26065412 -0.2436209
-0.4375873 -0.7736456 -0.21947569 -0.13505475 -0.19363724 -0.3051495 0.12619549 -0.52193815
-0.40752798 -0.10373102 -0.35733917 -0.39565355 -0.113014266 -0.71009594 -0.16298796 -0.32670116
-0.68164253 -0.043965347 -0.553628 -0.52411216 -0.22311582 -0.46692914 0.045218885 -0.23294185
-0.26270607 -0.29596674 -0.021028226 0.07498582 -0.35939372 -0.27459002 -0.37637138 -0.39045805
-0.21064903 -0.12905908 -0.22718441 -0.42663833 -0.33129972 -0.714931 -0.36378267 -0.353292
-0.4697523 -0.2351595 -0.4978005 -0.19250181 -0.38956502 -0.35727903 -0.29541996 -0.4957735
-0.35249093 -0.32306358 -0.7003152 -0.03796051 -0.35662645 -0.07708032 -0.512504 -0.36300716
-0.28219846 -0.26802132 -0.4165888 -0.54820204 -0.3432367 -0.31672165 -0.11412135 -0.07831043
-0.35592774 -0.4201334 -0.22343734 -0.35691032 -0.1373386 -0.14378987 0.10464066 -0.38968727
-0.34909758 -0.2695595 -0.30796343 -0.27617475 -0.15570813 -0.30848485 -0.09797313 -0.15052061
-0.35703942 -0.20329988 -0.35812694 -0.44493288 -0.264965 -0.43784437 -0.094571896 -0.42179677
-0.37772486 -0.05611953 -0.057254672 0.16908966 -0.26011378 -0.36263037 -0.34091267 -0.43469897
-0.34755483 -0.25747576 -0.23087496 -0.3865367 -0.44203094 -0.57397795 -0.23108564 -0.23080772
-0.32214364 -0.43042806 -0.3225754 -0.4925774 -0.32208464 -0.32893726 -0.44667956 -0.47544658
-0.34982297 -0.4812892 -0.315759 -0.15774813 -0.38728216 0.017171385 -0.45373535 -0.21149713
-0.083899744 -0.6930919 -0.54514384 -0.6370766 -0.8256389 -0.2730021 -0.010218744 -0.16053711
-0.5288333 -1.030499 -0.48771527 -0.6004015 -0.48458752 -0.5471866 0.30961588 -0.9048259
-0.5061218 -0.50394183 -0.87717897 -0.6125697 -0.28868687 -0.8334507 -0.33038163 -0.29474834
-0.59056103 -0.33007196 -0.37961194 -0.49366918 -0.3094234 -0.8369011 -0.24906676 -0.6006944
-0.8464054 -0.25687268 0.012089111 -0.3559998 -0.39041445 -0.50208193 -0.86972433 -0.30724806
-0.34557146 -0.5474485 -0.65535736 -0.8238415 -0.36450103 -1.0730258 -0.6163494 -0.69623214
-0.88397056 -0.39009398 -0.79930496 -0.6711883 -0.53040403 -0.469149 -0.6966902 -0.33851892
-0.49912012 -0.64435303 -0.74207467 -0.47633404 -0.7626708 -0.06783946 -0.71473396 -0.5857242
-0.73168594 -0.9579387 -0.7126748 -1.0407156 -1.01134 -0.8179907 -0.64098597 -0.23576315
-0.809596 -1.1241235 -0.27499068 -0.8367135 -0.9751795 -0.7698362 -0.38697898 -0.99907273
-0.51268166 -1.1465265 -0.97858626 -0.87747675 -0.4903595 -1.2369204 -0.35923785 -0.42699417
-0.8199111 -0.29927278 -1.0343026 -1.1896523 -0.6714731 -0.90419674 -0.5655239 -0.91705036
-0.8975803 -0.7170649 -0.45926467 -0.19835125 -0.7538609 -0.918695 -0.45024678 -1.3315427
-0.93744814 -0.32460433 -0.576153 -1.1680235 -0.58476526 -1.1110898 -0.1621699 -1.162043
-0.9340976 -1.1169248 -1.1058617 -1.3805524 -0.91835755 -0.9339653 -0.78479105 -1.0919718
-0.6738004 -1.0411613 -0.78446233 -0.82222384 -1.3156319 -0.35580146 -1.0659109 -0.560309
00000000: 2bed 27be e7de f7be b9e1 01bf c001 f9be
00000010: cfe9 1bbf 36d3 6dbe 7574 85be c277 79be
00000020: 710b e0be a30d 46bf 3cbe 60be cb4b 0abe
00000030: d748 46be 8e3c 9cbe 6439 013e bd9d 05bf
00000040: 82a7 d0be ee70 d4bd 29f5 b6be 1a93 cabe
00000050: 0674 e7bd d9c8 35bf 51e6 26be 6045 a7be
00000060: 2080 2ebf 0215 34bd 91ba 0dbf 372c 06bf
00000070: 7978 64be 5611 efbe 7037 393d 4f88 6ebe
00000080: 6981 86be f488 97be 6343 acbc 2a92 993d
00000090: 7402 b8be 1097 8cbe c0b3 c0be 1eea c7be
000000a0: 61b4 57be 1028 04be 08a3 68be 5770 dabe
000000b0: 1ea0 a9be b805 37bf b941 babe b0e2 b4be
000000c0: 6083 f0be a7cd 70be b5df febe 321f 45be
000000d0: 1175 c7be 47ed b6be 4941 97be 06d6 fdbe
000000e0: b179 b4be 9768 a5be db47 33bf 7b7c 1bbd
000000f0: be97 b6be 49dc 9dbd 7633 03bf 13dc b9be
00000100: 517c 90be 173a 89be 214b d5be f856 0cbf
00000110: b9bc afbe 5729 a2be 74b8 e9bd 3861 a0bd
00000120: 293c b6be ba1b d7be c2cc 64be f3bc b6be
00000130: 7da2 0cbe a73d 13be d84d d63d 1785 c7be
00000140: ebbc b2be b403 8abe 62ad 9dbe c766 8dbe
00000150: f471 1fbe baf1 9dbe 23a6 c8bd 1322 1abe
00000160: dfcd b6be d82d 50be 6a5c b7be 3ece e3be
00000170: 7ea9 87be 232d e0be e9ae c1bd bff5 d7be
00000180: 2765 c1be 98dd 65bd e083 6abd d725 2d3e
00000190: a22d 85be b0aa b9be 1b8c aebe dd90 debe
000001a0: b5f2 b1be ddd3 83be 7c6a 6cbe 23e8 c5be
000001b0: e151 e2be 38f0 12bf b7a1 6cbe dc58 6cbe
000001c0: 03f0 a4be 1161 dcbe 9a28 a5be 1b33 fcbe
000001d0: 47e8 a4be 776a a8be 2fb3 e4be bc6d f3be
000001e0: ff1b b3be 8a6b f6be 2aab a1be ba88 21be
000001f0: d949 c6be 01ab 8c3c 0050 e8be b492 58be
00000200: a1d3 abbd 796e 31bf 8c8e 0bbf 7417 23bf
00000210: 125d 53bf eec6 8bbe 856c 27bc d763 24be
00000220: 9f61 07bf 64e7 83bf d1b5 f9be eab3 19bf
00000230: db1b f8be 6c14 0cbf f985 9e3e aca2 67bf
00000240: 3391 01bf 5502 01bf cd8e 60bf 5ed1 1cbf
00000250: c4ce 93be 065d 55bf c827 a9be 41e9 96be
00000260: 022f 17bf 31ff a8be 7f5c c2be 35c2 fcbe
00000270: be6c 9ebe 273f 56bf 5b0b 7fbe 1cc7 19bf
00000280: 06ae 58bf d184 83be 6811 463c 9b45 b6be
00000290: 67e4 c7be 7188 00bf 41a6 5ebf 9e4f 9dbe
000002a0: beee b0be 9625 0cbf 80c5 27bf 47e7 52bf
000002b0: e19f babe e958 89bf 13c9 1dbf 453c 32bf
000002c0: e54b 62bf 66ba c7be 409f 4cbf ffd2 2bbf
000002d0: 8fc8 07bf 4c34 f0be 4a5a 32bf 5a52 adbe
000002e0: ac8c ffbe 52f4 24bf 9bf8 3dbf 0ee2 f3be
000002f0: 653e 43bf 6aef 8abd cef8 36bf 05f2 15bf
00000300: c54f 3bbf 783b 75bf db71 36bf 2b36 85bf
00000310: 9773 81bf d767 51bf a817 24bf e56b 71be
00000320: af41 4fbf 47e3 8fbf 94cb 8cbe db32 56bf
00000330: 5da5 79bf fc13 45bf 1c22 c6be 3bc3 7fbf
00000340: 1b3f 03bf 61c1 92bf a184 7abf 51a2 60bf
00000350: 6610 fbbe 6853 9ebf 06ee b7be fb9e dabe
00000360: b2e5 51bf 483a 99be 0764 84bf 8746 98bf
00000370: a9e5 2bbf 7079 67bf 2dc6 10bf d0c3 6abf
00000380: d3c7 65bf 9191 37bf bd24 ebbe 971c 4bbe
00000390: 07fd 40bf 982f 6bbf bf86 e6be fe6f aabf
000003a0: 9afc 6fbf 8a32 a6be c37e 13bf cb81 95bf
000003b0: 2db3 15bf 3138 8ebf de0f 26be d3bd 94bf
000003c0: 0521 6fbf 64f7 8ebf e08c 8dbf f1b5 b0bf
000003d0: 7b19 6bbf 5a18 6fbf 11e8 48bf bbc5 8bbf
000003e0: 2f7e 2cbf c644 85bf 86d2 48bf 437d 52bf
000003f0: a066 a8bf 9c2b b6be c56f 88bf 6970 0fbf

bi_mlp.0.bias f4 [64]
-0.033301976 -0.022440271 -0.57940114 -1.0350443 -0.080690555 -0.047157507 -0.045116264 -0.8786488
-0.12384906 0.0030372895 -0.16612905 -0.027773663 -0.089705944 -0.41887516 -0.02962599 -0.04435013
-0.398379 0.00022617224 -0.047438726 -0.017751377 0.0011354553 0.0030877315 -0.06570551 -0.078429446
0.005222604 -0.7743822 -1.1292446 -0.103006706 -0.05865342 -0.0014652254 -0.053981885 -0.02805955
-0.0118340105 -0.042318176 -0.77479553 -1.1024784 -0.09891515 -0.41271827 -0.0586756 -0.051506825
-0.9539112 -0.08115278 -0.06629518 -0.018900901 -0.008896527 -0.13713166 -0.40173697 0.0069429674
-0.053871546 -1.1297704 -0.02702095 -0.10649363 -0.040113218 -0.0976565 -0.004508675 -0.68704796
-0.035411943 0.0062644193 -0.11466876 -0.039043285 -0.23954566 -0.08598566 -0.46624056 -0.14235635
00000000: a767 08bd a9d4 b7bc a253 14bf 557c 84bf
00000010: 1741 a5bd 3b28 41bd d5cb 38bd 21ef 60bf
00000020: 93a4 fdbd 430d 473b bc1d 2abe 9885 e3bc
00000030: c0b7 b7bd ce76 d6be 34b2 f2bc 7ba8 35bd
00000040: 55f8 cbbe a628 6d39 1c4f 42bd 566b 91bc
00000050: 8fd3 943a 8a5b 4a3b 9c90 86bd 9e9f a0bd
00000060: 6122 ab3b e93d 46bf 168b 90bf 2ef5 d2bd
00000070: 923e 70bd ce0c c0ba 1c1c 5dbd 24dd e5bc
00000080: 70e3 41bc d355 2dbd 0059 46bf 031e 8dbf
00000090: 0794 cabd cf4f d3be d355 70bd d2f8 52bd
000000a0: 8633 74bf 6e33 a6bd c4c5 87bd 10d6 9abc
000000b0: bdc2 11bc 3e6c 0cbe 78b0 cdbe d581 e33b
000000c0: 69a8 5cbd 519c 90bf 0a5b ddbc 5519 dabd
000000d0: c24d 24bd 2200 c8bd 82bd 93bb 60e2 2fbf
000000e0: 1d0c 11bd c245 cd3b 74d7 eabd daeb 1fbd
000000f0: 754b 75be 4019 b0bd 15b7 eebe ddc5 11be

bi_mlp.1.weight f4 [64, 64]
-0.15748604 -0.036962476 -0.28220397 -0.1257895 -0.1770233 0.046663485 0.15047877 0.03494353
-0.024644915 -0.17174736 -0.14904231 0.004609097 0.0362288 -0.012291253 -0.21916778 0.0019566966
-0.007346995 0.017789956 -0.20967427 0.01205125 -0.19989069 -0.1579142 -0.2163256 0.06747107
-0.07832417 -0.015013698 -0.3099141 0.14131522 -0.2449645 -0.10950872 0.012961055 -0.09693401
-0.09547415 0.042397782 -0.036253065 -0.41912028 -0.08575599 -0.03504598 -0.1978805 0.11818495
-0.075554736 -0.09007188 0.16949435 0.1138636 -0.047649607 -0.02243939 -0.114889055 -0.01101699
-0.2153001 -0.11380434 0.07598557 0.08435486 -0.067775786 -0.15735549 -0.07081474 -0.09559101
-0.06295138 0.064225316 0.09681293 -0.06174347 0.005548878 -0.2699977 0.060049474 -0.0034549744
-0.21951309 -0.22057085 0.052878324 -0.37970477 -0.28348598 -0.28759617 0.0010182149 -0.22423053
0.15282238 -0.17847747 -0.23652309 -0.18926206 -0.23216143 -0.22380859 0.042947847 -0.22596763
-0.38381937 -0.12715068 -0.34303442 -0.0718678 -0.08408339 -0.1722065 0.15233526 0.32909122
-0.06195149 -0.2805637 -0.1394166 0.10219118 -0.09399638 -0.060814768 -0.38991225 -0.44070947
0.033064466 -0.10762496 -0.354361 -0.5759525 -0.26061022 -0.21645242 0.12429829 0.17675132
0.22642793 0.16886294 -0.58241045 -0.09349335 0.013341064 0.014351631 -0.05620231 -0.053990383
0.008486792 -0.30937383 0.046547584 -0.024361389 -0.14688942 0.1882013 0.0037202777 0.1735943
-0.2049648 -0.06392179 0.070193216 -0.17458501 -0.09398982 0.03057494 -0.21411677 -0.35600445
-0.3336052 -0.36277324 -0.33949766 -0.7048678 -0.45862812 0.22315994 -0.08357866 -0.4830536
0.32026935 -0.12204244 -0.6539787 -0.3405009 0.12708086 -0.57453907 -0.50104296 -0.7609762
-0.72423565 -0.18239492 -0.52532744 -0.32594347 -0.21765868 -0.27418923 -0.77470964 -0.3154689
-0.1541878 -0.5583837 -0.70612437 0.30642354 -0.70196635 -0.07096162 -0.8366985 -0.8356803
-0.1913644 -0.58096504 -0.564572 -0.9620789 0.31714296 -0.39284834 -1.0922179 -0.2469935
-0.80896395 -0.6902991 -0.83432245 0.1464031 -0.19735682 0.2553711 -0.7615704 -0.2261503
-0.61216885 -0.7296985 -0.37175936 0.28651157 -0.4259771 -0.70826715 -0.22094107 -0.5959149
-0.3166484 -0.08914195 0.29508945 -0.8510025 -0.1877289 -0.6733622 -0.41135925 0.29014966
0.090934634 -0.16251709 -0.021303184 -0.073327176 -0.12036677 0.1797092 0.043141 -0.08946165
0.1718873 0.061625414 0.10397834 -0.23399019 0.0048699714 -0.02730883 0.0863412 0.079055116
0.10993676 -0.021518884 -0.09879503 0.021338508 0.08841334 -0.059475575 -0.19312787 -0.0810801
0.082515255 0.1425523 -0.11357685 0.10489414 0.050650895 0.024038905 -0.017902862 0.066017605
-0.0008181901 -0.036584016 0.02735589 0.13425419 0.28980476 0.08169475 -0.1967857 0.154114
-0.22375874 -0.05111064 0.038689326 0.045360923 -0.08337309 -0.124908425 -0.026484527 0.10091349
-0.24536386 0.121050715 -0.0821456 0.14490664 0.0867683 -0.17561463 0.06323757 0.04379359
-0.052655336 0.123549 0.22121444 0.1329591 0.08279514 -0.18406935 0.0021808352 0.009345303
00000000: 0544 21be f765 17bd 0a7d 90be f6ce 00be
00000010: 9945 35be 3622 3f3d 1b17 1a3e f220 0f3d
00000020: 22e4 c9bc 8ade 2fbe 8c9e 18be e807 973b
00000030: a664 143d 4061 49bc 856d 60be ec3b 003b
00000040: 10bf f0bb 3ebc 913c dab4 56be 9b72 453c
00000050: 25b0 4cbe 43b4 21be 7584 5dbe 462e 8a3d
00000060: 6c68 a0bd 03fc 75bc 10ad 9ebe f0b4 103e
00000070: f9d7 7abe 1c46 e0bd 9b5a 543c 5785 c6bd
00000080: f387 c3bd 4ca9 2d3d 187e 14bd ef96 d6be
00000090: d6a0 afbd 608c 0fbd 30a1 4abe f30a f23d
000000a0: 71bc 9abd 9b77 b8bd ed8f 2d3e 5231 e93d
000000b0: 3c2c 43bd d0d2 b7bc f44a ebbd 9b80 34bc
000000c0: a177 5cbe 4012 e9bd 539e 9b3d 3ec2 ac3d
000000d0: 08ce 8abd cc21 21be 5207 91bd 38c5 c3bd
000000e0: a7ec 80bd 9088 833d dc45 c63d b9e6 7cbd
000000f0: 5dd3 b53b 233d 8abe 70f6 753d da6c 62bb
00000100: 0ac8 60be 53dd 61be f196 583d aa68 c2be
00000110: 1325 91be ce3f 93be 9f75 853a b09c 65be
00000120: 787d 1c3e ccc2 36be 1c33 72be eacd 41be
00000130: babb 6dbe 142e 65be 15ea 2f3d 0f64 67be
00000140: f983 c4be ca33 02be 35a2 afbe 6d2f 93bd
00000150: ea33 acbd e756 30be c6fd 1b3e a57e a83e
00000160: d8c0 7dbd 0ca6 8fbe 3ac3 0ebe 9c49 d13d
00000170: 2d81 c0bd e818 79bd 94a2 c7be aca4 e1be
00000180: 9b6e 073d 7a6a dcbd ce6e b5be 9f71 13bf
00000190: b46e 85be b4a5 5dbe 1a90 fe3d 4cfe 343e
000001a0: b9dc 673e 68ea 2c3e da18 15bf 7179 bfbd
000001b0: 7a94 5a3c 1a23 6b3c 6534 66bd 0525 5dbd
000001c0: 300c 0b3c 3f66 9ebe aea8 3e3d 8991 c7bc
000001d0: 2e6a 16be d7b7 403e e7cf 733b b4c2 313e
000001e0: 4be2 51be 6de9 82bd 76c1 8f3d 6ac6 32be
000001f0: bc7d c0bd 4c78 fa3c 6d41 5bbe 3746 b6be
00000200: 4dce aabe 6abd b9be a3d2 adbe 3772 34bf
00000210: 4ed1 eabe 0a84 643e 4a2b abbd cd52 f7be
00000220: 58fa a33e 63f1 f9bd 266b 27bf 2256 aebe
00000230: 7c21 023e fe14 13bf 5a44 00bf 56cf 42bf
00000240: 8267 39bf bcc5 3abe dc7b 06bf 10e2 a6be
00000250: ebe1 5ebe 8862 8cbe 5f53 46bf 2485 a1be
00000260: 68e3 1dbe 3cf2 0ebf 91c4 34bf 8ce3 9c3e
00000270: 11b4 33bf 5354 91bd df31 56bf 25ef 55bf
00000280: 07f5 43be 20ba 14bf ca87 10bf ce4a 76bf
00000290: 9060 a23e 6b23 c9be cccd 8bbf ddeb 7cbe
000002a0: 4318 4fbf 71b7 30bf 2896 55bf b2ea 153e
000002b0: e817 4abe 00c0 823e 47f6 42bf f293 67be
000002c0: 19b7 1cbf 85cd 3abf 3e57 bebe a5b1 923e
000002d0: ac19 dabe ff50 35bf 603e 62be e18d 18bf
000002e0: bd1f a2be 0e90 b6bd f715 973e 4ddb 59bf
000002f0: 013c 40be 7761 2cbf ae9d d2be 7f8e 943e
00000300: f03b ba3d e16a 26be 0484 aebc 8f2c 96bd
00000310: da82 f6bd b005 383e 9eb4 303d ab37 b7bd
00000320: 3903 303e ee6a 7c3d 99f2 d43d 209b 6fbe
00000330: 4894 9f3b c4b6 dfbc a8d3 b03d a6e7 a13d
00000340: 8626 e13d 5f48 b0bc 0c55 cabd 18ce ae3c
00000350: 0e12 b53d a99c 73bd 50c3 45be 530d a6bd
00000360: c2fd a83d 3bf9 113e fb9a e8bd bdd2 d63d
00000370: 5077 4f3d 3ded c43c 06a9 92bc 3d34 873d
00000380: cf7b 56ba 1fd9 15bd 7619 e03c ee79 093e
00000390: 4a61 943e 944f a73d 3182 49be 0fd0 1d3e
000003a0: 0321 65be 6459 51bd b378 1e3d 60cc 393d
000003b0: 83bf aabd fdcf ffbd 14f6 d8bc bbab ce3d
000003c0: aa40 7bbe 70e9 f73d f43b a8bd 6862 143e
000003d0: 94b3 b13d 52d4 33be b382 813d e860 333d
000003e0: 1fad 57bd 4207 fd3d 0a86 623e 6e26 083e
000003f0: 8090 a93d ad7c 3cbe 58ec 0e3b 0b1d 193c
