pretrain_models/ml-100k-bpr-1-64.pt (torch, 673227 bytes, 2 tensors)

embedding_user.weight f4 [943, 64]
000000 63 71 53 3f a1 62 9b 3f 87 d3 a4 3e 7c 96 ab 3e
       0.8259489 1.2139474 0.32192633 0.33513248
000010 98 a8 d1 3d c1 c9 bb bd a9 ef 0c bf 43 a8 02 bf
       0.10237235 -0.09169341 -0.5505319 -0.51037997
000020 f8 e8 9d be 94 86 34 be 0c aa 35 bf ee 4a 39 3f
       -0.30841804 -0.17629462 -0.70962596 0.7237996
000030 df b7 ca 3e 54 6b 2b be cd e8 ef 3e 1c 20 47 be
       0.39593408 -0.16740161 0.468573 -0.19445843
000040 30 ab 87 be 86 b4 0b 3e 47 a6 ba 3e 07 ec 8a be
       -0.26497793 0.13643083 0.36454985 -0.271332
000050 71 f8 3f 3f d2 37 0f bf a0 7b e6 3d ec fa dd 3e
       0.74988467 -0.5594455 0.11254048 0.433555
000060 6c 40 b0 3f 1d c4 dd 3e 96 cd 1b bf d6 25 11 bf
       1.376966 0.43313685 -0.60860574 -0.5669836
000070 c1 12 87 3f b6 d7 a1 bf 5b ff 34 3d 9f 5b 21 3e
       1.0552598 -1.2643955 0.04418884 0.15757607
000080 29 d8 9f bd ad 2b 0e 3f a9 bb cd be 6e 31 73 be
       -0.07804901 0.55535394 -0.40182236 -0.23749325
000090 c3 c3 86 bf d4 51 2b 3e cf ca 67 3e 1a b6 68 3f
       -1.0528492 0.16730434 0.22635959 0.90902865
0000a0 46 67 54 3f ac b9 24 3e e7 da 3d bf fe 15 ba 3e
       0.8297008 0.16086453 -0.74162143 0.36344904
0000b0 51 5a 37 3f af 29 37 3d 96 ad a9 be 8c 2f 56 3f
       0.71622187 0.044717487 -0.33140248 0.836663
0000c0 f8 99 8c 3e c3 9f 9d 3f 56 c1 dd be ef 27 07 be
       0.2746122 1.231438 -0.43311566 -0.13198827
0000d0 d5 03 55 be 21 4a 1a bf 66 31 17 3f ea 23 4b 3e
       -0.20802243 -0.6026936 0.5905975 0.19837919
0000e0 d5 99 42 3f bd 6c cf be 4e e5 69 bf 47 8c fa 3d
       0.7601598 -0.40512648 -0.91365516 0.12233787
0000f0 22 0c b6 be 4c 2c 79 bf e6 de 56 3f 63 bf 61 bf
       -0.35556132 -0.97333217 0.83933866 -0.8818266
000100 57 f3 df bd 47 e6 ba ba 2b 8b d8 be 06 7f 8a 3d
       -0.10935085 -0.0014259302 -0.42293677 0.06762509
000110 c7 e9 b9 3e 5d 3c fd 3e cb ba 9f 3d d5 44 0c 3f
       0.3631117 0.49460116 0.077993 0.5479253
000120 d3 5c eb 3e 59 df 68 be ae af c7 bc 0f ca bf be
       0.45969257 -0.2274145 -0.024375763 -0.37458846
000130 3e 6a db 3e 7b 3e 11 bf 90 d8 90 bf 3f 1a 3b 3f
       0.42854494 -0.5673596 -1.131609 0.73086923
000140 91 9c 9a be 3a 02 02 3f a0 f7 53 3e 43 3e a7 be
       -0.30197576 0.5078465 0.2069993 -0.3266469
000150 8d b3 49 3e 34 5f b0 be eb 8f f4 3d 96 e6 46 3e
       0.196974 -0.34447634 0.11941513 0.19423899
000160 1e 62 de be ae 89 43 be b2 fb f4 be a4 76 24 bf
       -0.43434232 -0.1909549 -0.47848278 -0.6424353
000170 8a 2e a9 be 9e c7 32 3f 74 e0 14 bf 5e ea f7 be
       -0.3304332 0.6983584 -0.5815499 -0.48420995
000180 20 13 89 be 60 d9 cf 3e 1b ef e3 be a9 47 48 3f
       -0.26772404 0.4059553 -0.4451836 0.78234345
000190 af 05 49 3f 37 5c e1 3e da f4 47 3f 8f 91 2a 3f
       0.785243 0.44015667 0.7810799 0.66628355
0001a0 83 14 46 be 79 9e 88 3e 5d 1a 12 3f 79 c5 11 3f
       -0.19343762 0.26683405 0.5707148 0.56941944
0001b0 f1 1e 79 be 51 ec d0 3d e7 ca 4b bf 50 b8 35 3d
       -0.2432821 0.10201324 -0.7960648 0.044365227
0001c0 4a ca b7 3e a0 43 74 3f be 9a 21 3f cb 4b df be
       0.35896522 0.9541569 0.6312674 -0.43612513
0001d0 50 90 b2 3e f0 66 ee be d5 a8 f7 3b 0b 5b db 3e
       0.34875727 -0.4656291 0.007557968 0.42842898
0001e0 04 9f d2 3e e6 d2 1b 3e 0b 0c 7a be f1 4c 1f be
       0.41136944 0.1521717 -0.24418657 -0.15556695
0001f0 9b dd 2e 3e 8f 0c ae bd a2 22 31 3f 51 d2 31 3e
       0.17076723 -0.08498489 0.6919347 0.17365386
000200 cd 2f 4b 3f df b3 12 bf 83 1a 3d bb bc f9 aa be
       0.79369813 -0.5730571 -0.0028854914 -0.33393657
000210 d7 06 7f be 24 8c 34 bf e9 df e3 3e 89 f8 2a 3f
       -0.24904953 -0.7052634 0.44506767 0.66785485
000220 36 73 29 3e 3e 07 3e 3e 7c 6f ef 3d 51 6c 69 bf
       0.16547856 0.1855745 0.11691186 -0.911809
000230 ea 3e 3d 3f 8a 97 17 3f 42 8b e6 be 2b 06 65 bd
       0.73924124 0.59215605 -0.4502812 -0.055914085
000240 a0 91 7d 3e b8 35 27 be b7 51 a6 3d 74 0a 35 bf
       0.24762583 -0.16329086 0.081210546 -0.70719075
000250 d3 56 97 bd cd 0d 00 bf 3b 33 b4 3b 96 6e 26 3f
       -0.07389607 -0.5002106 0.005499271 0.6501249
000260 db 3a 5c 3e 17 79 62 3c 57 cc 10 3d c2 63 63 3d
       0.21506827 0.013822815 0.035351124 0.05551506
000270 9f ec 3b bf 80 59 f8 3e 38 e4 02 be 21 cf fb be
       -0.7340793 0.48505783 -0.12782371 -0.49181464
000280 3a bd a2 3d 0e 41 e5 3e a1 18 a6 3d 48 25 04 be
       0.07946248 0.44776195 0.08110166 -0.12904847
000290 74 5c 3b 3f 9d 56 94 3e d4 c7 86 bf 38 8e ec 3e
       0.7318795 0.2897233 -1.0529733 0.46202254
0002a0 10 2c cf 3d af 89 28 3f ed f7 af bb 58 54 03 3f
       0.10115826 0.6583509 -0.005370131 0.51300573
0002b0 9e 22 e7 3d 49 26 17 3e 8d af 80 be 3c 5c 26 bf
       0.112858996 0.14760698 -0.25133935 -0.6498449
0002c0 6d 01 90 be 53 8d a2 3e a7 ba 5a 3f 7d fd 7b 3e
       -0.28126088 0.31748447 0.8544106 0.24608417
0002d0 b8 b5 25 3e af c5 8c be e6 9c 81 be 17 bd 14 3f
       0.16182601 -0.2749457 -0.25315017 0.5810103
0002e0 82 94 29 bc 11 84 73 be 38 a8 d7 bd 09 e3 a0 3e
       -0.010350348 -0.23780848 -0.10530132 0.31423214
0002f0 e8 70 b4 3e 45 34 fc bd 0d 75 9c 3e da 45 0f bf
       0.3524239 -0.12314657 0.30558053 -0.5596596
000300 1c 43 d2 3e 40 13 4a bd 88 d6 6b be 77 76 a0 be
       0.41066825 -0.049334764 -0.23031056 -0.31340382
000310 c3 8b 3c bd ef 54 2b bf 81 07 67 3e c0 04 0f 3f
       -0.046031725 -0.66926473 0.22561456 0.5586662
000320 00 0c 9a be cb 8a 06 bf f0 7e 20 bf 5e 3b b9 bd
       -0.3008728 -0.5255553 -0.6269369 -0.090445265
000330 e6 a7 82 3e 3d d6 f9 be ae 56 5f bf 36 1d 43 3f
       0.2551872 -0.48796263 -0.8724164 0.7621645
000340 34 bd 0d 3f 24 c5 a0 3d 9d 75 83 3d 62 2c ae 3d
       0.55366826 0.078501016 0.06418917 0.08504559
000350 72 41 9f 3e e2 c1 3a 3e 34 2e 16 3f cc b0 2c 3f
       0.31104618 0.18238023 0.5866425 0.6745727
000360 0b 84 96 be b4 22 4e 3c 76 cc 89 be 51 de 19 3f
       -0.29397616 0.012581516 -0.26913804 0.6010485
000370 a8 e2 1f 3e 3e e1 bb 3e 1e 1d 84 be 48 a1 c9 bd
       0.15613806 0.36695284 -0.25803465 -0.09845215
000380 42 92 01 3f 7b 9e 93 3e ce c7 2f bf cc 4d 8e 3e
       0.50613797 0.28831849 -0.6866425 0.2779373
000390 fa 8d 4b 3d e9 10 0c be cd e9 7d bf e9 54 dd be
       0.049695946 -0.13678326 -0.99184877 -0.43228844
0003a0 8e 7b f0 3d c6 8a c2 3d d6 ca c3 bd eb 5c e4 3e
       0.11742316 0.09499125 -0.09560172 0.4460214
0003b0 3e c2 ca 3e b5 84 7e 3e cd 88 88 bc 89 06 31 be
       0.3960132 0.24855311 -0.016666794 -0.17287649
0003c0 e1 1c e8 3e e0 1f 88 3d a8 d9 c3 bd 73 ac 2b bd
       0.45334533 0.06646705 -0.09562999 -0.041912507
0003d0 ff bf 0c 3e a0 be 59 3d 92 bf 29 be 78 a9 2a be
       0.13745116 0.05316031 -0.16576985 -0.1666621
0003e0 6e b0 85 3e 76 35 a7 bd 99 22 b9 bd 3d 8d c1 bd
       0.26111168 -0.08164494 -0.09039802 -0.09450767
0003f0 f2 1d 47 3f 4f 48 4e bf 42 5c 16 3f 47 29 34 bf
       0.7778007 -0.80579084 0.58734524 -0.70375484

embedding_item.weight f4 [1682, 64]
000000 d9 65 89 bd e2 17 04 3f 3f 3a 92 3e 52 22 4a 3e
       -0.06708879 0.5159894 0.28560063 0.19739655
000010 db 8b 89 bc 3f 16 7f 3f 55 01 62 bf ff 5e ba 3e
       -0.016790321 0.9964332 -0.8828328 0.364006
000020 c0 dd 0b bf 2b fc 06 3e 8e c5 1f bf ab 5c e8 3e
       -0.5463524 0.13182132 -0.6241082 0.453832
000030 75 25 55 3e 7e 75 5e bf 72 c2 00 bf cb f5 dc 3e
       0.2081507 -0.8689803 -0.502967 0.43156275
000040 27 1b 20 be 3c 30 f3 3e d9 4e 3d be 47 dd dc 3e
       -0.15635358 0.47497737 -0.18487109 0.4313757
000050 f6 8a d3 3e 3b 58 16 bf 40 e3 46 3e ba 38 bb 3e
       0.41316956 -0.5872838 0.19422626 0.36566716
000060 68 0c 88 be 7f ad eb 3e 75 69 45 be b6 95 e9 be
       -0.26571965 0.46030805 -0.1927851 -0.45622033
000070 5a 74 2a 3e 90 6c 13 bf db 9b fa be c7 a9 d4 bd
       0.16645947 -0.5758753 -0.48947033 -0.10383945
000080 7f 19 f4 be 6e e4 0b 3f c8 52 ac be c4 6a 00 3f
       -0.47675702 0.5464543 -0.33656907 0.5016291
000090 08 6b 22 3f 98 73 0a be 60 2a 03 3f 4d 2d 05 3f
       0.63444567 -0.13520658 0.51236534 0.5202225
0000a0 49 12 9a 3e 0d bf ea 3e ba 4c 2d 3e 55 9d c6 3e
       0.30092075 0.45848885 0.169238 0.3879191
0000b0 ee 82 05 3f 79 4c 3b be 78 94 67 be b4 f9 7a be
       0.5215291 -0.18290891 -0.2261523 -0.24509317
0000c0 15 98 1a bf 6f 20 70 3f 65 f2 a6 3d 25 17 2b bf
       -0.6038831 0.9379949 0.08151702 -0.6683219
0000d0 99 d0 98 3d 98 ba 56 bd 31 dc 4f bf ba b0 22 be
       0.07461662 -0.052424043 -0.8119536 -0.15887728
0000e0 ed fb 09 3f ad ba 93 3e a3 25 0f bf 44 01 65 3e
       0.53900033 0.2885336 -0.55916804 0.22363764
0000f0 d3 59 5b be 97 58 06 bf 46 bd ee 3e 6c c1 e4 be
       -0.21420984 -0.5247893 0.4662878 -0.4467882
000100 9b 89 f7 3e 0e 57 8a 3e 1c 11 55 3e a9 ff 2d be
       0.48347172 0.27019542 0.20807308 -0.16992058
000110 f9 48 7a be 30 13 c3 bd 39 86 38 3e 8c 26 df 3e
       -0.244419 -0.09525144 0.18019952 0.43584096
000120 8f 8e 34 3e 60 17 d1 be d6 ed 7f be 72 86 86 3e
       0.17632507 -0.40838146 -0.24993071 0.2627445
000130 fb 13 d5 bc 32 6e 19 bf 50 fc 1a 3f a8 5d 73 be
       -0.026010504 -0.5993377 0.6054125 -0.23766196
000140 ca 6c 36 bf a8 00 70 be 09 7d cb be bb d9 a9 3e
       -0.7125975 -0.2343775 -0.39743832 0.33173928
000150 42 15 39 3e 1a b6 21 be 9c dc 52 3e da c1 82 bd
       0.18074515 -0.15792122 0.20591968 -0.063846305
000160 ec c4 82 bc d6 37 75 bd eb fa 06 3f 47 d3 18 bf
       -0.01596304 -0.059867702 0.5272662 -0.59697384
000170 d3 cd 3e 3f 90 0e 2b bf 1c d8 df be 1c dd 17 3e
       0.7453281 -0.66819096 -0.43719566 0.1483044
000180 7e 2c 0a 3f 49 27 25 3f be f6 33 be 92 fd 28 be
       0.5397414 0.6451307 -0.17574593 -0.1650298
000190 02 be 1f be 43 a5 c3 be ba 1b a5 3d 53 5e 7a be
       -0.15599826 -0.38212022 0.08061929 -0.24450044
0001a0 38 4f a2 3e bf 6f 2d 3f a3 78 b7 be 8a c7 67 3e
       0.31701064 0.67748636 -0.35834226 0.22634712
0001b0 55 7f 17 3e 91 cf e8 bd d3 6f b6 3e 08 70 a4 3e
       0.14794667 -0.11367715 0.3563219 0.32116723
0001c0 6d c2 a7 bd 12 27 82 bf fd 85 e8 be 30 a5 0a be
       -0.08191381 -1.0168173 -0.45414725 -0.13539577
0001d0 ce 63 84 be f3 a8 12 3e 0e 6d da 3e 20 b0 25 3e
       -0.25857395 0.14322262 0.42661327 0.16180468
0001e0 c1 0e 29 3f f9 1a aa 3d 45 98 18 bf ad 06 8c 3e
       0.6603814 0.08305926 -0.59607345 0.27348843
0001f0 61 ae b7 3d ec e9 4e bd 63 bc e7 3e 14 e6 d7 be
       0.08968807 -0.050516054 0.45260915 -0.42167723
000200 43 2e 8d 3e 7e 35 23 3e 46 28 c5 be a6 09 90 3e
       0.27574357 0.15938374 -0.3850729 0.2813236
000210 ca 48 db 3d 9d 19 5a 3f fb 73 a3 be d7 92 92 be
       0.10707243 0.8519533 -0.31924424 -0.28627655
000220 9b c9 b5 be ef 07 9f bd a4 61 39 be 96 fe b9 3e
       -0.35505375 -0.07765185 -0.18103653 0.36327046
000230 10 06 a7 3e 5e 7b 4d bd e3 6c be be 65 9f ec 3d
       0.32621813 -0.05016648 -0.3719245 0.115538396
000240 eb 95 5e bf b1 09 14 bf bc 77 b5 3e 1f 1e fb 3d
       -0.86947507 -0.5782729 0.35442913 0.122616045
000250 84 9c e4 3e 31 5c e6 3e 70 d6 1d bf 1e ac af 3e
       0.44650662 0.4499221 -0.6165533 0.34311002
000260 5d 79 1c 3d be 4b 41 be 79 6e 31 3e 6c e6 4e 3a
       0.03820168 -0.1887655 0.17327298 0.0007892612
000270 25 1e 0d 3f 17 0a 82 3e e2 19 ea 3c 58 fc 0e be
       0.5512412 0.25398323 0.028576795 -0.13963449
000280 30 c2 01 bf 8c 75 16 be 91 f6 71 3e 75 56 83 bd
       -0.5068693 -0.14693278 0.23629214 -0.06412975
000290 c0 e0 ad bd 1d 8c c3 3e 25 5a 0e 3f 8f 0b c0 3e
       -0.08490133 0.38192835 0.556063 0.37508819
0002a0 ab cc ad 3e 7d de 3e be 02 3e e3 bd ae 2e b8 bd
       0.33945212 -0.1863956 -0.110958114 -0.089932784
0002b0 84 67 c0 bd 6a 18 15 be 5e 11 5f bd 1a 24 59 bf
       -0.09394744 -0.14560094 -0.054459922 -0.8482071
0002c0 e9 be 5f bf 9e 43 c3 3e 19 51 98 3e c3 72 b4 be
       -0.8740068 0.38137525 0.29749373 -0.35243806
0002d0 60 7f 2a 3c 62 c2 eb 3c 97 78 bc bd 1e 07 1e 3e
       0.010406345 0.028779212 -0.09202688 0.15432402
0002e0 51 38 6e 3e 50 ee 94 3e b4 db e4 be cb 74 dd 3e
       0.2326367 0.29088068 -0.4469887 0.43253168
0002f0 5c f3 ff be 83 01 f1 be 3c 5e 1a 3f 43 eb 16 3f
       -0.49990356 -0.47071466 0.6030004 0.5895273
000300 76 17 50 3e 74 04 16 3f 71 bc bb bd a6 9d 96 be
       0.2032145 0.58600545 -0.09166802 -0.2941715
000310 f1 9a 99 3e f2 d1 12 3e 0d b4 e7 be b5 d1 c8 3e
       0.30001023 0.143379 -0.45254555 0.39222494
000320 1d 76 54 3e 8f 10 de be c2 64 9c bc ca 18 10 3f
       0.20748182 -0.43372008 -0.019091014 0.56287825
000330 b5 30 cc 3c a2 2b c8 3e 62 54 53 3e 5a 1a 45 be
       0.02492557 0.3909579 0.20637658 -0.19248334
000340 57 53 9b be 8e 7a dc 3e e6 c4 32 bf cd 5b 92 bc
       -0.3033702 0.43062252 -0.69831693 -0.01786604
000350 6c ed c0 3e 33 d0 b0 be ae 1d fc 3e 9e ae 77 bc
       0.3768114 -0.34533843 0.49241394 -0.015117316
000360 8f 87 c7 3e 9b 5a 4d 3e 2f 09 15 3f 3b 47 74 be
       0.3897061 0.20054094 0.5821714 -0.23855297
000370 6a c0 d4 3e 74 b8 a6 be f6 29 6a bd a6 be d1 be
       0.4155305 -0.32562602 -0.057168923 -0.40965766
000380 00 0d 27 bf f2 02 cb 3e e8 d6 cb bd 8c f7 12 3f
       -0.6525421 0.39650685 -0.099530995 0.57408977
000390 1e fa 51 be 05 f3 3c bf f3 47 11 3e 4f 86 2c be
       -0.20505568 -0.7380832 0.14187603 -0.1684811
0003a0 d4 7b 44 3e 61 78 f5 3e 8d a2 bf be 72 03 b0 be
       0.19187862 0.47943404 -0.37428704 -0.3437763
0003b0 6f 82 2e 3e d7 33 85 3d 7b 84 68 3d 9c 87 f1 be
       0.17041944 0.06504028 0.05676697 -0.47173774
0003c0 6c f0 c4 3e e2 68 95 3e 72 66 70 bf 8f f9 37 bf
       0.38464677 0.29181582 -0.9390632 -0.7186517
0003d0 81 c1 8f 3e c7 3c 4f 3e 32 c6 07 3f c8 6a b2 be
       0.2807732 0.20238028 0.530368 -0.34847093
0003e0 d9 78 68 3c 97 44 83 3e 96 b8 c7 be c2 7b 99 3e
       0.014188969 0.25638267 -0.39008015 0.29977232
0003f0 3c d3 fb bd cc c9 88 be 1a 00 04 3f 73 a2 b7 bd
       -0.12296149 -0.2671646 0.51562655 -0.089665316
