pretrain_models/ml-100k-ngcf-0-64.pt (torch, 776667 bytes, 14 tensors)

embedding_user.weight f4 [943, 64]
000000 b3 ad b6 3d 0d f9 62 bf 12 4b bf be 7d ba f7 3e
       0.08919849 -0.8866127 -0.37361962 0.48384467
000010 57 dd 65 3f e5 e8 6d be 25 2c 87 be 40 5d 7f 3e
       0.8979086 -0.23233373 -0.26400867 0.24937916
000020 0e ff 1e 3f b2 0f d6 bf 73 cd 1d 3e 0f 5d de 3e
       0.6210793 -1.672354 0.15410404 0.43430373
000030 f4 e7 59 bf 81 77 82 bd 9f bf ca bc 36 54 6c bf
       -0.8511956 -0.0637045 -0.024749575 -0.92315996
000040 ff b0 76 be 25 e9 ff be 8f fd 5f bf 0f 86 6c bf
       -0.24090956 -0.49982563 -0.87496275 -0.9239206
000050 dd 66 96 3e f9 d8 0c bf 69 9f 83 bf 33 57 f8 3e
       0.29375353 -0.55018574 -1.0283023 0.48504028
000060 21 7e ba bb f5 1a cb 3d 0c ea 45 be 47 fb 1f bf
       -0.0056913053 0.09917251 -0.19327563 -0.62492794
000070 49 ac c6 3f 8b ca 8e bd c1 28 97 be c1 78 73 be
       1.5521327 -0.06972226 -0.2952328 -0.23776533
000080 da 70 a3 3e d1 cd 69 bd 7a a9 30 3e 22 bf a0 bd
       0.31922036 -0.057081047 0.1725215 -0.07848956
000090 b6 81 6d bf 1d 57 bb bd 20 81 90 3f 23 42 74 be
       -0.9277605 -0.09147475 1.1289406 -0.23853354
0000a0 5f 3c 9f 3e 78 1b 4b 3f bd 44 92 be f2 c0 4c bf
       0.31100747 0.7933879 -0.28568068 -0.7998191
0000b0 d2 c2 51 bf 10 82 e9 3d 95 9d 76 bf 20 6b 33 3e
       -0.819379 0.114017606 -0.963342 0.17521334
0000c0 16 1e 83 3f 7b af 7a 3e 5a 86 82 be bc 7d d3 3e
       1.0243556 0.24481003 -0.25493127 0.41306865
0000d0 58 64 ac be 0c c1 ac 3f 99 15 0b 3f 07 8a da be
       -0.33670306 1.3496413 0.5432983 -0.42683432
0000e0 72 fb 10 3f e3 8d b9 3e 4f b2 75 bd 43 ee 18 bf
       0.56633675 0.36241063 -0.0599845 -0.5973856
0000f0 90 e6 7d 3f f9 50 85 bf e8 81 8c 3d 39 55 2a 3e
       0.99179935 -1.0415336 0.06860715 0.16634072
000100 1f bd 01 3f f2 04 2a 3f 60 dd 1c 3f 3d 5a 1e 3b
       0.506792 0.66413796 0.6127529 0.0024162673
000110 6e 9a 19 bf 78 7d 48 3c c0 1e 95 3e bb 0b 8f 3e
       -0.60001266 0.012236945 0.29125023 0.27938637
000120 f9 f7 29 bf e9 bb 51 be de 66 f0 3d 61 13 f8 be
       -0.66394 -0.20481838 0.1173837 -0.48452285
000130 a4 bf 22 bb 63 fe 48 3f a4 48 3c 3f 6a 1e 8d be
       -0.0024833465 0.78513163 0.7354834 -0.27562267
000140 e1 2e 46 bd bf 49 7d be 8c f6 a9 3c bc bc 02 be
       -0.04838455 -0.24735163 0.020747446 -0.12767309
000150 f4 98 4c be 3c 68 c8 be 05 5e 3b 3f 36 0b 47 3f
       -0.19980222 -0.39142025 0.7319034 0.7775148
000160 cd 89 17 be 25 d1 03 3f eb 27 c8 be 15 04 0c be
       -0.1479866 0.51491004 -0.39092955 -0.13673432
000170 e0 0a f6 3c 24 14 f2 be 1e 36 3d bf 4d 8b b4 3e
       0.030034482 -0.4728099 -0.739107 0.35262528
000180 ef e6 03 3f 38 06 de bb 66 de 04 3e 96 e8 f9 be
       0.5152425 -0.0067756437 0.12975463 -0.4881026
000190 54 73 21 bf 57 54 d7 be 55 06 68 3e a8 07 ca be
       -0.630666 -0.42056534 0.22658665 -0.39458966
0001a0 a1 5e 8d 3e 8d 09 e9 3e f7 d0 18 3e 19 f0 cb 3e
       0.2761126 0.455151 0.14923464 0.39831617
0001b0 2a e4 82 bd be 37 91 3e c0 83 9e be 73 e8 ce 3d
       -0.06391175 0.2836284 -0.30959892 0.1010293
0001c0 27 fc 35 3f a3 a4 bb bd 3e 30 54 3f 74 0d 10 3f
       0.7108788 -0.09162261 0.8288611 0.5627053
0001d0 eb 4b f7 be 03 e3 95 bd af c4 93 be fc 0e ad 3e
       -0.48300108 -0.0731869 -0.28860995 0.33800495
0001e0 94 f1 1b bf 1c 9f 9c be 21 68 99 3c 09 4b 39 be
       -0.60915494 -0.3059014 0.01872641 -0.1809503
0001f0 0e 8a 51 3e 95 3f aa 3e af ad bc bd db b4 68 3e
       0.2046282 0.33251634 -0.09212815 0.22725241
000200 42 44 0a bd 77 35 b1 3d 0c 3e 40 3f 5c 82 df 3e
       -0.033756502 0.08652776 0.75094676 0.43654144
000210 e0 cd 1c be 48 96 8d 3e 86 3a 8b 3e a8 95 e3 be
       -0.1531291 0.27653718 0.27193087 -0.44450116
000220 0f 47 0c 3f a3 8c 06 be 2b 3d 34 be e5 10 55 3f
       0.54795927 -0.13139586 -0.17601459 0.83228904
000230 ee 39 2f bf b9 6b 06 be 38 af 09 3f 65 74 b8 bd
       -0.6844777 -0.1312703 0.5378299 -0.090065755
000240 74 ab bd bc 7b 2e 8a be 82 fb 8a be ad 76 0d bd
       -0.023153044 -0.26988587 -0.2714501 -0.034537006
000250 cd 6b e8 bd 65 be fd 3e 5d 8b f7 3e 38 5c 23 3e
       -0.11348686 0.49559322 0.48348513 0.15953147
000260 f5 e1 e5 bd a6 c1 09 3f 4d 5b 69 bc 48 5b b1 be
       -0.112247385 0.5381111 -0.014242959 -0.34639955
000270 f4 2d ce be f2 7a ba 3d 28 f4 18 3e f7 6f a9 3c
       -0.40269434 0.09105481 0.14936888 0.020683272
000280 06 19 92 3e cb 4c 4b be 72 63 78 3e cf 5d 0c bf
       0.28534716 -0.19853513 0.24256685 -0.5483064
000290 dc 1c 03 3f 66 88 d6 be b0 4a b6 be 48 e1 1a 3f
       0.5121591 -0.4190094 -0.35603857 0.605
0002a0 6b 0a 5c 3e 8f 74 0e 3e a2 00 a7 be 7e 79 4d bf
       0.21488349 0.13911651 -0.3261767 -0.8026351
0002b0 29 0d 32 3d 33 47 d4 bd 83 c1 ba 3e b2 da d2 3e
       0.04346958 -0.10365143 0.36475763 0.41182476
0002c0 c8 c4 11 bd ef 4f bf bb 54 3a cd 3e f6 80 99 3e
       -0.035588056 -0.0058383862 0.40083563 0.29981202
0002d0 5f 6c 85 be 38 eb 2f bf ef 32 c8 3e a2 31 1e 3d
       -0.26059243 -0.6871829 0.3910136 0.038621552
0002e0 b9 71 19 bf a0 72 98 3e 8a f8 b7 bd 71 52 06 3f
       -0.5993915 0.29774952 -0.08982952 0.52469546
0002f0 fc e8 d6 3d 4d 8a 76 be 23 d0 a9 3e db 31 19 3f
       0.10493657 -0.24076195 0.33166608 0.598417
000300 26 14 d9 be 30 98 c1 3e 62 4a e1 3e 17 ab b6 3c
       -0.42398185 0.37811422 0.44002062 0.022298379
000310 9f 32 14 bd 67 da 77 3f ec f0 f5 be 7a cb a7 be
       -0.03618109 0.9681763 -0.4803537 -0.32772428
000320 6c 59 a9 3d c7 7c 8a be 76 1a b4 be fd 72 36 be
       0.08269009 -0.27048323 -0.35176438 -0.17817302
000330 80 65 c7 be bb de 97 be 79 c6 17 3d 16 c5 03 3d
       -0.38944626 -0.29662117 0.037054513 0.032170378
000340 6e 21 46 3e 32 68 8f 3e 1a 24 58 be 2b 92 35 3f
       0.1934869 0.28009182 -0.21107522 0.7092616
000350 c3 93 89 be 0e 48 1e 3d 87 0d 91 3e a6 b3 e9 3d
       -0.26870546 0.038642935 0.28330633 0.11411218
000360 37 39 4a 3f a0 e4 31 3e 71 b8 de bd 6a f7 84 3e
       0.7899355 0.1737237 -0.10875023 0.25970012
000370 7f ba 93 be f3 8f dd 3d 50 74 a5 be ae c4 81 3d
       -0.28853223 0.10818472 -0.32315302 0.06336342
000380 19 c6 83 be 24 fc 2a 3f 65 54 0f bc 2e c4 1a 3d
       -0.25737074 0.66790986 -0.008748149 0.037784748
000390 ee f3 c1 3e ec e4 c7 be b7 43 95 be 31 8e 37 3f
       0.37881416 -0.3904184 -0.29153225 0.7170134
0003a0 28 fd e6 be 2e 88 10 bf 5b 39 a5 3e 97 ec 96 be
       -0.45115018 -0.56457794 0.3227032 -0.2947738
0003b0 55 eb 06 3d 9b 91 3c be ca c9 0e bf ba d0 a1 be
       0.032939274 -0.18414919 -0.55776656 -0.31604558
0003c0 ea b8 04 bf 98 19 c2 3e e2 9a 5e 3e 5c 7a b6 3e
       -0.51844656 0.3791015 0.2173877 0.35640228
0003d0 6c 1b ec be 3e 66 39 bf 1b 1d 60 3e a9 7a e7 be
       -0.4611467 -0.72421634 0.21886103 -0.4521077
0003e0 4d 9b 9b be ec 7f c5 bd e7 e4 99 bd 7b 9e 79 bf
       -0.30391923 -0.0964354 -0.07514363 -0.97507447
0003f0 01 25 c1 3d ba 09 97 3e 7b 0f d7 be 3f c3 eb 3e
       0.09430886 0.29499608 -0.42003998 0.46047398

embedding_item.weight f4 [1682, 64]
000000 4c c5 38 bf c0 ea b8 be 77 a4 a9 3e 0b c6 4a 3e
       -0.7217605 -0.361166 0.3313329 0.1980211
000010 4c 42 82 be 08 a4 22 3f 99 04 6f bd 70 ed d3 be
       -0.25441206 0.6353154 -0.058353994 -0.41392088
000020 7c 4c a9 be 59 92 15 bf b5 67 1c 3f 49 17 34 3f
       -0.33066165 -0.58426434 0.61095744 0.7034803
000030 12 cd 11 be 4b 2c bf 3e 00 25 ee 3e 39 28 c0 3e
       -0.14238384 0.3733848 0.46512604 0.37530687
000040 cb fe 06 bf a4 7d 2f bf d8 f4 50 bf be d3 e6 3e
       -0.52732533 -0.6855109 -0.816236 0.4508342
000050 2c 68 38 bf 70 e9 33 bf ce 11 40 bd ea c5 2f 3f
       -0.72033954 -0.7027807 -0.04689198 0.6866137
000060 56 ac 18 3f ba 57 71 3f cc d8 07 bf 6e e6 c7 3d
       0.59637964 0.94274485 -0.5306518 0.09760748
000070 b8 2a bf 3e a5 5a 29 bf 68 52 00 bf bf 70 26 bf
       0.3733728 -0.6615394 -0.5012574 -0.65015787
000080 a1 02 c4 3e 9b e0 35 3f 24 ef c7 be cf c9 eb 3e
       0.38283256 0.71045846 -0.39049637 0.46052405
000090 84 b9 1d bf 1a e3 51 3e e0 0c b8 3e a8 9c 87 be
       -0.616112 0.20496789 0.35947323 -0.26486707
0000a0 92 1c a9 3d 5f 34 cd 3e ab 1a 59 bd a8 78 e4 3e
       0.082574025 0.40079018 -0.05300395 0.44623303
0000b0 66 5a 8b 3f f5 29 c3 be 10 58 9c be d0 67 9d be
       1.0886962 -0.38117948 -0.30535936 -0.30743265
0000c0 4d 67 2e 3e 6f d8 b2 3d a9 8e bf bd a1 05 03 3f
       0.17031594 0.08732688 -0.09353382 0.51180464
0000d0 25 07 f3 be 6a b3 0c be a0 b1 a1 3e b7 10 57 3e
       -0.47466388 -0.13740316 0.3158083 0.2100247
0000e0 c9 a3 ba 3e 7e fa 7d 3e db 38 89 3e 6f 77 00 bf
       0.36453083 0.24802586 0.2680119 -0.5018224
0000f0 af 87 08 3f 6f 1d 14 3e b6 8d 1c 3f a5 00 fb be
       0.53332037 0.14464353 0.61153734 -0.4902393
000100 0e 9e bc be d3 1d 3a bf e6 e9 f9 be fc 31 db 3e
       -0.36839336 -0.7270176 -0.48811263 0.42811573
000110 7d 25 49 be 44 17 7f be 38 26 b6 be d0 60 42 3f
       -0.19643207 -0.24911219 -0.35576034 0.75928974
000120 26 20 22 3e 6d a8 9b be 09 b3 07 bf a3 34 0d be
       0.15832576 -0.30401936 -0.5300756 -0.1378961
000130 89 9e 0b 3c 4b 00 17 3d c6 4f d4 3e 8d fc e2 3d
       0.008521684 0.036865514 0.41467112 0.110833265
000140 2c 99 a4 3e f0 48 3e be 08 01 04 bf ab 13 1a bf
       0.3214811 -0.18582511 -0.51564074 -0.6018626
000150 07 e7 20 3e 46 4a a9 3e dc 1d a1 be c5 e1 f8 3d
       0.1571313 0.3306448 -0.31468093 0.12152437
000160 5b 7d 39 3f d4 52 53 3e c7 6f e1 3d e4 46 31 bc
       0.724569 0.20637065 0.11007648 -0.010820124
000170 c8 fc 2e 3e f9 c6 15 bf cd 7e ca 3e 0d bd 80 be
       0.17088616 -0.58506733 0.39549866 -0.25144234
000180 e7 06 9d be 39 62 5d 3e 57 d5 a0 be 31 01 0a bf
       -0.3066933 0.216195 -0.31412765 -0.5390807
000190 2f ba 3f bf c5 e4 08 be 30 ea 4d be cb aa 2d 3f
       -0.7489347 -0.13368519 -0.20108867 0.67838734
0001a0 3a 02 03 bf 44 f4 a5 3e b5 8f c3 be 20 07 e2 bd
       -0.5117527 0.32412922 -0.38195577 -0.11036515
0001b0 f0 90 ed 3e 9b 17 b9 be f0 88 a0 be 55 56 bb 3c
       0.4639964 -0.36150822 -0.31354475 0.022868315
0001c0 eb d7 36 bf f2 a8 58 3e 46 0a 07 3e d9 a3 45 bd
       -0.71423215 0.21158198 0.13187513 -0.04825196
0001d0 dd 1c ee be b0 9e 02 3f c2 62 0f bd f2 9b 16 bf
       -0.46506396 0.5102339 -0.035006292 -0.58831704
0001e0 8a e6 c7 be 63 36 a0 3d af 1a 5e be 40 d9 ef bd
       -0.39043075 0.078228734 -0.21689866 -0.11711359
0001f0 fa 0a 02 3e ec 38 0f bf b2 72 a8 3e bb 22 94 3c
       0.126995 -0.5594623 0.32900006 0.018082967
000200 c8 c2 5f 3e fc d2 8e bc dd d4 06 bf cb 34 99 3c
       0.21851647 -0.01743459 -0.52668554 0.018701931
000210 5d ac 5b be 01 01 fe 3e b9 f7 69 3e 1d f4 ac be
       -0.2145247 0.4961014 0.22848405 -0.33779994
000220 3b 2c ca be 4d 42 85 3e 06 dd 74 3e 07 31 0e 3f
       -0.3948687 0.26027146 0.23912439 0.5554356
000230 f3 9e c1 3d df 54 dc be f4 5c c8 3e 9b e7 f5 bd
       0.09454145 -0.43033502 0.39133418 -0.12007066
000240 53 2c 60 be 03 7b 9e be 10 2e 8f be 28 9a 0b 3f
       -0.21891908 -0.30953225 -0.2796483 0.545321
000250 2d 0f 5a 3d a1 49 60 3e 1e 62 15 3f 92 b7 63 3e
       0.05323713 0.21903087 0.5835284 0.22237995
000260 ea 39 86 bf 02 c4 11 bd 33 90 c8 bc c8 c2 7f 3d
       -1.0486424 -0.03558732 -0.024482822 0.062441617
000270 b3 b7 f4 bd 7a c7 3f be c3 98 b9 3d 1f 89 91 be
       -0.119491 -0.18728438 0.0906234 -0.28424928
000280 8b d0 fd 3e 45 be e7 bd 44 cf 02 be 61 41 87 3e
       0.49573168 -0.11315588 -0.12774378 0.26417068
000290 0c 80 42 3d 90 21 11 3f 85 29 5b 3f fe fb ff be
       0.047485396 0.5669184 0.8561023 -0.49996942
0002a0 16 23 d4 3d 0b 55 ab be 47 86 3b 3f c9 9b 4a be
       0.103582546 -0.3346332 0.73251766 -0.1978599
0002b0 2a 2c fd be f7 f6 5f 3e d1 f3 b4 be bc 82 22 3f
       -0.49447757 0.21871553 -0.35342267 0.63480735
0002c0 74 4d a4 3e 56 85 d8 be 02 11 12 bf 38 5f 1a bf
       0.32090342 -0.42289227 -0.570572 -0.6030154
0002d0 e8 41 1b bf b9 35 c8 3e 35 2e 91 bd a3 c8 36 3e
       -0.6064744 0.39103487 -0.070888914 0.17849974
0002e0 98 4d 19 bf d8 87 be bb 60 39 fd bd 45 8e 86 be
       -0.59884024 -0.0058145337 -0.12364459 -0.26280418
0002f0 60 65 c5 3e 64 88 bb be cd b3 0a bf 06 0b dd be
       0.38553905 -0.36627495 -0.54180604 -0.43172473
000300 4f 46 d7 be 3c 5b ab be 82 87 74 be 96 06 fe bc
       -0.4204583 -0.33468044 -0.23879817 -0.031009
000310 5c 46 e3 be a1 e5 52 3e 79 23 d5 bc 54 53 da bd
       -0.44389617 0.20595409 -0.026017891 -0.10660425
000320 bc dc 29 3d 50 ef 19 bf 95 64 e9 3d 6b 57 0a bd
       0.041470274 -0.60130787 0.113961376 -0.033774775
000330 2a 6e 9b bd 22 2e d9 3d a7 07 23 3f c8 a1 80 3e
       -0.075893715 0.10604502 0.6368355 0.2512343
000340 89 ed 7d be e2 02 f5 bd 49 f7 32 bf d5 27 6a bf
       -0.24797644 -0.119634405 -0.6990858 -0.9146703
000350 ae 3a 95 3e 4d 5f 04 be b6 a0 1d bf 90 d9 50 be
       0.29146332 -0.1292698 -0.6157335 -0.20395494
000360 c1 c8 64 3e 79 a7 66 be 8f c9 3a 3f 7d 65 11 be
       0.22342207 -0.22524823 0.72963804 -0.14198871
000370 a5 2e 63 be 7a ff 1e 3e 14 4c 57 3d 6a b4 33 be
       -0.22185762 0.15527144 0.052562788 -0.17549291
000380 00 98 a9 be 59 46 2d be 90 4e 29 be ac c8 b6 be
       -0.3312378 -0.16921367 -0.16533875 -0.35699975
000390 5c 93 3e bf 9d e1 99 3e f0 28 f3 3e 6d cd 72 3e
       -0.744436 0.30054942 0.4749217 0.23711176
0003a0 83 f4 96 3e 6d 73 ec bd df da 04 3f b6 5a 84 be
       0.29483423 -0.11545453 0.5189647 -0.25850457
0003b0 3e 39 0c 3e 3e 0f 5b 3d 26 c6 fa bd ba 2f ad 3d
       0.13693711 0.053481333 -0.12244825 0.08456369
0003c0 95 3d c6 be a9 f6 4f be 27 24 27 3f 1c 86 a3 be
       -0.38718858 -0.20308937 0.6528954 -0.31938255
0003d0 1e fb c9 bd c7 3a 1a 3f 40 95 00 bb 02 aa 89 be
       -0.0986235 0.6024594 -0.001962021 -0.26887518
0003e0 f4 c6 85 3e 2e 83 f8 3e 29 c7 a6 3e d1 57 0b bd
       0.26128352 0.48537582 0.32573822 -0.034019295
0003f0 e7 5e 55 3f d1 ca fa be 3f 06 36 3e 02 36 1f bf
       0.83347934 -0.48982862 0.1777582 -0.62191784

gc_mlp.0.weight f4 [64, 64]
000000 05 25 09 bd 22 57 a0 bc 84 41 4f bb 88 d3 e6 bc
       -0.03348257 -0.019572798 -0.0031624744 -0.028177038
000010 24 dd b6 bc 5f 8f 1d 3c 14 d0 0c 3e 61 6b fc 3a
       -0.022322245 0.009616702 0.1375125 0.0019258076
000020 e9 47 15 3f fd f1 88 3d 45 22 d2 3b a3 05 3a 3e
       0.5831285 0.066867806 0.0064127767 0.18166213
000030 31 fa cc bd 3b 96 f4 bc 03 65 e8 3d 32 d2 aa be
       -0.10008658 -0.029856792 0.113473915 -0.3336349
000040 45 19 65 3e 74 5f e7 3d 99 9f ed bd 34 32 17 bd
       0.22372921 0.11297503 -0.116027065 -0.03691311
000050 64 5b 40 bb fe cc 19 be b9 bb 5e 3e 8a 32 8f 3d
       -0.0029351348 -0.15019605 0.21751298 0.069920614
000060 37 70 1f 3c 38 b9 a1 3e eb 89 5e bb db 84 a0 bc
       0.009731344 0.31586623 -0.0033956717 -0.0195946
000070 6d 73 60 3e e8 51 10 be a4 6f c2 bd a2 93 c3 bd
       0.21919031 -0.14093745 -0.0949395 -0.09549643
000080 e4 1e 0a be 1b 95 ec bd 8d f7 8e bc 08 dc 50 3d
       -0.13488346 -0.11551877 -0.017452026 0.05099109
000090 91 63 1a 3e 5c 9c 7f bd 3a 96 8c 3c 2d 53 a7 3d
       0.15077044 -0.062404975 0.017161477 0.081701614
0000a0 8d da 89 bc db ae b5 3d ff f3 64 be 18 76 5e 3e
       -0.016827846 0.08871242 -0.22358702 0.21724737
0000b0 db fb 92 bc bd 00 08 be 2f 5b 15 3e 81 27 a6 bc
       -0.01794236 -0.13281532 0.14585565 -0.020282509
0000c0 c0 dc 9d 3d cd 0b 05 3e d0 a0 e7 3c f2 7b 75 3e
       0.0770812 0.12992783 0.028274924 0.23973063
0000d0 f5 9a 27 3e b2 c1 3d be 6a 2c 42 be dc 6c cb 3d
       0.16367705 -0.1853092 -0.18962255 0.09932873
0000e0 10 a8 41 3e 0e c8 b5 3d 67 5f 7c bc 17 81 0b bd
       0.18911767 0.08876048 -0.015403605 -0.034058657
0000f0 36 0c db 3d f8 d8 26 be 6c 30 0c bd ee fc 06 be
       0.106956884 -0.16293705 -0.034225866 -0.13182423
000100 e6 d8 2b 3e 1c 97 ae 3d 4e 6f 97 3e 29 7f a3 3d
       0.16781959 0.085249156 0.29577106 0.07983238
000110 38 41 6b 3e ba 04 34 3e e8 96 9b be c1 93 fc bd
       0.22974098 0.17579928 -0.3038857 -0.12332869
000120 47 a5 09 bd 6f e6 1c 3e f7 45 95 3b b1 ce a6 be
       -0.033604886 0.15322278 0.0045554596 -0.32579568
000130 ed 9f 70 bd e5 8f a7 3d fd 76 4d 3e 9e e9 df 3e
       -0.058746267 0.081817426 0.20064922 0.43732923
000140 98 e3 55 be 98 cc 21 bc 41 fb 11 3d d7 33 3b 3e
       -0.20887601 -0.009875439 0.035640005 0.18281494
000150 75 d5 cb 3d c1 ab 10 be da e8 80 ba e6 d3 8a 3d
       0.09952823 -0.14128019 -0.000983502 0.06778698
000160 9e b9 05 be bf 46 b5 be 27 27 83 be 97 a1 38 3c
       -0.13059089 -0.35405537 -0.25615808 0.011268995
000170 24 db c6 bd 2c f5 75 3e 63 8c 38 bd 3a 41 a5 3d
       -0.097097665 0.24019307 -0.04505576 0.080690816
000180 f7 19 43 3d 1b c8 e0 3d 7b 4c 86 3d 8f bd 4f be
       0.047632184 0.10975667 0.06557556 -0.20287155
000190 3b 77 70 3e b3 da 4b be 9a 93 be bd 4b b2 86 3e
       0.23482983 -0.19907646 -0.093054965 0.26307902
0001a0 c3 ee 0f 3e 60 21 e3 3d 04 6d c3 bd d4 83 1a be
       0.14055924 0.1109035 -0.095422775 -0.15089351
0001b0 78 54 8d 3d c4 e0 ae bb a9 02 26 bd a6 25 5c 3d
       0.06900877 -0.0053368527 -0.04052988 0.05374684
0001c0 ab 2f 1c bd 78 49 5e be ad 5b 19 bb 01 f3 50 3e
       -0.038131397 -0.21707714 -0.002340059 0.20405199
0001d0 a3 ef 5d 3b 68 e7 27 bd 5b f9 87 3e 9c 31 76 3e
       0.0033864758 -0.04099217 0.2655743 0.24042362
0001e0 93 ab 90 be 09 3f 7d be e6 51 c1 be ea 8c 58 3d
       -0.282559 -0.24731077 -0.37757796 0.05286876
0001f0 38 bb ee bd d8 75 26 bb b8 f8 a4 3e a1 76 8d 3e
       -0.11656803 -0.002539983 0.32221007 0.2762957
000200 7b ee 9b be d0 d8 a7 bd ca 66 48 be 25 6e 68 be
       -0.30455384 -0.081956506 -0.19570461 -0.22698267
000210 e7 5c 40 be 1b 83 7f bc ca 45 37 be 53 df 2c be
       -0.1878544 -0.015595223 -0.17897716 -0.16882066
000220 35 45 eb 3e 20 b7 f2 3d 25 35 8c bd 1c 08 91 3e
       0.45951238 0.118513346 -0.06846074 0.283265
000230 94 9e 90 bd d5 94 05 be 4a ed 84 3c 98 d7 3d 3d
       -0.070614964 -0.13045056 0.01622643 0.046348184
000240 e9 6a 0b 3f 56 d8 75 3e 4b 9d 82 3e 2f b4 82 3e
       0.54460007 0.24008307 0.2551063 0.25528094
000250 1d db d1 3d 72 c0 12 be 31 5d bd bd e8 8d 8e 3e
       0.10246871 -0.14331225 -0.092462905 0.2784264
000260 e8 04 8f 3e 2c 74 a8 3e 69 b7 8c 3c 3b 7d 4f be
       0.2793343 0.32901132 0.0171773 -0.20262615
000270 2f 72 bd 3e d1 4e e7 be 2c 72 95 3d 1d ca b5 bd
       0.37001178 -0.4517732 0.07297167 -0.08876441
000280 7d 44 ba be 74 c0 6f 3d 76 c8 fd bd 74 45 5c 3d
       -0.36380377 0.058533147 -0.123917505 0.053777173
000290 92 4d 7c 3c ac 8d d9 3c 34 55 b0 3d 5e e7 0b be
       0.015399354 0.026556812 0.08610001 -0.13662478
0002a0 11 11 68 bc 1a 56 e9 bb 03 5e 10 3d 2e a1 6c be
       -0.014164225 -0.00712086 0.035245907 -0.2310836
0002b0 a0 bf d6 3c 14 8b a4 3e 9b d3 03 be cd bb eb bd
       0.02621442 0.32137358 -0.1287369 -0.115104295
0002c0 b1 58 64 3e 8c 63 a0 3e 06 79 e2 bd aa 07 1c bd
       0.22299458 0.31325948 -0.1105824 -0.038093247
0002d0 1c ce 94 be 0b f1 f3 3c f9 60 e8 bc 2e 49 15 bd
       -0.290635 0.029778024 -0.028366553 -0.036446743
0002e0 0f b3 8d 3d 69 12 e0 3d 71 0d c4 bc 11 6c 8e be
       0.06918918 0.109410115 -0.02393219 -0.27816823
0002f0 5b 15 53 3e e4 61 d3 bd 22 88 0b 3f d0 81 35 be
       0.20613615 -0.103214055 0.545046 -0.17725301
000300 fb 18 da bd 52 e6 66 3e f5 52 45 3c c5 51 96 3d
       -0.10649296 0.22548798 0.012043704 0.07339815
000310 8a 6a 26 3e 9c 23 5e 3c d9 eb f9 bd 7d ee cd 3d
       0.16251579 0.013558295 -0.122031875 0.10055254
000320 dc 0a 12 3c 77 63 72 3d ed a8 23 be 04 1d e8 3c
       0.008913722 0.05917689 -0.15982409 0.028334148
000330 c7 bd 8b bc 94 0b 06 bc bc bc cf 3d 75 ae 31 bd
       -0.017058266 -0.008181471 0.1014342 -0.043379266
000340 c1 b4 53 3e d7 75 af 3d 5a 77 b1 bd c2 24 ea bd
       0.20674421 0.08567398 -0.08665343 -0.11432792
000350 a4 65 85 bb 65 ff d2 bd fd dc 28 bd 55 9c 18 3e
       -0.0040709544 -0.10302619 -0.041226376 0.14903386
000360 84 80 37 be f7 9b bc 3e 35 58 18 3e f9 77 8a bd
       -0.17920119 0.36837742 0.14877398 -0.06761164
000370 5f 63 70 3e 0e c1 a1 bd fb 30 d1 bc 5f 55 03 bd
       0.23475407 -0.078981504 -0.025536051 -0.032063838
000380 b7 77 27 3e 35 7e 2f 3e 79 62 fa bd 79 27 f7 bc
       0.16354261 0.17137988 -0.122258134 -0.03017019
000390 c0 ad fd bd 39 2d 52 3e 07 b6 db 3c b9 32 eb bc
       -0.12386656 0.20525064 0.026820196 -0.02871071
0003a0 a1 f0 eb bc 18 fc c1 3d 9a 6c 69 bd c3 10 e8 3d
       -0.028801264 0.09471911 -0.056988336 0.11331322
0003b0 ac c5 b9 bd ad f2 88 3d 6a 82 c5 3d e3 94 2c 3e
       -0.09070906 0.06686912 0.09644015 0.16853671
0003c0 23 52 2f 3e b0 be 3b 3e 9c 18 27 be 8e 6c a3 bc
       0.17121176 0.1833446 -0.16317981 -0.019949224
0003d0 e9 a3 41 3d db 6e 85 bd 5d c8 9b bc 03 76 13 bd
       0.047275458 -0.06515285 -0.01901644 -0.036001217
0003e0 e9 6e 05 3e 9a 64 9a 3e a0 d9 a6 3d d9 ff 93 3d
       0.1303059 0.30154878 0.081469774 0.072265334
0003f0 44 1b f7 3d fd b2 13 bd 15 9c a9 bd 8b fd 06 be
       0.120657474 -0.03605937 -0.082817234 -0.13182656

gc_mlp.0.bias f4 [64]
000000 5e b3 81 bd 5c 46 6e bd f4 e3 37 be de bf 1d bd
       -0.0633304 -0.05817257 -0.17958051 -0.038513057
000010 be e7 3a be 45 46 7c be 92 13 23 be 3e dc 33 be
       -0.18252465 -0.2463618 -0.15925434 -0.17564484
000020 db 51 35 be b5 eb a8 bd d7 9a 0c be e8 c8 05 bd
       -0.17707007 -0.082480825 -0.13730942 -0.032662302
000030 0d 06 db 3b ab 03 bb bd a6 52 0c bd b3 f8 77 be
       0.006684071 -0.09131559 -0.034258507 -0.24215965
000040 8d 04 3a be 7c bc 43 bd a2 f7 ec bd c1 bc 3e be
       -0.18165798 -0.047787175 -0.1157067 -0.18626691
000050 34 f9 d3 bd 5d 47 f0 bd 01 75 75 bd 19 3d 46 be
       -0.10350266 -0.117323615 -0.059926037 -0.19359244
000060 66 4c 8f bd 35 69 28 be 97 59 55 be 47 80 87 bd
       -0.06996994 -0.16446383 -0.20834957 -0.06616264
000070 2a 61 ca bd cf 1e c3 bc b8 df 58 bd a7 62 fb bd
       -0.09881814 -0.023818402 -0.05294773 -0.12274676
000080 bd 62 35 be 5d 03 76 be bc 79 e3 bc 0a 75 3d be
       -0.17713447 -0.2402472 -0.027768008 -0.18501678
000090 98 b1 15 be 05 5e 9d bd 33 cd 8a bd 78 88 99 bd
       -0.14618528 -0.076839484 -0.0677742 -0.074967325
0000a0 9d 08 3d be df 1a 18 be 03 b0 68 be db 9e 8e bd
       -0.18460317 -0.14854 -0.22723393 -0.06963893
0000b0 cc 3d 1c be 3e f6 07 be 37 70 7b bd 47 89 6c bd
       -0.15257949 -0.13277528 -0.061386313 -0.057748105
0000c0 fd 0c 26 be a7 c1 b0 bd 11 c5 44 be 3d b4 a2 bc
       -0.16215892 -0.08630686 -0.192158 -0.019861335
0000d0 18 ce f2 bd 66 2c e2 bd 83 a3 13 be 36 7b 70 be
       -0.118557155 -0.110436246 -0.14417844 -0.23484501
0000e0 68 53 20 be c1 7c 64 be ae a8 49 bd be dd 65 bd
       -0.15656817 -0.22313215 -0.04923313 -0.056119673
0000f0 c6 d9 12 bd 44 76 d3 bd 46 9c 83 bd 31 97 75 bd
       -0.035852216 -0.10325292 -0.06426291 -0.05995864

gc_mlp.1.weight f4 [64, 64]
000000 ee 7a 45 3e b9 6d 3e 3c 0f ec 1e bb a4 5e 21 3e
       0.19285175 0.01162284 -0.0024249589 0.15758759
000010 65 28 17 3e 8c 8b 65 bd 18 18 82 3c 48 cc c6 3b
       0.14761503 -0.056041285 0.01588063 0.0060668327
000020 c0 1c f6 bd d9 b6 ef 3c 92 2a f3 3d 07 e6 8c bc
       -0.120172024 0.029261993 0.11873354 -0.01719953
000030 2a 5a 93 3e 64 69 89 3d d5 e8 00 bd 59 89 5a bd
       0.28779727 0.06709555 -0.031472046 -0.05335364
000040 a0 e6 b3 bd bc ab d5 3c c9 ca 62 3d 9a 38 ff 3c
       -0.087842226 0.026082866 0.055369172 0.03115492
000050 3c f2 3a 3d 97 14 8a bb e8 b3 95 3d 3b 1d 94 bd
       0.04564117 -0.0042138803 0.07309705 -0.07232138
000060 7c 56 84 3d 81 15 6d 3b 13 4e 40 be 6e 38 04 3d
       0.06461808 0.0036176147 -0.18779783 0.032280378
000070 62 b0 37 bd ed 9a 19 3e fb 3a 01 bc 42 3f 90 bd
       -0.044845946 0.15000506 -0.007887597 -0.070433155
000080 0b 49 ea bc e4 66 15 be f5 20 b3 bc 92 67 db bd
       -0.028599283 -0.14590031 -0.021866301 -0.10713114
000090 51 ed f0 bc 74 e2 e0 bd c1 60 b6 bb 85 d0 cd bd
       -0.029410036 -0.109806925 -0.005565733 -0.100495376
0000a0 a3 4b 26 3c cc 5c 30 be 4b 5f 33 be b5 f4 9c bc
       0.010149869 -0.17222899 -0.1751682 -0.019159654
0000b0 2c 9b 61 bd c1 52 ee bd 02 c2 24 be 47 1a b8 bd
       -0.055079624 -0.11636878 -0.16089633 -0.08989387
0000c0 1b 98 e5 3c c2 6b 3f 3e 6f 12 22 bd bc 70 98 bd
       0.028026631 0.1869345 -0.03956836 -0.074433774
0000d0 56 ba 01 bd c4 5a 87 3d 6d ca 92 bd 4e fe aa bd
       -0.031671844 0.06609109 -0.07167516 -0.08349286
0000e0 4d d2 bc bd f9 ff 56 3d dc 8a f6 bd f3 0a 59 bd
       -0.09219799 0.05249021 -0.12038204 -0.052988958
0000f0 98 b9 3e 3d 19 19 cc bd c2 28 ca bc 2f 07 15 3c
       0.046563715 -0.099657245 -0.024677638 0.009095951
000100 9f 4a 6b bd b9 2b 48 be 9e ef d5 be 33 a0 d9 bc
       -0.05744421 -0.19547929 -0.41784376 -0.026565647
000110 69 23 b5 3d 21 59 bf be 8b 3a ab be d3 d2 a2 be
       0.088446446 -0.37372687 -0.33443102 -0.3180147
000120 68 c6 62 be dc 9c 3c be 93 f6 88 3e 07 00 c0 bd
       -0.22145998 -0.18419212 0.2675062 -0.09375005
000130 89 34 47 3e cc b8 9e be 01 14 bd bc 51 cf 3d be
       0.19453634 -0.31000364 -0.023080828 -0.18536116
000140 ca 7b a3 be 8e 89 a9 bd 4a 4f 7f be 70 44 a5 be
       -0.3193038 -0.082781896 -0.2493259 -0.32278776
000150 67 2b aa be 03 8d 82 be 6b 0b 68 be 8c 89 f6 be
       -0.33236238 -0.25498208 -0.22660606 -0.48151815
000160 a7 c2 8a bd ae 21 80 be 08 74 d9 be e3 14 1c bc
       -0.06775408 -0.25025696 -0.42471337 -0.009526464
000170 54 d0 ce be b1 ff db 3d 31 60 8c be 66 3c eb be
       -0.40393317 0.10742129 -0.27417138 -0.45944518
000180 b2 e2 51 be 1c bd db be 23 2c 90 be 53 5a a8 be
       -0.20496634 -0.42917717 -0.28158674 -0.32881412
000190 fd b0 43 be a8 07 bf be b5 89 78 be 3a e5 4d be
       -0.19110484 -0.3731053 -0.24271281 -0.20106974
0001a0 32 65 89 be 0b 09 b8 be 34 30 a8 be 1f 2b bd be
       -0.26835018 -0.359444 -0.32849276 -0.3694696
0001b0 95 24 c6 be 18 6c 4c be be 68 22 bd 7a 07 66 bd
       -0.38699785 -0.1996311 -0.03965067 -0.056159474
0001c0 63 7a ba be b7 cd 86 3e cb 13 a2 be 72 bd 42 bd
       -0.364215 0.26328823 -0.31655726 -0.04754395
0001d0 17 25 cf be 77 dc a5 3e 76 45 3f be d7 8f ae be
       -0.40457985 0.32394764 -0.18678841 -0.34094116
0001e0 e0 a0 57 be 71 8b 00 bf f5 a4 9c be 90 88 4f be
       -0.21057463 -0.5021277 -0.30594602 -0.20266938
0001f0 ec 61 ba bd b6 2d b1 be e1 30 88 bd ac 2a 93 be
       -0.09100708 -0.34605187 -0.06649948 -0.28743494
000200 28 8e 92 be fa 3e 8d 3d 16 51 b5 3d ba 94 7f 3d
       -0.28624082 0.068967775 0.088533565 0.062397696
000210 35 26 3b be a0 3d 6d 3e d6 d3 93 3d 95 69 1f 3d
       -0.18276294 0.2316804 0.07218139 0.03891905
000220 a8 6f 8c bc ce c5 11 bd 56 d0 61 be bd 3d c2 3d
       -0.017143086 -0.035589032 -0.2205213 0.09484432
000230 82 fe 75 bd 8b ea df 3d f5 4a 80 bd 55 7f 53 3d
       -0.06005717 0.109334074 -0.06264297 0.051635105
000240 3a f2 21 3e 14 45 5b 3b 61 45 8e bd b2 0a 7c bd
       0.15815058 0.0033457922 -0.06946827 -0.061533637
000250 6f 07 be 3c 1d d7 1d 3d 5a 2a 56 3d 96 29 3d 3d
       0.023196904 0.038535226 0.052286483 0.046182238
000260 e2 89 1a 3d 3d 0b e5 bd 14 8b 19 3c dd 1a 6f bd
       0.03772915 -0.11183784 0.009371538 -0.05837523
000270 51 6d 92 3d 48 cb bf bd c1 82 8d 3d a0 5d 9c 3d
       0.07149757 -0.09364945 0.06909705 0.07635045
000280 c8 c9 6d bd cf 7e 1d 3e 2a 68 d9 3d 6f 35 1f 3d
       -0.05805376 0.15380405 0.10615571 0.038869318
000290 9b 4d a7 3b 2c b8 14 be 6d 3e c0 bd a6 48 c4 3c
       0.005105687 -0.14523381 -0.09386907 0.023960423
0002a0 31 fa 26 3e 0f 53 39 3e 9d 51 6a 3d 4b 15 0b 3d
       0.16306378 0.1809809 0.05720674 0.033955853
0002b0 df 03 10 be 20 54 f3 3d 65 24 76 3d 1c bf f2 3b
       -0.14063977 0.1188128 0.060093302 0.007408036
0002c0 d2 1b 0e bd 1f 55 9d 3b 62 d5 50 3d bb 70 69 3d
       -0.0346945 0.004801407 0.050984748 0.056992274
0002d0 1b c6 b5 bd 10 c0 2c be 42 6d f8 3b 42 2f 12 be
       -0.08875676 -0.16870141 0.007581384 -0.1427584
0002e0 18 75 f1 3d d2 b6 9f bc 83 09 93 bd 84 1f ea 3d
       0.11789912 -0.019496355 -0.071795486 0.114317924
0002f0 3f c3 17 be ba 14 64 3d 9a 8d 77 3d a7 b4 ac 3d
       -0.14820574 0.05568383 0.060437776 0.08432894
000300 ca 46 13 be 1b 06 33 be 25 dd dc be a8 c6 42 be
       -0.14382473 -0.17482798 -0.4313747 -0.19021094
000310 bb 5c 17 3d c5 03 9d be c7 07 a2 be a8 2e cc be
       0.03695367 -0.30666938 -0.3164656 -0.39879346
000320 b5 4a 43 be 9b 3b 05 be a4 50 cf 3e 84 f5 8a be
       -0.19071467 -0.13011019 0.4049121 -0.2714044
000330 12 41 49 3e 83 d5 9a be 6b a2 3a bd 5e 90 b8 be
       0.19653729 -0.30241022 -0.04556505 -0.36047643
000340 ff 3b ce be e9 a9 c3 bd db 85 17 be 3a 25 8b be
       -0.40280148 -0.09553892 -0.14797156 -0.2717684
000350 5a b3 b6 be 36 38 99 bc 74 f3 a3 bd 05 ed 6e be
       -0.3568371 -0.018703561 -0.080054194 -0.23332603
000360 0e 69 64 bd 49 b7 92 be 7c 1f c7 be c1 19 6c 3d
       -0.05576425 -0.2865546 -0.38891208 0.05764175
000370 e4 2e 85 be 9f 91 10 3d 09 b9 eb bd 6c 74 75 be
       -0.26012337 0.035295125 -0.11509902 -0.23970193
000380 90 0c a9 bd ca c4 e4 be 8c fe 9a be ea a5 9f be
       -0.08254349 -0.44681388 -0.3027233 -0.3118127
000390 45 31 7c be c2 88 c8 be 15 c4 8a bc 87 f3 a0 be
       -0.2462817 -0.39166838 -0.016939202 -0.31435797
0003a0 2d fa b8 be 10 91 8e be 0b b3 d2 be 27 a1 59 be
       -0.3612837 -0.2784505 -0.41152224 -0.21252881
0003b0 29 46 f6 be 06 0e b1 be a6 0d 70 be 5b 0b 75 be
       -0.48100403 -0.34581012 -0.23442706 -0.23930113
0003c0 1f a3 b3 be b8 5c 25 3e 41 87 b4 be 10 43 f5 bd
       -0.3508539 0.1614865 -0.3525944 -0.11975682
0003d0 a9 98 9d be e3 11 ba 3e 5a 05 ba be b5 d4 ef be
       -0.30780533 0.3634177 -0.36332208 -0.4684197
0003e0 05 5e cb be f8 ea e9 be a1 e2 11 be a1 a2 80 be
       -0.3972017 -0.4568708 -0.14246608 -0.25124076
0003f0 d1 3f cb 3d ae 06 97 be aa 4a 57 be 7d d7 68 be
       0.099242814 -0.29497284 -0.21024576 -0.22738452

gc_mlp.1.bias f4 [64]
000000 0a bc bf bd 12 4d 8f be f6 dd b0 bd 6b c0 81 be
       -0.093620375 -0.27988487 -0.08636086 -0.25342116
000010 a3 14 14 be 6b ea 62 3d b3 e8 19 be a3 66 97 bc
       -0.14460997 0.05539934 -0.15030174 -0.018481558
000020 75 cd 0e 3e a7 9b 08 be e6 57 f5 bb f5 00 f9 3d
       0.13945563 -0.13340627 -0.007487285 0.12158386
000030 85 8a e8 3c 7a 64 01 3e 26 fa e8 3d 47 db d8 3d
       0.028386364 0.12635985 0.11375837 0.10588699
000040 c3 c4 26 be bc 9f bf be a3 3d b6 b8 de 39 c9 bd
       -0.16285996 -0.37426555 -8.689917e-05 -0.098254904
000050 dd e9 2e be aa c0 80 bc a4 f0 c3 bd 04 12 05 3e
       -0.170814 -0.01571687 -0.09567383 0.12995154
000060 10 0e b1 3d e8 e9 5c 3c f0 2b 1e 3e cb e0 8b 3d
       0.0864526 0.013483502 0.15446448 0.06829985
000070 bf 34 05 bc 74 d2 82 bd 96 de aa bd ac aa 95 be
       -0.008130251 -0.06387797 -0.08343236 -0.29231775
000080 5a 49 c3 3c 9d 93 c4 bd 5e 39 fb 3b cc b5 8a 3d
       0.023838688 -0.095984675 0.007666751 0.06772956
000090 46 fc 6f 3d 5a 62 96 bc 61 6c 50 be 0a d7 f4 3d
       0.058590196 -0.018357445 -0.20353843 0.11955078
0000a0 73 00 19 3e 40 57 1b be c8 f4 a3 bd b9 e9 71 be
       0.14941578 -0.15170002 -0.08005673 -0.23624314
0000b0 04 86 e9 be 39 97 74 be 3b cf e3 bc 3c 90 09 be
       -0.45610058 -0.23885812 -0.027808776 -0.13433927
0000c0 7c 35 cb 3d d6 ab c8 bd e7 ba ea bd 33 20 e2 bd
       0.09922311 -0.097984 -0.1146143 -0.11041298
0000d0 7c c2 8d 3d 18 bc da bd a7 9d 9d be da f0 fd bd
       0.069218606 -0.10680407 -0.30784342 -0.123994544
0000e0 15 36 d3 3d bc d3 71 bd 7e 99 89 be 82 f6 95 3e
       0.1031305 -0.059039816 -0.26874918 0.29289633
0000f0 01 05 e9 bd f6 ff 21 be ab 22 c8 bd a0 f6 23 bc
       -0.113779075 -0.15820298 -0.097722374 -0.01000753

gc_mlp.2.weight f4 [64, 64]
000000 8e 7c ea bd 3f 10 29 bd ca a8 1b be c4 41 e5 bd
       -0.11449538 -0.04127526 -0.15201107 -0.111941844
000010 40 2d 4b be c0 48 48 bd 52 c3 64 3e 04 17 ab 3c
       -0.1984148 -0.048897505 0.22340134 0.020884998
000020 e8 3a 69 be 6b 52 9d 3d 5f 91 60 bd f1 6d 22 ba
       -0.22776377 0.076817356 -0.054826137 -0.0006196192
000030 42 20 0c 3d 8d 5e 9c 3d c7 e9 60 be c7 31 95 3d
       0.03421045 0.07635222 -0.21964179 0.07284885
000040 8f 07 a9 3b ec 4a 75 bc 42 b1 23 be 67 e6 b9 bd
       0.0051583718 -0.014971476 -0.15985587 -0.09077149
000050 b7 b2 b4 bd f3 90 9f 3d 0c c6 13 be 73 0c 0f 3d
       -0.0882315 0.07791319 -0.14431018 0.034923982
000060 7e fc 44 be e2 0a dc bd b6 2a 9c bd 48 b6 cf bd
       -0.19236943 -0.10744263 -0.07625334 -0.10142189
000070 a1 ee 86 3d 94 8b 6b bd ca 46 3c bd 2c b0 38 3c
       0.065884836 -0.05750616 -0.045965947 0.011272471
000080 82 5a 92 3d 14 82 90 bd 9d 7b 08 bd 59 54 9a bd
       0.07146169 -0.070560604 -0.03332101 -0.07535619
000090 4d 8a a0 3b ea cd b4 3d 19 52 03 3d a6 1b 82 be
       0.0048992992 0.088283375 0.032060716 -0.2541172
0000a0 2c a8 5d 3c f7 59 14 bc 0c 34 cc bd ce fa a6 3d
       0.013528865 -0.009054652 -0.09970865 0.08153306
0000b0 5e 95 ae bc 99 87 63 bd bb ce a1 bd 2f 21 0c 3d
       -0.021311458 -0.055549238 -0.07900759 0.034211334
0000c0 62 aa 15 be f7 f0 db 3d e5 59 ea 3d 3b 18 99 3c
       -0.14615777 0.1073932 0.11442927 0.018688312
0000d0 06 7a 0e 3d 30 6c af bc 56 28 cb bc 13 b5 72 be
       0.03478434 -0.021413893 -0.024799507 -0.23701887
0000e0 15 54 4c be 38 c7 92 bd 5f a3 c2 3d a2 6c 74 3d
       -0.1995395 -0.07166904 0.09503817 0.059673913
0000f0 c1 ae 2a bd d7 43 78 be 7f 99 74 3d c0 a7 dc 3a
       -0.041670565 -0.24244629 0.059716698 0.0016834661
000100 d3 cb 40 3d 93 23 10 be 16 09 1e bd a7 3e 82 3c
       0.047069382 -0.1407607 -0.038582884 0.015899016
000110 82 e3 0c be 06 b8 0c be e7 5c 51 3e 58 2b 0a 3d
       -0.13758662 -0.13742074 0.20445596 0.033732742
000120 0e 59 62 3e 90 06 cd 3d 7b 21 36 bb 14 c9 1e be
       0.22104284 0.10011017 -0.0027790952 -0.15506393
000130 e4 80 fd bd 34 b3 fe bc c9 3e 05 3e 25 d4 ac 3d
       -0.123780996 -0.03109131 0.13012232 0.08438901
000140 18 a0 87 3c 60 55 36 bd 2d 5e 45 bb a4 c1 41 3e
       0.01655583 -0.044515014 -0.0030115948 0.18921524
000150 0e 84 88 bc a4 8a 0a be ca 5b 8a 3e de 66 b7 be
       -0.016664531 -0.1352945 0.27023154 -0.3582067
000160 cf 69 85 bd bc 29 f9 3d 2f 4b 06 bd 82 c3 4f 3e
       -0.06514322 0.12166163 -0.032786544 0.20289424
000170 67 d5 38 bc ca 32 c2 be 5b 71 79 3e 37 a0 ab be
       -0.011281348 -0.37929374 0.24359648 -0.33520672
000180 41 e7 01 be 6e f4 eb 3d ac 39 26 be b8 42 42 3e
       -0.12685873 0.11521231 -0.16232938 0.18970764
000190 fc 2e 4b bd 53 0b bd be fe 35 32 be 29 f3 cd bc
       -0.049605355 -0.36922702 -0.17403409 -0.025140362
0001a0 ba 13 c5 bd 89 79 7c 3e 08 ac 4a be a6 af 67 3e
       -0.09622903 0.24655737 -0.19792187 0.22625598
0001b0 1c e3 29 be f5 87 dc be a0 00 55 bd a7 94 35 bc
       -0.16590542 -0.43072477 -0.05200255 -0.011082805
0001c0 56 eb 35 3d 9f f2 92 3e 6d 42 04 bf c7 b6 3a be
       0.044413887 0.2870073 -0.5166386 -0.18233787
0001d0 b1 92 13 be 85 61 bd 3d 5b af 70 be ee f3 3c bd
       -0.14411427 0.09247116 -0.23504393 -0.046131067
0001e0 3d eb 92 3c a1 cf 86 be 00 d9 cf 3c 30 82 e8 be
       0.017934436 -0.26330283 0.025372028 -0.45411825
0001f0 3e eb dd be e2 ec 2d 3d cd 0b 2d be 95 70 0a bf
       -0.43343538 0.042462237 -0.16899033 -0.54078037
000200 52 58 4b 3d 25 e9 49 bd dd 13 e0 bd 3f 7f a0 3d
       0.049644776 -0.04929461 -0.109412886 0.0783677
000210 66 37 25 be c5 ab 7a bd cb f8 6d bc 6b d1 17 bd
       -0.16134414 -0.06119897 -0.014524649 -0.03706495
000220 a6 d3 2a 3e a2 9a cf 3d 47 49 30 be aa 40 29 bc
       0.166823 0.10136916 -0.17215453 -0.0103303585
000230 57 ae ae 3b 37 43 cb 3d 5b 8a 87 3d 63 d4 28 3d
       0.0053308415 0.099249296 0.06618186 0.041218173
000240 a8 ef d7 3d c9 4f 6c 3d 0c 09 19 bd 02 4c 54 3d
       0.10543758 0.057693277 -0.037362143 0.0518303
000250 62 2a 98 bd 3e 4e 88 3d 1d 8d 2d 3c c3 38 94 bd
       -0.07429959 0.066555485 0.010592726 -0.07237389
000260 33 87 5f 3d 2a a2 38 3d 7f 66 2e bd 0b 69 cc 3d
       0.054572295 0.045076527 -0.042578217 0.09980973
000270 f4 15 24 3d 8a 48 2f 3d 28 88 ed 3d cc 0b c9 bd
       0.04006 0.042793788 0.11598235 -0.09816703
000280 2c 94 18 3e 04 27 8c bc 6a 33 d2 3c b2 60 76 3d
       0.14900273 -0.017108448 0.025659282 0.06015081
000290 9c f3 a8 bd 8a 0d a9 bd 9f 23 1c bd 32 26 12 3e
       -0.0824959 -0.082545355 -0.03811991 0.14272383
0002a0 ff 1c 78 3c fa 1a 2c 3e c4 77 bf bd b4 fd 69 bd
       0.015143632 0.16807166 -0.09349015 -0.057126716
0002b0 ca 73 31 3d 90 bf 5a 3c 2d b8 06 3e fe fa a9 bd
       0.043323316 0.013351336 0.13156195 -0.08299826
0002c0 e8 d8 29 3d a6 64 1b 3d 58 34 1c bd 92 37 26 bd
       0.041466624 0.037937783 -0.038135856 -0.04058034
0002d0 c3 64 0f 3e 55 76 c6 bb 4c c2 b4 3d 4a 9e 61 3c
       0.14003281 -0.0060565867 0.08826122 0.013770649
0002e0 a7 f4 cc 3d 2a 3d c7 3d cc 33 1d 3e 7e 2b 97 bd
       0.10007601 0.09728463 0.1535179 -0.07381342
0002f0 3a 6f fd bd 29 0e fe bd 4d dd 55 3d 3b 60 d8 3d
       -0.123747304 -0.124050446 0.052213002 0.105652295
000300 c1 26 5f be f9 fc d6 bd 05 77 0c be 68 d6 d1 3c
       -0.21792127 -0.104974695 -0.13717277 0.025614932
000310 cd c0 ed bd cf 1f 07 be d3 e3 2b 3d e4 7a 07 be
       -0.116090395 -0.13195728 0.041965317 -0.13230473
000320 b5 6a bf be 76 c9 f4 bc 92 5c 03 3c 0b b1 82 bd
       -0.37386099 -0.02988122 0.008017676 -0.063814245
000330 7d 20 34 be de 02 99 be 11 68 b9 be 09 a0 53 be
       -0.17590518 -0.29885 -0.3621221 -0.20666517
000340 da 9f 86 3d 2c b8 31 bc b9 01 cb be 72 e1 ca be
       0.06573458 -0.010847133 -0.39649752 -0.39625126
000350 a8 fe 28 3d 19 5e ff bd 30 b0 98 be 13 f0 7f 3e
       0.041258484 -0.124691196 -0.2982192 0.24993925
000360 61 9f d0 bd ed c8 b6 be 98 36 b4 be a7 4c 30 be
       -0.10186649 -0.3570017 -0.35197902 -0.1721674
000370 b6 fe a8 be 70 80 a8 3d 9e a0 92 be 22 b3 4c 3e
       -0.3300683 0.082276225 -0.28638166 0.19990209
000380 4e 77 87 3e 64 51 74 3e 10 75 81 3d 7d 2e ab be
       0.2645821 0.23859173 0.06321156 -0.33433905
000390 a0 cd e8 bd 50 df 42 3d ca 6b 03 3e f3 4e 8c be
       -0.11367345 0.04757625 0.12834087 -0.27403983
0003a0 2a 5d 4c be 33 99 45 be 43 22 5f 3d 5a 35 6c 3e
       -0.19957414 -0.19296722 0.054476034 0.23067227
0003b0 75 8e 33 be b3 85 28 3e 20 65 55 bd f3 ab 9d bd
       -0.17534812 0.16457252 -0.052098393 -0.07698812
0003c0 07 23 22 be 69 1a 53 3d 53 9e 4e bc b7 4a 5a 3d
       -0.15833674 0.05153886 -0.01261099 0.05329391
0003d0 d9 ac 05 be 45 dd 3a be c8 be e2 bd a1 f1 58 be
       -0.13054217 -0.1824847 -0.11071545 -0.21185924
0003e0 ba 66 a9 be f5 b5 8c bd 88 8c c1 3d de ab 00 3e
       -0.33086187 -0.06870643 0.09450632 0.12565562
0003f0 d8 0c e7 bb 94 dd c5 bd 41 76 ef 3b e1 33 90 3e
       -0.0070510916 -0.09661403 0.007307798 0.2816458

gc_mlp.2.bias f4 [64]
000000 6e 66 95 3c d8 a2 11 be 02 81 28 be 03 7f 44 bd
       0.018237319 -0.14222276 -0.16455463 -0.04797269
000010 9d 3d 01 3d e2 4e 98 bb 27 5f a3 3d 95 95 a5 3d
       0.0315529 -0.0046480754 0.07977133 0.08085171
000020 d9 d9 bb 3d dc a7 89 bd 51 1a fb bd b7 c4 d2 3b
       0.091724105 -0.0672147 -0.12260879 0.0064321416
000030 be eb f4 3c 03 d6 22 bd 07 23 28 3c 5f 43 cc bd
       0.029897567 -0.03975488 0.010262257 -0.099737875
000040 9a cc 15 3d 3a 57 6f bd 74 bb fd bb 90 fa 14 bd
       0.036572076 -0.058432795 -0.0077432934 -0.036371768
000050 80 24 cb 3c 1f a6 1f bc 9f 17 40 bd e3 b4 50 3d
       0.024797678 -0.009744196 -0.046897527 0.050953757
000060 c8 78 a9 3d 17 85 df 3c 0e 38 3a 3d 11 5f 18 bd
       0.0827499 0.027285142 0.045463614 -0.037200037
000070 9a 9f b0 3d 8d 93 c1 3c 57 b6 1c 3b 5a a6 bb bc
       0.086241916 0.023629928 0.0023912394 -0.022906471
000080 32 0b f6 3c e9 45 0a 3d 9f 3b b6 3d 23 cc 5e bd
       0.030034635 0.033758078 0.088980906 -0.0543939
000090 8b 9d a5 3c 64 fd 62 bd 39 ae 95 bc 05 27 9b bc
       0.020216724 -0.055417433 -0.018271552 -0.018939504
0000a0 b9 93 dd bc 1f 82 06 bc f6 80 77 3d 30 7d 9c bc
       -0.027047979 -0.008209734 0.06042572 -0.019102663
0000b0 a5 71 17 3d 13 0b ff 3c 3a 80 4c bd 79 89 bd 3c
       0.036973614 0.03113321 -0.049926974 0.023136841
0000c0 c6 cf bd bb 8f 26 ef bc cb 7b 3a 3d c9 17 5d bd
       -0.005792591 -0.02919319 0.045528214 -0.05397776
0000d0 2c fd 1f bd 25 74 02 3d 3a 6a 9e 3d b5 eb 37 3d
       -0.039059803 0.031849045 0.07735105 0.044902522
0000e0 10 65 b8 3d 6d b3 95 bd f4 4d ad 3d ba d6 b0 3d
       0.09003651 -0.073096134 0.08462134 0.08634706
0000f0 63 20 85 bd cc 33 3b bd b8 af 3f bd 5f c5 92 bd
       -0.06500318 -0.045703694 -0.046798438 -0.07166552

bi_mlp.0.weight f4 [64, 64]
000000 bc 9c 9f be 3a ad d7 be 07 64 9d be 6a f3 c6 be
       -0.31174266 -0.4212435 -0.30740377 -0.38857585
000010 53 b5 37 bc dc 96 95 be 30 f4 1f bf f9 a5 0f be
       -0.011212665 -0.2921666 -0.62481976 -0.14028157
000020 b0 48 1f bf c4 dd 3e be 46 46 8f be 42 95 79 be
       -0.6222029 -0.18639284 -0.27983302 -0.24373344
000030 5e b8 bf bd b2 d6 e8 be 86 10 b9 be 8a 19 b2 be
       -0.09361337 -0.454763 -0.3614542 -0.3478511
000040 f1 01 1b bf fa 3e c9 be 63 06 c7 bd 4d 51 15 bf
       -0.6054984 -0.3930586 -0.09718015 -0.5832718
000050 a7 61 22 be ba 71 26 be 6c 9b e7 be 54 b7 c8 be
       -0.15857564 -0.1625432 -0.45235765 -0.39202368
000060 33 92 b1 be a4 cd de be d5 cf e8 be 21 0d 60 be
       -0.34681854 -0.43516266 -0.45471063 -0.21880008
000070 99 88 36 be 9d e5 b9 be d1 6d 02 be 84 eb 88 be
       -0.17825545 -0.36307994 -0.12737204 -0.26742184
000080 60 f6 27 be a7 ac 9b be 1f fb aa be 90 da 4e be
       -0.16402578 -0.3040516 -0.33394715 -0.20200562
000090 88 6e c7 be 7b 1b ac be af 39 05 bf c6 de e0 be
       -0.38951516 -0.33614716 -0.52041143 -0.43919963
0000a0 44 5c f2 be 62 66 a0 be 61 a2 e2 be 1e a1 00 bf
       -0.47336018 -0.31328112 -0.4426451 -0.50245845
0000b0 3c c1 cc be 46 24 48 be f8 16 de be b3 23 8a be
       -0.39991176 -0.19545087 -0.433769 -0.2698036
0000c0 af 4c 1f bf 6a fb 3f bf 8c c6 32 bd b4 01 00 bf
       -0.62226385 -0.74993 -0.04364638 -0.500026
0000d0 50 34 db be 45 ed 4d be 2d 9f d1 bd ac ce e0 be
       -0.4281335 -0.20110042 -0.102354385 -0.43907678
0000e0 d4 61 c3 be e2 be b2 be 39 1f cd be dd 66 88 be
       -0.38160574 -0.34911257 -0.40062883 -0.26640978
0000f0 e3 65 43 be 8d dc e5 be b5 e8 1f bf bf 00 2a be
       -0.19081835 -0.4489483 -0.6246446 -0.16601847
000100 9a b3 74 bf f1 1b 50 bf b6 ea 45 bf 84 0c 77 bf
       -0.9558655 -0.81292635 -0.77311265 -0.9650347
000110 14 3a 2a bf 26 97 6b be 41 d7 64 bf 57 16 95 bd
       -0.6649487 -0.23006877 -0.8939095 -0.072796516
000120 80 bd 23 bf 7c ee ef be 05 db 05 bf 35 ea 2e bf
       -0.6396103 -0.46861637 -0.5228732 -0.6832612
000130 1a f2 d0 be 2b b3 c8 be da 76 f8 be f0 12 33 bf
       -0.4080971 -0.39199194 -0.48528177 -0.6995077
000140 72 e3 0d bf 55 f2 31 bf 4b 2f 6b be 4f 0e 37 bf
       -0.5542518 -0.69510394 -0.2296726 -0.7150621
000150 d6 4f 94 be 11 77 2b bf e0 6b 1b bf 26 d3 af be
       -0.2896716 -0.66978556 -0.6071148 -0.3434078
000160 13 16 11 bf 30 62 3d bf 44 4d 5d bf 16 e2 21 bf
       -0.5667431 -0.7397795 -0.86446023 -0.63235605
000170 cf c6 40 bf 52 be 43 bf 54 8d ac be 6f 2b 0b bf
       -0.7530336 -0.7646228 -0.33701575 -0.5436315
000180 00 b7 5b bf 77 ba 2d bf 7f 27 12 bf 63 61 7b bf
       -0.8582611 -0.6786265 -0.57091516 -0.98195475
000190 85 af 89 bf 8d 1b 3d bf 41 1c 65 bf ba 3b 58 bf
       -1.0756689 -0.73870164 -0.8949624 -0.84466136
0001a0 e2 85 0d bf 08 f4 02 bf 6e 1d 65 bf c8 1c 6a bf
       -0.55282414 -0.5115361 -0.8949803 -0.91450167
0001b0 00 de 08 bf 23 a8 f3 be 41 83 30 bf cb a9 5f bf
       -0.53463745 -0.47589216 -0.6895028 -0.8736846
0001c0 79 b0 52 bf 35 04 f8 be a5 78 bb be 90 3f 66 bf
       -0.82300526 -0.4844071 -0.36615482 -0.8994074
0001d0 37 dc 36 bf 91 fa fe be f3 73 52 bf db e0 46 bf
       -0.7142977 -0.49800542 -0.82208174 -0.7768685
0001e0 f0 e7 5c bf 66 0a 37 bf 8f 8f 3c bf 3d 3e 8c be
       -0.8629141 -0.7150024 -0.73656553 -0.27391234
0001f0 39 63 16 bf fd 30 07 bf 9d 87 66 bf 53 e3 64 bf
       -0.5874515 -0.52809125 -0.9005068 -0.8940937
000200 85 61 0a bf 4e 48 ab bf 78 e3 2d bf 95 89 34 bf
       -0.54055053 -1.3381441 -0.67925215 -0.70522434
000210 a0 c5 88 3d e9 78 a6 be 9b 18 81 bf 3b 32 0c 3f
       0.06678319 -0.32514122 -1.0085634 0.54764146
000220 83 b7 b4 bf 43 59 a4 3c 36 e3 2c be 3f 9a 18 bf
       -1.4118503 0.020062095 -0.16883549 -0.5961036
000230 85 50 3f 3d 7f 70 12 bf 57 ad 50 bf 8e 9f 8a bf
       0.04670765 -0.57202905 -0.81514496 -1.0829942
000240 68 b8 47 bf 95 49 82 bf fc 55 d4 3b 4e 2d 6d bf
       -0.78015757 -1.0178705 0.0064799767 -0.92647254
000250 62 db 1b bf f2 56 db be 75 7b 54 bf fb 55 2a 3e
       -0.60881627 -0.42839772 -0.8300088 0.16634361
000260 f6 f9 a2 3d 7d b1 b6 bf 4a e7 7b bf ff 53 ca 3d
       0.079578325 -1.4272915 -0.98399794 0.09879302
000270 a5 51 2f bf 23 e4 40 bf a8 f5 0c bf 49 e5 d6 be
       -0.68483955 -0.7534811 -0.5506234 -0.41971806
000280 60 24 7e bf c3 47 16 bf 75 3d 48 bf c3 56 0a bf
       -0.99274254 -0.5870325 -0.78218776 -0.5403864
000290 4b b3 74 bf 69 6a f9 be 75 61 8b bf 4c df 5e bf
       -0.9558608 -0.48713997 -1.0889117 -0.87059474
0002a0 7e 94 89 bf 7e 57 28 bf bc d0 c6 be 38 e9 bc bf
       -1.0748441 -0.657585 -0.38831127 -1.4758673
0002b0 22 d2 bb bd 2b 7e 20 bd a6 67 ea be 9f 98 78 bf
       -0.09170939 -0.039182823 -0.45782202 -0.9710788
0002c0 78 40 a7 bf d9 9c 5c bf e1 fd 31 3d ef d2 a2 bf
       -1.3066549 -0.8617683 0.04345501 -1.2720622
0002d0 9c 25 1e bf 0e bf f8 be 53 1b 20 bf 97 ef 56 bf
       -0.6177614 -0.48583263 -0.62541693 -0.83959335
0002e0 16 04 3d bf 3e e9 cd be b6 f0 66 bf c7 91 f7 be
       -0.7383436 -0.40217012 -0.90211046 -0.48353407
0002f0 54 1e d6 be 0e 48 72 bf 07 0c 96 bf 93 47 a5 be
       -0.41820014 -0.94641197 -1.172242 -0.3228117
000300 09 3a 04 3d 5e 0e 56 be ce dc c1 3d 28 8a 2c be
       0.03228191 -0.20903918 0.09465943 -0.16849577
000310 5e 38 21 be 29 fd 90 3e ed 4e 1c bc f6 e2 38 3d
       -0.15744159 0.28318146 -0.009540302 0.04513832
000320 5f 8a 0c be 9e 0a 3f 3e 31 f9 2d bd 7a 95 79 bd
       -0.1372466 0.18656394 -0.042473976 -0.060933568
000330 28 85 54 3e b9 22 3d bd 4a c7 81 3e f8 88 65 3b
       0.2075392 -0.046175692 0.25347358 0.0035024267
000340 7a 53 91 bc 02 b5 41 3d bb a6 08 3e a0 8d 95 bd
       -0.01774 0.047291763 0.13344853 -0.073024035
000350 a6 3e 4c 3e 87 82 74 3d c4 c1 5f 3b d0 34 23 3e
       0.19945773 0.059694793 0.0034142593 0.15938115
000360 24 4a bd bd de a7 92 ba 88 b8 d6 bc a8 fb 17 3d
       -0.09242657 -0.0011188944 -0.026211038 0.037105232
000370 78 e4 53 bd e7 62 8a bd a8 d5 38 3e f8 ca 32 3e
       -0.051731557 -0.067571454 0.18050253 0.17460239
000380 5e 87 7e bd 7d 97 52 3d e7 4f bc 3d a9 7e 0e be
       -0.062140815 0.051414 0.09194928 -0.13915505
000390 60 29 b3 bd dc 0f 70 3e af a3 0f 3d 3e a9 86 be
       -0.08748126 0.2344355 0.03506821 -0.26300997
0003a0 a2 1c 31 be 59 ed e7 3d 99 5a 16 be cc 7b c3 bd
       -0.17296079 0.11324567 -0.14682998 -0.09545097
0003b0 2e 55 12 bd 38 0c 10 3d e4 bd 6f 3c 72 d2 25 bd
       -0.035725765 0.035167903 0.014632676 -0.0404839
0003c0 f0 82 61 bd c9 b6 83 be 16 63 17 3e 14 0f 18 be
       -0.055056512 -0.25725392 0.14783892 -0.14849502
0003d0 3f 9b cc bd ec 13 00 3e 8a 20 20 3d 23 a1 11 be
       -0.09990548 0.125076 0.03909353 -0.14221625
0003e0 b9 ac 17 bd 24 f4 44 3e 61 04 20 3d 43 b7 46 be
       -0.037029956 0.19233757 0.039066676 -0.19405846
0003f0 2c c0 32 bc 3e a4 34 be 6f 3f 03 be 1b 05 2e bd
       -0.010910075 -0.17640778 -0.12817167 -0.042485338

bi_mlp.0.bias f4 [64]
000000 b3 f6 45 bf 55 f2 96 be 57 54 9b bf fc 1f ec bc
       -0.7732956 -0.2948176 -1.2135113 -0.028823845
000010 fe dc 23 be 19 4d cf bd c2 82 44 bd 5e 45 03 bd
       -0.1600227 -0.10122127 -0.047976263 -0.032048576
000020 f7 26 34 be 6f a0 0d 3c 35 bb 29 3c 6e d8 8d bb
       -0.17592989 0.008644207 0.010359575 -0.004328779
000030 bc 5c b2 be 80 74 a1 3b ee f1 28 bf a5 84 91 bf
       -0.34836376 0.004927218 -0.65994155 -1.1368605
000040 29 07 91 bf 0f 22 c5 38 d6 9a 08 bf 3a 73 46 be
       -1.133031 9.400036e-05 -0.5336126 -0.19379893
000050 bd ac 46 bf 6f aa c2 bb 13 ba a8 ba 28 f2 9b bd
       -0.7760733 -0.0059407274 -0.0012872837 -0.07614547
000060 e4 3a ed 3b d2 64 4e be 9a 73 13 be d0 6a 0a bf
       0.0072396863 -0.20155647 -0.14399567 -0.5406923
000070 47 27 09 bf cf ac 04 bf 29 7e 59 3a 49 21 0f bd
       -0.5357556 -0.51826185 0.00082966924 -0.034943853
000080 da d8 a5 bc 82 59 0c be 6f cf 10 be ae fe 0a bd
       -0.020245004 -0.1370602 -0.1414163 -0.033934288
000090 be f1 36 bd f8 ce 47 bf 6b 9e 38 3c a0 2e ad bc
       -0.044664137 -0.78050184 0.011268239 -0.021140397
0000a0 d6 6e 7f bf cd 70 04 bd 0f 2f 21 bd 00 7e 7d bc
       -0.997785 -0.032334138 -0.03935152 -0.015471935
0000b0 a7 30 6b bf c3 fb 12 bd da 8e c6 38 50 43 dc 3b
       -0.9187111 -0.03588463 9.467984e-05 0.0067218915
0000c0 d3 02 60 bd 27 5b 4e bc 24 69 91 bd 28 11 d6 ba
       -0.054690193 -0.012594975 -0.07100132 -0.0016332017
0000d0 2c 20 21 bd 34 6a 13 3c e9 c9 6d bd 10 be 92 bd
       -0.039337322 0.008997489 -0.058053885 -0.07165158
0000e0 ea 0c 6d bd f1 cc 6a bd 94 82 34 be d3 19 49 bc
       -0.057873644 -0.057324354 -0.17627937 -0.012274223
0000f0 0b 86 1d bf a3 9b 83 bc b6 d3 66 3c ca fe 82 be
       -0.6153266 -0.016065424 0.014088562 -0.25585014
