pretrain_models/ml-100k-gcmc-1-64.pt (torch, 776667 bytes, 14 tensors)

embedding_user.weight f4 [943, 64]
00000000: 64d0 813f 4396 6a3f 7e4d 143f e2f1 073f
00000010: 03a9 ae3e ea77 49be 4575 83be 9732 bcbf
00000020: 3096 b0be 0084 e4bc aa55 f1be 6657 c63e
00000030: c854 dd3e 87a4 3abe 63a2 923f 956d 45bf
00000040: 2112 bebd 7899 20be 1280 653f b60b 16bf
00000050: d735 953e eb14 71be 6ab8 d33e 08eb 1a3f
00000060: fa9b 933f 9888 14bd c3ba 84bf fb6b b2be
00000070: 4b37 5c3f 151a 2ebf dd43 4c3f 26a5 cf3d
00000080: 6c03 9e3e 761c af3e 5ecb 4cbf a409 93be
00000090: bbdc 6cbf 2fdc be3e 19d9 b43d fa36 b73e
000000a0: 1fb7 563f 15d4 f23e 8970 90bf 0370 9d3e
000000b0: c277 2f3f b333 6a3f 9fab 24be edd9 813f
000000c0: 4465 933e 6d88 a83f 138d d9be 7043 b3bd
000000d0: eb76 02be d909 adbf 2d2e ac3f a774 9e3e
000000e0: 80b4 843f 5f11 19bf d8af 01bf 0b04 20be
000000f0: 11e0 973e 2084 7cbe 6de0 593f ab7a 52bf
00000100: 16b3 1fbe eba0 f23d a734 883d 8f91 e43d
00000110: af02 153d 0056 66be 1b37 ca3d a3fc 6f3e
00000120: e83b 5f3e 3dc5 fcbb a740 dc3d 7655 b13d
00000130: 1e9c 003e e628 12bf e14a 23be 6040 883e
00000140: 88ce 85be f883 793e c8d0 0f3c b92b 503e
00000150: 6e53 b4bd 4dd9 82be 1d8d 83be fea6 26be
00000160: fd67 40be 5d60 dfbe 59e7 a63b f865 37bd
00000170: f3c5 ae3d 5c4f 9abb 26af c3bd 002e b73c
00000180: 7a50 be3e 2af8 963e 7fd6 773e 1821 db3e
00000190: 782e 583c 1592 bd3d 29ba 223f 4c73 9d3e
000001a0: d084 babe 95fe 233e a519 2a3e ccee 163e
000001b0: 734d 6cbe e8db 0d3e e9f7 30bf c00c fe3e
000001c0: d913 d83e 0e5e f1bd de37 a8ba b08d d3bd
000001d0: e900 7ebc 1403 ae3e 2fc5 233e 4620 a23e
000001e0: 58b0 82bd 7be7 0f3e 8e1d 5f3e ce41 b1be
000001f0: aa31 74bc 21c0 823e 813a c03e 016a 323e
00000200: ef62 e139 bc3f 193d 6694 583e 9984 4bbe
00000210: 41e6 05be 7c87 b9be 3d19 403d 7cf9 113e
00000220: 0d1e f83d 7835 d93c b2ab a73d b515 a6be
00000230: 737e 653c e63f b53e 7756 e83d 1a18 b93c
00000240: 6ab7 633b 7815 56bd a759 823e 9dfb 3fbe
00000250: 39ad ecbd 0e21 9cbe 0967 32be 534b 963e
00000260: cd30 4d3e 37af d93d e9c7 ef3d 66de c13d
00000270: c361 74bd 1357 183d ce3b 623e a236 c5be
00000280: 4fd7 0bbe 86c6 1c3e 9947 463e b1ef 64be
00000290: 3f93 33be b99f 5dba 0cd5 0abd 5d6b 423e
000002a0: 94c7 85bd 1f32 383a 5b62 ae3d 022e ddbd
000002b0: 4ae5 d8bd aaca fe3c fd80 213e 358f 003e
000002c0: 7978 003f 103a 7cbd 74ad 2b3e a55e b6bc
000002d0: 60d6 4c3d 350e 4f3d a24e 27be 6321 d63b
000002e0: df9f a8be f528 583c 36c2 1f3e efcd 09be
000002f0: b3eb 593b 959c b03d 2891 2abe 901b c73d
00000300: a52f 96be 303c 67bd 80d3 e0bc 1983 fbbd
00000310: 5101 553d d997 b8bc aa74 b33e 6bf3 133e
00000320: dc2d c5bd eb73 24be 750e 66be 6dc3 173e
00000330: 3401 6ebe ab6c 8ebe 0f7f afbe 4fc8 9b3d
00000340: 3d36 0d3f 3e1c a43d e3b7 ed3d 5480 6a3d
00000350: 0051 3a3c 2060 d43e 2da1 143e 1d75 073e
00000360: 80ee 5dbc 4021 d2be 955e 1bbe 48e5 273f
00000370: 9987 833e 8d08 e43e e16d 8abd d825 503d
00000380: 0595 e43e 7d84 88be d204 b3be 4091 4b3e
00000390: 7d77 04be 4c58 12be 688c a0be eae5 babe
000003a0: d422 503d b1b5 acbe f52d a9bd 47d5 ea3d
000003b0: feff f93d a92b 3f3e dbb9 c83d a590 ebbd
000003c0: 0597 8f3e 01b3 25be 5b47 92be c171 f5bd
000003d0: 7769 abbe 7781 ae3d bd20 8c3d e86f 70be
000003e0: ba57 5f3d 1f96 fbbd 2b57 873d 19dc 37be
000003f0: 3d3a 8e3e 289a e6be 11e9 313d adf3 3abe
1.0141721 0.9163553 0.57930744 0.5310346 0.3411332 -0.1967465 -0.25675407 -1.4702939
-0.34489584 -0.027894974 -0.4713567 0.38738555 0.43228745 -0.18226825 1.1455806 -0.77120334
-0.092808016 -0.15683544 0.89648545 -0.5861162 0.2914264 -0.23543136 0.41351634 0.6051488
1.1531975 -0.03626308 -1.0369495 -0.34848008 0.8602187 -0.6800855 0.7979105 0.101389214
0.30861986 0.342014 -0.79997814 -0.28718293 -0.9252431 0.37277362 0.088304706 0.3578413
0.8387317 0.4742743 -1.1284343 0.3074952 0.6854211 0.91485137 -0.16081093 1.0144631
0.28788197 1.3166634 -0.42490444 -0.08753097 -0.12740676 -1.351863 1.3451592 0.30948374
1.0367584 -0.5979213 -0.5065894 -0.15626542 0.29663137 -0.24659777 0.8510807 -0.82218426
-0.1559566 0.11847099 0.06650668 0.111605756 0.036379512 -0.22493744 0.09873792 0.23436217
0.21800196 -0.0077139423 0.10754519 0.086588785 0.12559554 -0.57093656 -0.15946533 0.26611614
-0.26134133 0.24366748 0.008777805 0.20329179 -0.088049755 -0.25556412 -0.25693598 -0.1627464
-0.18789668 -0.43628207 0.0050934968 -0.04477498 0.085338496 -0.0047091674 -0.09554891 0.022360802
0.37170774 0.2948621 0.24202918 0.42798686 0.013194673 0.092563786 0.6356531 0.30752027
-0.36429453 0.16015084 0.16611345 0.14739531 -0.2307642 0.13853419 -0.6912828 0.49619102
0.42202643 -0.11785518 -0.0012834033 -0.10329759 -0.015503147 0.33986723 0.15993188 0.31665248
-0.06381291 0.14053147 0.21788618 -0.34620517 -0.014904419 0.25537208 0.37544635 0.1742325
0.00042989056 0.037414297 0.2115036 -0.198748 -0.13076116 -0.3623618 0.04689907 0.14255327
0.12115107 0.026514754 0.08187045 -0.32438436 0.014007199 0.35400313 0.11344617 0.0225945
0.0034746774 -0.052266568 0.25459024 -0.18748327 -0.11556477 -0.3049397 -0.17422117 0.29354343
0.20038147 0.10629123 0.11708052 0.09466247 -0.059663545 0.037192415 0.22093126 -0.38518244
-0.13656352 0.15310106 0.1936325 -0.2235706 -0.17536639 -0.00084542815 -0.033894584 0.18986268
-0.06532207 0.00070265116 0.085148536 -0.10799791 -0.105906084 0.031102497 0.15771861 0.12554629
0.50183827 -0.06157881 0.16765386 -0.022261927 0.05000913 0.05055066 -0.1633859 0.0065347417
-0.32934472 0.013193359 0.1560143 -0.13457464 0.003325206 0.08623616 -0.16656935 0.09722054
-0.29333225 -0.056453884 -0.027444601 -0.12280864 0.05200321 -0.022533344 0.35049945 0.14448325
-0.096278876 -0.16059844 -0.22466452 0.14820643 -0.23242646 -0.27817282 -0.34276626 0.07606565
0.55160886 0.08013199 0.11607339 0.05725129 0.011371851 0.41479588 0.14514609 0.13228269
-0.013545632 -0.41040993 -0.15172799 0.6558423 0.2568939 0.44537774 -0.06759239 0.05081734
0.44644943 -0.2666358 -0.34964615 0.19879627 -0.12936206 -0.14291495 -0.3135712 -0.36503536
0.050814465 -0.3373237 -0.08260719 0.11466461 0.1220703 0.18668999 0.09801074 -0.11502198
0.28044906 -0.16181566 -0.28570065 -0.119845875 -0.334789 0.08520787 0.06842182 -0.23480189
0.054527022 -0.12284493 0.06608423 -0.17955054 0.27778807 -0.45039487 0.04343516 -0.18257017

embedding_item.weight f4 [1682, 64]
00000000: 9712 38bd 7493 5f3e c71b 2d3e 79e6 ce3d
00000010: 9d93 9cbe 603d b43e e61e cebe e31c 2b3e
00000020: 196f 0ebe 5aa8 6abe 9053 73be e88e aa3d
00000030: b908 8bbe cc17 1dbe 15e9 03be 8903 1dbe
00000040: 6877 76bd 728b b13d 0e22 92bd b6ce 7e3e
00000050: fbfc 5d3d c1ea 7bbd 7e32 87be 1175 df3c
00000060: 25f5 813d 1d1b 593d b038 13bc fefa 5b3b
00000070: 87ea 2fbe 800f 6bbe 9855 09be c9e3 0d3d
00000080: 6648 d2bd dfe9 373e b687 8fba cd99 f0bd
00000090: 38be 1d3e eafb 1f3e 4374 d4bd 63f8 c5bc
000000a0: 79a2 e6bd 5c24 29be 89e6 9dbe d371 b43e
000000b0: 439d 963d 29a0 88bd 8576 133e d14a 6a3d
000000c0: a96c f3be f82b eb3e b392 eebc b17f 053e
000000d0: 9e75 fd39 08a0 74be 9f4d 02be 2ed6 743d
000000e0: 47c5 173e c2ac b03d d727 71be fdea 9ebd
000000f0: 3cd4 d23d ec8e 073d 7fbc 29bd 2be2 b83d
00000100: c04a 4bbe 2972 583e b992 6b3e dff5 25bd
00000110: cc86 9abc 5cf7 f1bd 064f fe3e 4bf2 773e
00000120: 1733 0d3f 9ed0 e6be e6ff cbbe 9aca 493e
00000130: 9af1 8ebe e761 febe c4fd 1c3f fd85 cfbe
00000140: 1cfb 3bbf 1152 d3be 9f33 d9be d2e8 9d3e
00000150: 41bb 803e 0570 e0bd 6bac bdbd 2328 ebbd
00000160: 2ae8 da3d 1ade 29be 8f97 333e c648 41bf
00000170: e896 a03d b4c6 0bbf 73d5 cebe cdf9 843d
00000180: 340c 173f 4f9d dd3e e544 d9bd 0281 f8bd
00000190: 2939 64be bd3f 48be a65a a83e 20fd 09bf
000001a0: 1076 bf3e 0a0f b03e 4ea1 aabe c96c 03be
000001b0: a412 793e 9a58 7dbe 6a6d 4c3e 3996 9b3e
000001c0: 69e0 313e 9f33 40bf fb38 91be 95ab bfbd
000001d0: 474f 48bd 44d4 11be 1867 0fbd 58de a33e
000001e0: 9847 073f d69e ffbe 14e3 ecbe 227c 0b3e
000001f0: 0371 bc3e 0026 8d3d 3896 b03e 8aa6 afbd
00000200: d8fc a83e 6ab8 43be 1573 a4be 4217 1b3f
00000210: 6fc8 453e a380 6a3d 2d9e e43d 23a9 debe
00000220: 8528 d2be e986 58bd 3102 b1bd e0ec 8fbd
00000230: fbb4 c53e e04f 47be adcb 5f3d b228 7bbe
00000240: 9c66 4cbf 0f5e 54bf d147 d63e b719 80bd
00000250: 79fb ee3e b889 143e e79d f4be dcd9 b8bd
00000260: 309d 8cbe 70b3 14bf 3fb6 0b3e 34c9 bd3e
00000270: b847 eb3d d116 3e3e 609d 013e 6892 ad3d
00000280: 7b87 7ebe c16d 41be a362 1a3d b752 43bd
00000290: 6741 51be 7169 0d3f c090 9f3e 8fe1 f43c
000002a0: a097 253e 34d4 8ebc 9c13 553e f199 eebe
000002b0: ef2c 8bbe f18c 12bd d005 893d d181 d8be
000002c0: ddbd 01bf 7d12 573e e0d3 4d3e 5c22 713d
000002d0: ed99 dcbd 1371 70be 1112 a8be 9d32 833e
000002e0: 4b5f c43e ddcf 7a3e 30fe 8abe 71a6 913e
000002f0: 73c3 a03c e9b3 4cbe 95d0 0e3f ce3a 0f3f
00000300: 2639 a2be ff2b dc3e 6d3e 86be affb 86be
00000310: eb77 7b3e 2547 373e 65e1 63be b9fe 9f3e
00000320: 1b51 4c3e 4450 d7bd bb19 373e 19e4 f53e
00000330: 6ede 63be ba79 4b3b 2818 4f3d 141d 593d
00000340: 6461 1c3c 78a7 8e3e 3826 15bf 1d98 ccbe
00000350: 24f0 f43d 47cd 86be 4d34 983e c68f 0fbe
00000360: 3eba 963d 37c9 56bd 61a4 a93e 75d3 ad3d
00000370: 43d5 fd3d 6137 79be 9c6b ae3d f498 ffbd
00000380: bdd1 3fbe eea6 9b3e b14a fdbd 189e c93e
00000390: a4c1 b03d b43f 87be 71d5 54bd a2b3 a3be
000003a0: 2524 323d db73 023f 6d0b 803c 5980 20be
000003b0: f284 143d de71 4c3e 55bd 0e3e f07c cabe
000003c0: 62cf 9f3e e7f8 263f a186 ecbe 6a7c e1be
000003d0: db3a b13e 9240 acbe d9ba 643e d902 223e
000003e0: d622 96be e54f c63d 388f b7bd 6ea8 89be
000003f0: a158 f1bd 6cd4 c23d 3536 893e 1548 893d
-0.044939604 0.21833593 0.16905127 0.10102553 -0.3058137 0.35203075 -0.4025795 0.16710238
-0.13909568 -0.22915784 -0.23762345 0.083280385 -0.27155092 -0.15341109 -0.12881882 -0.1533338
-0.06017247 0.08669175 -0.07135402 0.24883541 0.05419634 -0.061503176 -0.2640571 0.027277501
0.06345586 0.053004373 -0.008985683 0.003356635 -0.17179309 -0.22955132 -0.13411558 0.03464106
-0.10267715 0.17960308 -0.0010950479 -0.11748085 0.15404594 0.15623441 -0.10373738 -0.024166292
-0.11261458 -0.16517776 -0.30839947 0.3524309 0.07354214 -0.06671173 0.1440068 0.057200257
-0.4754384 0.45931983 -0.029122686 0.13036992 0.00048343552 -0.23889172 -0.12724923 0.05977457
0.14821349 0.08626701 -0.23550354 -0.07759664 0.10294387 0.033095285 -0.04143953 0.09027513
-0.19852734 0.21137299 0.23005189 -0.040517684 -0.018863104 -0.11814758 0.49669665 0.24213521
0.5515608 -0.45081037 -0.39843673 0.19706193 -0.27918702 -0.4968407 0.61324716 -0.40531912
-0.7343004 -0.4127355 -0.42422196 0.3084169 0.25142863 -0.10958866 -0.09261402 -0.11482265
0.10688813 -0.16588631 0.17538284 -0.7550167 0.07841283 -0.5460007 -0.40397224 0.06492958
0.59002995 0.4328408 -0.10608844 -0.12133981 -0.2228743 -0.19555564 0.3288166 -0.53901863
0.37394762 0.34386474 -0.3332619 -0.12834467 0.24323517 -0.2474083 0.19963613 0.30388048
0.17370762 -0.7507877 -0.28363785 -0.093588986 -0.04890373 -0.14241129 -0.035010427 0.32005572
0.5284362 -0.4992587 -0.46266997 0.13621572 0.3680497 0.068920135 0.34489608 -0.08576687
0.33005404 -0.19113317 -0.3211905 0.60582364 0.1931474 0.057251584 0.11162982 -0.43488416
-0.4104654 -0.052863035 -0.08642996 -0.07027602 0.3861464 -0.19464064 0.0546376 -0.24527243
-0.7984407 -0.8295602 0.41851667 -0.06254905 0.46676233 0.1450566 -0.4777672 -0.090259284
-0.27463675 -0.580863 0.1364374 0.37067568 0.11488289 0.18563391 0.1265769 0.084751904
-0.24856369 -0.18889524 0.037691724 -0.047686305 -0.20435105 0.55239016 0.31165123 0.029892711
0.16171122 -0.01743517 0.20808262 -0.46601823 -0.2718272 -0.035778943 0.06690562 -0.42286542
-0.50680333 0.21003146 0.20100355 0.05887066 -0.107715465 -0.23480634 -0.32826284 0.25624552
0.38353953 0.24493356 -0.27147055 0.28447297 0.019624447 -0.19990505 0.5578702 0.55949104
-0.31684226 0.43002316 -0.26219502 -0.26363894 0.24557464 0.17898233 -0.2225395 0.31249025
0.19952814 -0.10513356 0.17880909 0.48025587 -0.22252819 0.0031047896 0.050560147 0.053006247
0.009544704 0.27862144 -0.5826144 -0.39959803 0.11959866 -0.2632849 0.29727402 -0.14019689
0.07359742 -0.052437987 0.33133224 0.08487598 0.12394192 -0.24337532 0.085166186 -0.12480345
-0.18732353 0.30400795 -0.12367762 0.39378428 0.08630684 -0.2641579 -0.051961366 -0.31972986
0.0434915 0.5095803 0.015630448 -0.15673961 0.0362596 0.19965312 0.13939412 -0.39548445
0.31212908 0.65223545 -0.46196464 -0.44040233 0.34615216 -0.33643013 0.22336902 0.15821399
-0.29323453 0.096832074 -0.08962864 -0.26886314 -0.11784483 0.095131725 0.2679917 0.06703202

gc_mlp.0.weight f4 [64, 64]
00000000: 51eb 28be 65f8 cd3e 44f4 12be a8cb 853d
00000010: c018 51be 3a57 09bd 8138 99bd eafb 043d
00000020: 7c20 ecbc 4298 a33e 5f53 c4bd 9972 4a3e
00000030: 4112 8a3e 3765 ae3e e910 f43b 1ac1 6fbe
00000040: bd58 3a3e 7afb 8b3d 37a6 a0bd 706c 8bbd
00000050: afe5 e4bd da5f 9fbd 6cbe c03d 9675 48be
00000060: 8da8 82bd 2be3 803e 5546 47be 7b16 e4bc
00000070: 45a1 81be 5324 2c3e a9f9 12be 1d6e 72bd
00000080: f27e e6bd f71a 513d 10be d1bd b3a4 f73d
00000090: 6842 9bbe 229d 74bd a854 a83c effa 22be
000000a0: ede1 fd3e d99f b9bc 4bf1 a6be 1639 78bd
000000b0: 645d 9abc d8df 87bd b98e 3d3c 9d55 893d
000000c0: 7934 803e 3b53 f2be b676 9b3e 9d88 aabe
000000d0: ad11 f2bd 85c8 803d c374 9d3e 7598 033e
000000e0: 1c2d c23d d9bc f53d 8c82 113e 52aa d23d
000000f0: 015a 50be a824 a5bd 8967 073e d76f 61b9
00000100: 1f80 4bbd b762 4bbd ee6a 96be 62a3 8dbd
00000110: a15b 7abe 4e0a e23c 5f58 9cbd 8cfe 8ebe
00000120: 2cd8 18be 44b0 46bd c618 1d3e 355f 993c
00000130: 678a 363e becb 633c 6345 dbbe d6e0 0ebe
00000140: 8466 85be 6b30 1fbe 3cff a13d f0f9 c6bd
00000150: 1c09 cf3d b8f3 eabd 89f8 fcbe 873f 5b3e
00000160: ee98 f5bc d6b6 d73d a832 983e 2182 093e
00000170: d6bf 93bd f9e4 9f3d b268 9a3a 6008 c63b
00000180: c265 39be 513d 1c3e 2cce 13be d07a 2f3e
00000190: c915 453e eb4a cb3d 708b 823e 25e7 b4bd
000001a0: f607 8dbc bf0e 85bc e268 923e 8067 b53e
000001b0: 1c2d cdbc bbe9 bdbe 1302 ffbd fc6d fbbd
000001c0: 4d34 88be c0cd 9d3e bb85 313e 9af1 c93e
000001d0: 25ef 113e 5e4e 38be ba46 3abd 1f5f 773e
000001e0: a0c3 093d c797 3fbe cfa6 a83d 5c57 3fbe
000001f0: 8ca0 00be 73aa 6c3e 7bfc 053e 85a1 a33c
00000200: 58c3 1b3d 4cd0 ad3e 13ef 3abe 38cc 72be
00000210: ce5e 4ebe 9c01 1bbe d29b d43d e213 28ba
00000220: c466 af3e e9c1 aebe 7516 da3d 4393 13be
00000230: 9377 263d 1f89 913e 9c53 c43e d8bf 58bd
00000240: 9030 763d efba dfbd 8850 81bc 5173 7d3e
00000250: 943d 133d 5731 09bc 996a 9d3d f45f f6bd
00000260: 6f27 7c3e 5f85 3bbe d30b 0e3e f986 013e
00000270: 12dc b13e 8551 053e f325 2e3e e2eb dfbd
00000280: c8f6 933e ce83 ed3d 8a1b 90bd 8f20 c93d
00000290: 13b2 16be 9788 9a3e ddcb 923e 623b 343e
000002a0: fd80 25be f924 9ebe 3345 f4be 6626 09be
000002b0: ac7f e9bc 60c8 803d c0c8 643e da36 463d
000002c0: 8169 7fbd d25f 683e 84d5 b33e 21bd 2a3c
000002d0: 7ca1 193e 2d40 3e3e 3217 28be 43a5 9cbd
000002e0: af1d 2bbe f7ef 4fbe 2c76 ae3e 123d 4dbd
000002f0: c08c 4fbe 21df 0fbd ab29 1abd 09c8 a23e
00000300: bd4c dabe 650f 3e3e 2e6c c5bd 9d35 afbc
00000310: 600a a1be a144 86bc 421b 7e3e 9bff bbbd
00000320: 2efc 44bd d8ad 273e 4591 aa3d bc2c 70bd
00000330: 8904 a7be 45fe 473d 9e6b 0d3e 193c 98bd
00000340: cbbe 573e cbe7 1bbe 5b4d b23d 08b3 363e
00000350: 4dfb 83be 2ec4 abbe 3958 563e 1888 70be
00000360: 2992 293e fb55 d4bd 34e0 293e 3936 02be
00000370: d862 84be 6d1a 703e 043a 0f3e eb91 523e
00000380: 37af 883d 4042 6c3e f9cf 7c3e d365 05be
00000390: 1fef a33d d773 8a3d 9388 bd3d 6ca8 013e
000003a0: 1af3 03be 9e71 15bd 7584 23be 5f29 0abe
000003b0: f936 8abe f056 31be b99d 323e 65da 973d
000003c0: b78a 03bb 80b3 873d 63d6 c53c 1ea6 42bd
000003d0: c3f4 86be cbaa a3bc 926d b8be 10a7 f13c
000003e0: 09e0 41be bf75 0abe 1ca9 353e 393c 72be
000003f0: 34d8 81be 5876 cf3c 30a4 78be fae1 fd3d
-0.16496016 0.40228572 -0.14350992 0.06532985 -0.20419598 -0.03353045 -0.074814804 0.032466806
-0.028824084 0.319521 -0.09586214 0.19770278 0.26967052 0.34061596 0.007448305 -0.23413506
0.18197913 0.06835075 -0.07844203 -0.06807792 -0.11176621 -0.07781954 0.0941132 -0.19576105
-0.06379805 0.25173315 -0.19460423 -0.02784275 -0.2531835 0.16810732 -0.1435305 -0.059187043
-0.11254682 0.051051106 -0.1024133 0.12091961 -0.303241 -0.059720166 0.02054818 -0.15916036
0.4958643 -0.02265923 -0.32605967 -0.060601316 -0.01884336 -0.06634492 0.011569672 0.067057826
0.25040033 -0.47329125 0.30364007 -0.33307353 -0.11819778 0.06288246 0.30753145 0.12851126
0.0948126 0.119989105 0.14209956 0.10286392 -0.20346834 -0.08063632 0.1322309 -0.00021499336
-0.049682733 -0.04965469 -0.29378456 -0.069159284 -0.24449016 0.027592804 -0.07634043 -0.2792858
-0.14926213 -0.048507944 0.15341482 0.018722156 0.17826234 0.013903556 -0.42826375 -0.13952956
-0.26054776 -0.15545814 0.0791001 -0.097156405 0.10109159 -0.11472267 -0.49408367 0.21410953
-0.02998015 0.1053292 0.29726148 0.13428546 -0.07214324 0.07807345 0.0011780469 0.006043479
-0.18105224 0.15257765 -0.14434117 0.17136693 0.19246592 0.09926399 0.25497007 -0.0883315
-0.01721571 -0.016242383 0.28595644 0.35430527 -0.025045924 -0.37092385 -0.124515675 -0.12276837
-0.26602402 0.30821037 0.1733617 0.3944214 0.14251383 -0.17998645 -0.045477606 0.2415738
0.03363383 -0.18710242 0.08234941 -0.18685669 -0.12561244 0.23111896 0.13084595 0.01997448
0.03802809 0.3394798 -0.18255262 -0.23710716 -0.20153353 -0.15137333 0.10381283 -0.0006411654
0.3425809 -0.34132317 0.106488146 -0.14411645 0.04064138 0.28424928 0.3834504 -0.05291733
0.060104907 -0.10924327 -0.01578547 0.24751021 0.035947397 -0.00837358 0.076863475 -0.1203002
0.24624418 -0.18312596 0.13871698 0.12649144 0.34738213 0.13019378 0.17006664 -0.10933663
0.28899217 0.115974054 -0.07036503 0.09820663 -0.14716367 0.30182335 0.2867116 0.17600778
-0.16162486 -0.30887583 -0.47709045 -0.13393554 -0.028503262 0.062882185 0.22342205 0.048392154
-0.062356476 0.22692803 0.35123837 0.010421068 0.15003008 0.18579169 -0.16415098 -0.07648709
-0.16710542 -0.20306383 0.34074533 -0.05010707 -0.20268536 -0.0351249 -0.037637394 0.3179324
-0.42636672 0.1856056 -0.09639774 -0.02138787 -0.31453228 -0.016390147 0.24815086 -0.09179612
-0.04809206 0.1637491 0.08328489 -0.058636412 -0.32620648 0.048826475 0.13810584 -0.07433338
0.21068875 -0.15225141 0.08706161 0.17841733 -0.25777665 -0.3354811 0.20932092 -0.23489416
0.16559662 -0.10367962 0.16589433 -0.12715997 -0.25856662 0.2344758 0.13986975 0.20563476
0.066740446 0.23072147 0.2468871 -0.13027124 0.08004593 0.06760376 0.09254565 0.12661904
-0.12885705 -0.036485307 -0.15968497 -0.13492344 -0.26995066 -0.1731832 0.17442979 0.07414702
-0.0020071694 0.06626034 0.02415008 -0.047521703 -0.26358613 -0.019978901 -0.36021096 0.029498607
-0.18933119 -0.13521479 0.17740291 -0.23655786 -0.25360262 0.025324985 -0.24281383 0.12396617

gc_mlp.0.bias f4 [64]
00000000: 247c 143e c3a5 a03d a424 033e 9c1f 1a3e
00000010: 0e3a 613e 3f59 e73d ceda 993d 8091 273e
00000020: c04d bebb 7d77 473e a9e3 bd3d f5ea ef3d
00000030: 1ceb 273c 72bc 033e 0f1e 883d 7b74 23be
00000040: 2f26 8e3d 6aef 0f3e e212 083e 1103 cf3d
00000050: b7ec f43d 44e6 393e 8119 c13d b54f eabc
00000060: 371e 123e 09e9 173e 172a e33d 0327 d43d
00000070: 5180 f03d 4aa4 b83d 93ad f93d a577 2c3d
00000080: 4832 2d3e cbc2 8e3d 912a cc3d a8ad 043e
00000090: 1fb1 ef3d 2e68 f83d 7070 0b3e 781c c03d
000000a0: 642f 893d 0216 103e fa45 ea3d 0f75 173e
000000b0: 6478 f23d c640 b63d 2aaa fa3d 9ccb b63d
000000c0: 382c 193e ac12 da3d 9bbe f03d f3e2 cebd
000000d0: ab3a 383e f8b3 bc3d 8de1 ad3d a522 fe3d
000000e0: b8a4 cd3d add8 9b3d d27f 213e 1997 c33b
000000f0: 1a6a 083e 1489 a03d 4b97 fe3d f9fd 313e
0.14500481 0.078441165 0.12806946 0.1505112 0.21994802 0.11296319 0.07512437 0.16364098
-0.0058076084 0.19479175 0.09271938 0.11714736 0.010248926 0.12864855 0.06646358 -0.15962403
0.06940877 0.14056173 0.13288453 0.10108007 0.11959212 0.18154246 0.094286926 -0.02860246
0.14269339 0.1483499 0.110920124 0.103590034 0.117432244 0.09015711 0.1219131 0.04210629
0.16913712 0.069707476 0.099690564 0.1295687 0.11703705 0.12129246 0.1361711 0.0938043
0.06698492 0.14070895 0.11439128 0.14790748 0.11839369 0.08899073 0.122394875 0.08925554
0.14958274 0.10648093 0.11755105 -0.10101881 0.1799113 0.09214014 0.08490286 0.12408952
0.10041183 0.07609687 0.15771416 0.00596894 0.13321725 0.078386456 0.124312006 0.17382039

gc_mlp.1.weight f4 [64, 64]
00000000: eafc 8c3d b35a 3a3e 4c6c abbd 0009 b33d
00000010: 9a59 c13c 4ac0 f73a bcaf 15bd fd14 f53d
00000020: 029b 50bd 1fb3 323d 84eb 213d 3ba6 4c3d
00000030: a2e4 bc3b 8576 8dbd f125 bdbc 1ef3 b23c
00000040: b2eb 483d 32e7 813c c6a0 53b9 ff4e 83bd
00000050: 4620 40bc fce5 05be b402 5b3c f4a2 5d3d
00000060: 04b4 19bd 5c3e 00bc ef5d 8bbd 9211 6c3d
00000070: 2620 c73c 3ed7 8a3d c7cb b13d c3f2 433d
00000080: 2f48 863d b21a 873d e676 833d 93f1 57bd
00000090: b422 3abd b45e 023e d7bb 89bd 1eeb 933c
000000a0: 06cd 373d aae4 cf3d 674c 343d 5c2e 863d
000000b0: 56ca 9c3c 253d 583d 3da3 b8bd b565 44bc
000000c0: 6f3e 823d 8472 3e3d 6a73 44bd 8804 b73d
000000d0: 7dfe b4bd a7c1 ec3b 3de7 89bd 4c02 043d
000000e0: 1a69 19bd b2c9 1b3c ad98 e73c 45b7 383d
000000f0: 0075 03be c607 e63d ac44 5bbd 7709 a33d
00000100: 4d42 113e 6b3b 8abd b88d 843d bed1 0cbe
00000110: a6e8 723c ba01 f83d 23a1 77bd 5b51 c8bd
00000120: f9b8 5c3d 3823 3fbe b661 c93c ec82 843e
00000130: 2c00 44bc 7f6f 06be 9923 9c3d 4f82 55ba
00000140: baea e8bc 0908 4d3b 9d6e 47bb 9e43 9b3d
00000150: b79c 0e3e 8b7a 8f3d 1cb4 843e 07e7 9ebd
00000160: 7e04 893d 9883 b93d 7886 c73d 9dba 04be
00000170: 360d 78be 6d5e 43bb 03eb 883c d102 8f3e
00000180: a712 1b3e e9ba 3e3d 6759 80bd faf9 5d3d
00000190: 6863 90be 83cb 8cbd 4244 033d 20b8 cbbd
000001a0: 8e70 853e d750 97be 847c ff3d 635c 593e
000001b0: 4d2b 423c b436 12be 69c2 8b3d e6ab 46be
000001c0: fc91 32be 6acb f43d 6ecb 4dbd 115b b43d
000001d0: 03b5 123d f803 573d 2668 943d 84e5 c83c
000001e0: 64e6 1b3e 0d7c 293e dcdf 24be 140b 853d
000001f0: 0524 1abd aa4e b03d 6f05 023e 87be 46be
00000200: 2863 a2bd d0be f93b 3486 19bd 261d 3abd
00000210: c6fc a5bd 4da8 923d f22e e43d 24ca 81be
00000220: 5e73 c6bd 2d24 f6be d0aa b1bd fb04 19be
00000230: bee4 85be f9cb 43be a770 49be 5445 c3bd
00000240: 3cba 2bbd 2648 eebd 8a86 aabe f647 f6bb
00000250: 52ac 03be 8db1 d6bc e456 aebd 31f7 06bf
00000260: 39ac 03be da7d 57bd 8705 d43d 117a fcbd
00000270: b78b a9be fe3d aabd ce94 043d 14e9 e0bd
00000280: 77e8 e23d ecad c93d 3d2c 043e c8eb cfbd
00000290: f1b0 1ebd 9a1f ec3c d428 31be 33f0 88be
000002a0: c59e 29be ba4a b6be 3c8b 88bd 8a30 9fbe
000002b0: c30e 7d3d 47c5 18be 91dd 033e 70e6 07be
000002c0: da94 85be 89ca 3f3d 0ab1 1f3c 186b d2bd
000002d0: 16c6 7bbd 7b61 143d a461 d9bd 2b67 c53c
000002e0: 88c3 0abe 052d 81be 4fb0 39bc fb42 53bd
000002f0: 5770 733d b899 5ebd d535 8ebd 4e39 94bd
00000300: 107c 53bd ec31 9ebe 7c09 df3d 071e 6dba
00000310: 199d 323d 9354 903e 0764 d9bd 1d1c 8b3d
00000320: 296c 493e d55a 763d dac2 d2bd 5e7a 293e
00000330: 4141 943d 73ab 243c 60f4 ef3e a88f 433e
00000340: edae 9cbc d739 443e 1e61 0dbe 9762 e4bd
00000350: 7655 443e eda5 9dbd 5811 993e 311e 6bbc
00000360: dfb2 233e 2d01 e73d 906a 9e3c 7f34 55be
00000370: 9b4d 2fbc 1224 14be af5e 2dbd c4ac 913e
00000380: ae5b ca3d 00eb dfbc eb31 2abe e6c1 eebc
00000390: c320 d3bd 53b2 533e d30a 6d3e 30c9 0f3e
000003a0: 2752 a8bc aa0f 153d 83f2 1e3e 7a8f d53e
000003b0: 3a1e 8bbd e6bc 68be 0ec6 cabc 5edd 63bb
000003c0: b79a f5bd 41ef 6bbc beb1 1ebd ca42 273e
000003d0: 9903 ff3b 23d7 c3bc ba62 42bd 716d b0bb
000003e0: d1de 593e 0589 d63e fc5f 02bd 36a7 373d
000003f0: 28b5 3d3d 94ff 96bd 6afa 673e 11dd 44bc
0.06884177 0.18198662 -0.08370265 0.08741951 0.023602296 0.0018901911 -0.036544546 0.11966894
-0.050929077 0.043627854 0.039531246 0.049963217 0.00576456 -0.069073714 -0.023089381 0.021844443
0.0490529 0.015857313 -0.00020182421 -0.06411552 -0.011726445 -0.13076013 0.013367344 0.054110482
-0.037525192 -0.007827368 -0.06805026 0.057633944 0.024307322 0.067793354 0.086814456 0.047838937
0.06556737 0.065968886 0.064191625 -0.052720618 -0.04544325 0.12731439 -0.06725281 0.018056449
0.04487326 0.10151036 0.044018175 0.06551811 0.01913945 0.052792687 -0.0901551 -0.0119871395
0.063595645 0.04649593 -0.04796163 0.08936411 -0.08837602 0.0072252336 -0.06733558 0.032228753
-0.03745375 0.009508537 0.028271044 0.045096654 -0.128376 0.112319514 -0.053532287 0.0796079
0.14185448 -0.06749614 0.06472343 -0.13751885 0.0148259755 0.12109704 -0.060456406 -0.09781142
0.05388734 -0.18665779 0.024582725 0.25881135 -0.011962932 -0.1312847 0.07623977 -0.00081447227
-0.028432239 0.0031285307 -0.003043092 0.07581256 0.1392697 0.07005795 0.25918663 -0.07758909
0.0669031 0.09058303 0.09742445 -0.12961812 -0.2422379 -0.002981092 0.016713625 0.27931836
0.15143834 0.04656497 -0.06267052 0.054193474 -0.2820084 -0.06874754 0.032047518 -0.099472284
0.26062435 -0.29553863 0.12474921 0.21226649 0.011851144 -0.1427868 0.0682419 -0.19401512
-0.17438501 0.11952861 -0.050242834 0.08806432 0.035817157 0.05249402 0.07246427 0.024523504
0.15224606 0.16551228 -0.1610102 0.064962536 -0.037632007 0.08608754 0.12697385 -0.19408618
-0.07929069 0.0076216236 -0.0374815 -0.045437954 -0.08104853 0.07161007 0.111417666 -0.25349534
-0.09689973 -0.48074475 -0.08675158 -0.14943306 -0.2615108 -0.19120778 -0.1967188 -0.09534708
-0.041925654 -0.11634855 -0.3330577 -0.0075159026 -0.12858704 -0.02620771 -0.08512667 -0.52720934
-0.12858666 -0.052610256 0.10352617 -0.1232797 -0.33114406 -0.08312605 0.032368474 -0.10981956
0.110794954 0.09847626 0.129075 -0.101523936 -0.038742963 0.028823663 -0.17300731 -0.26745757
-0.16564472 -0.35603887 -0.06667182 -0.3109172 0.061781656 -0.14919005 0.1287749 -0.13271499
-0.26090127 0.046824012 0.009746799 -0.10274333 -0.061468206 0.036225777 -0.106143266 0.024097046
-0.13551152 -0.2522966 -0.011333539 -0.05157755 0.059433307 -0.054345816 -0.069438614 -0.072374925
-0.051631987 -0.30897462 0.10890481 -0.0009045307 0.04360685 0.28189525 -0.10614782 0.067924716
0.19670166 0.060145218 -0.10291071 0.16550586 0.07239009 0.010050642 0.4686613 0.1909777
-0.01912638 0.19162689 -0.13806579 -0.11151617 0.19173226 -0.076976635 0.29896045 -0.01435046
0.15986203 0.11279521 0.019337922 -0.20820807 -0.010699655 -0.14466885 -0.042326625 0.28452122
0.09880768 -0.027333736 -0.16620605 -0.029145192 -0.10308983 0.20673494 0.2314866 0.1404159
-0.020546986 0.03639189 0.15522198 0.41711026 -0.06792875 -0.22728309 -0.024752643 -0.0034769396
-0.119924 -0.014400304 -0.038743727 0.16334072 0.0077824113 -0.023906296 -0.047457434 -0.00538414
0.21276404 0.41901413 -0.03182982 0.0448372 0.046315342 -0.073729664 0.22654119 -0.012015597

gc_mlp.1.bias f4 [64]
00000000: bf18 fabd 091a 5cbd f275 273e c9dc 443d
00000010: 16fb b73d 6b17 a8bd 012f 883d 4324 273a
00000020: d318 da3d 8c69 b3bd 6cf0 503d 1290 303e
00000030: 9b5e 01bd 7dd5 2fbd fac4 ff3d 02ef 3b3e
00000040: dc59 c73d 3351 a7bc 5139 71bc 975b 923d
00000050: 006b 0dbd 9122 75bd 70ff 65be 9b26 9b3d
00000060: 9c2a 4c3e cb24 223d 54a6 b4bd 2737 463d
00000070: 781d 74bd 1207 a23d aca1 6c3d 7b7d 4a3e
00000080: 2991 90bb 4bfa c2bd 68ed 3fbd cc75 fd3d
00000090: 6ba7 953d a026 b33d be91 043e 276e 18bd
000000a0: 25a3 48bc 3598 9cbd 47d6 fe3c 97c7 c2bd
000000b0: 2dcb 8fbd f8a9 ce3c 5e48 4a3d 29f3 a83c
000000c0: 21e3 f53d 67c2 7f3e 2818 d8bc 5f58 16bb
000000d0: 250a c83d 306f 53bd 0542 b6bd 80cc c33d
000000e0: 69a0 2c3d 3bf8 11bd c642 d83c 5a5f 01be
000000f0: d9e5 963c e03c 523e 310e 23ba c1d0 cb3d
-0.12211751 -0.053735767 0.16353586 0.04806212 0.08983438 -0.082075916 0.0664959 0.0006375948
0.10649266 -0.08760366 0.051010534 0.17242458 -0.031584363 -0.042928208 0.12488742 0.18352893
0.09733936 -0.020424461 -0.014723138 0.071463756 -0.03452587 -0.05984742 -0.22460723 0.07575723
0.19938129 0.03958587 -0.08820787 0.04839244 -0.059598416 0.07911505 0.05777137 0.1977443
-0.0044118357 -0.09520396 -0.046857268 0.123759836 0.07307323 0.087476015 0.12946221 -0.037214424
-0.012245928 -0.07646219 0.031108035 -0.09510725 -0.070211746 0.025227532 0.04938542 0.02062376
0.12006212 0.24976502 -0.026378706 -0.0022940857 0.0976756 -0.05161971 -0.08899311 0.0956049
0.042145167 -0.03563712 0.026399028 -0.1263403 0.018420147 0.20531034 -0.0006220071 0.09951926

gc_mlp.2.weight f4 [64, 64]
00000000: 99c3 623d 0094 d53d 8ed8 db3d c09e 693d
00000010: 0630 0cbd 3ad6 ac3d 126a b0bd 2aa2 a5bc
00000020: f4a3 ca3d 5c9b 8b3b 6fb3 3e3d 040c c6bc
00000030: 2c24 8b3d 906f 1d3e e6fd 85bc bb3f c23c
00000040: 988e d63d 73cb 92bd 0511 d3bd 020a 813d
00000050: 0383 fbbc 7c57 4d3d ce23 a53d ab4c e43b
00000060: 88e1 ebbc 27da b6bd 93ec 26bc 5bfc dbbd
00000070: 8bd5 513e 698b 61bc fbe6 9abc 7a6d 06be
00000080: 8cf6 f6bd 2c5e c53d cb5f e03d 96de 81bd
00000090: 5100 963d f471 0fbd acc2 953d 26a8 94bd
000000a0: 9c57 51bd 5df4 99bd a57d c73d 6674 e2bd
000000b0: d1bf e53c 7f02 c33a ff2c 5cbd 7502 7a3d
000000c0: bb30 7abd 1e64 9c3d 1b55 0dbe 27f2 d33d
000000d0: 4ef5 2cbd 5042 0e3e 3040 d13d bee1 123d
000000e0: 2d3f b2bd abb2 07bd a4fe cb3d 1032 1c3d
000000f0: 5f32 b3bc ef03 5c3d 9a34 1f3d c63c 7c3d
00000100: ca65 803d cae0 593d 9a9e 8abd d3ea ce3d
00000110: 2aad e2bc c842 d7bd 3e8e ae3d 8d37 353d
00000120: ffe7 573d 5238 353e c3ad f93d 5b96 b2bd
00000130: 11fc a3bd 8e3f f93d 7ede 0c3e bf3e d83d
00000140: b2b0 afbd 9cdb 8b3d 6a3e 593d 5bf8 68bd
00000150: 6f1a ad3c 8962 84bd 1aaa e83d b003 88bd
00000160: 02ba 673d d876 4e3d b999 49bd 5100 11bd
00000170: 34c1 143e c410 6f3d edac a6bc 35c9 14be
00000180: 7574 2dbd d92b 023e 54d0 5f3e 651f fdbd
00000190: f3ae 953d a52d c9bd 95b7 3c3c d703 913c
000001a0: dc19 b1bd 4a6d b83b 83d0 cdbc cd99 a33d
000001b0: 63d8 5fbd 3463 44bc 408b 173d fcf8 4dbb
000001c0: e83c b6bd e581 88bc be89 943d 6a6b 4a3d
000001d0: 98f2 973d cd25 553d 59c7 adbd fb35 1b3d
000001e0: 0328 6b3c 4036 bfbc 3c06 e9bd b4ff d23d
000001f0: 40d0 7ebc ed6b ed3d 1c98 e03d b565 23bd
00000200: 1091 553d ac7f 833d 3c88 c9bd 4bd7 363e
00000210: ea5a 0c3d 46cf a3bd 8029 c1bd 2603 68bd
00000220: 83d9 e5ba 6e64 2a3d 3ff6 f0bb 41a5 fb3c
00000230: f610 64ba a4c9 adbd df06 183e ef24 c7bc
00000240: f18b 13bd a43c a63c 7b86 d9bd 30b4 bfbc
00000250: 3761 9dbd 3751 47bd e8ff 8c3c c8ba 613d
00000260: 6079 7dbc eb6e b0bd 8004 8bbd 0149 b2bd
00000270: a1aa 443e 1d17 9bbd bdb8 113c 96c6 37be
00000280: ac94 a9bd 6def bbbc 12f9 8fbc 1b49 4e3d
00000290: 2c26 e43d 35a0 cc3d 3a0f e23d e32d b7ba
000002a0: 0fb5 00bd 5fe5 3abd 6a4a ba3d 2a0d 823c
000002b0: 391f c23d e79b 333d 3034 dd3d 8ac1 92bd
000002c0: 9a1f cc3c f5e9 713d 4c3d aebd 60df cc3d
000002d0: ab7d 16bd 169c 983d eef9 b43d 1a16 95bd
000002e0: 0b5c 9abc 628e 0abd 7901 623d d2b6 efbc
000002f0: ad2e 07bd 3cff acbd 0f26 c73d 562c 18bd
00000300: 04b4 0c3e 65af 513e 7df2 29bd ee33 c5bc
00000310: 1719 09bd 23cb 7d3d 9b85 4d3d 347b 17be
00000320: c0b5 b6bd ad32 bb3d 5f3b c23d 689c 883d
00000330: 667b a1bd fda3 083e 951a 823c c499 ea3d
00000340: 827f f5bd 430c 52bd 2fe7 213c 36b7 3a3d
00000350: 44d3 99bd de3c f93d 1b7a 093e 9486 03bd
00000360: a9bd 21bd 5fd2 0f3d e8f1 d5bd 7718 21be
00000370: ea34 5e3e ea76 093d 564c 3c3d 3bb3 84bd
00000380: 0ee9 b3bd a3a8 203e 9ffb 3d3e 4d22 d4bd
00000390: 35de 0438 8186 a5bd 47d6 d8bd fd65 02bc
000003a0: ca16 7b3d 8cbd 1ebd aa25 0a3d 57ef 8dbd
000003b0: 9470 fb3d 4488 7cbc 2b04 8bbd 5840 8bbd
000003c0: 32a6 f9bb 576a 8dbd 4336 94bc a850 9b3d
000003d0: ddad f43d da1c 8dbd a5e4 85bd 08fe 5fbd
000003e0: c8df 703d d7ba ddbb 5dd0 99bd 237e 813d
000003f0: 895d 893c 050e 913d f63e 093e 0ff2 b13d
0.055362318 0.104286194 0.10734664 0.05703616 -0.034225486 0.08439298 -0.08613981 -0.020218927
0.09894553 0.0042604636 0.04655784 -0.024175651 0.067940086 0.15374589 -0.01635642 0.02371203
0.10476416 -0.07167711 -0.103059806 0.06300737 -0.03070212 0.05013226 0.0806347 0.0069671473
-0.028794065 -0.08928328 -0.01018824 -0.10741492 0.20491616 -0.013766148 -0.018908968 -0.131277
-0.12058744 0.096371025 0.10955771 -0.06341283 0.07324279 -0.035020784 0.07312521 -0.07258634
-0.05110894 -0.07517312 0.09740762 -0.110573575 0.028045567 0.0014878063 -0.05375385 0.0610375
-0.06108163 0.07636283 -0.13801996 0.10348921 -0.04222613 0.13892484 0.10217321 0.035859816
-0.08703456 -0.033129375 0.09960678 0.03813368 -0.021874605 0.05371469 0.038868524 0.061581396
0.06269415 0.05319289 -0.06768532 0.10103383 -0.027670462 -0.105107844 0.08523224 0.04424243
0.052711483 0.17697266 0.121913455 -0.08720084 -0.08007062 0.12170325 0.13756749 0.10558843
-0.08578624 0.068289965 0.05303804 -0.056877475 0.021130769 -0.064641066 0.11360569 -0.06641328
0.056573875 0.050406307 -0.049218867 -0.035400692 0.14526826 0.0583656 -0.02034613 -0.1452988
-0.04234739 0.12712039 0.21856815 -0.12359504 0.073087595 -0.09823159 0.011518379 0.017702026
-0.086475104 0.0056282626 -0.02512384 0.079883195 -0.05464972 -0.0119865425 0.036998034 -0.0031428924
-0.08898336 -0.016663501 0.07252835 0.049418844 0.07419318 0.052038003 -0.08485288 0.037893277
0.014352801 -0.023341298 -0.11378142 0.10302678 -0.01555258 0.11592851 0.109665126 -0.039891917
0.052140296 0.06420836 -0.09840438 0.17855565 0.03426639 -0.07998519 -0.094317436 -0.056643628
-0.0017536137 0.041599683 -0.0073535736 0.030718448 -0.0008700037 -0.084857255 0.14846371 -0.024309603
-0.03602213 0.020292588 -0.10621353 -0.02340135 -0.07684558 -0.048661437 0.01721187 0.05510977
-0.015470833 -0.08614906 -0.06787968 -0.08705331 0.19205715 -0.07572768 0.008894143 -0.17946848
-0.0828031 -0.022941316 -0.01757482 0.050362688 0.11140093 0.099914946 0.110380605 -0.0013975467
-0.03142267 -0.0456289 0.090962246 0.015875418 0.094786115 0.043849852 0.108009696 -0.07165821
0.024917413 0.05906101 -0.08507785 0.10003543 -0.03674094 0.07451646 0.08836733 -0.07279606
-0.018842718 -0.033827193 0.055177186 -0.02926198 -0.033003498 -0.084471196 0.09724056 -0.037151657
0.13740546 0.20477064 -0.04149102 -0.024072614 -0.033471193 0.061961304 0.050176244 -0.14793092
-0.08921385 0.09140525 0.094839804 0.06670457 -0.078848645 0.13343807 0.015881816 0.1145511
-0.11987211 -0.051281225 0.009881779 0.04558488 -0.07510999 0.121698126 0.13425486 -0.032110766
-0.039487515 0.035112735 -0.104465306 -0.15731989 0.21699873 0.03356067 0.045971237 -0.06479498
-0.08784686 0.1568933 0.18553017 -0.10358105 3.16782e-05 -0.08082295 -0.10587745 -0.007958886
0.06130103 -0.038754985 0.033727325 -0.06930416 0.12277332 -0.015413348 -0.06787904 -0.06799382
-0.007618689 -0.06905048 -0.01809228 0.07583743 0.11947224 -0.068902686 -0.06537751 -0.054685622
0.058807164 -0.006766658 -0.07510445 0.06322887 0.016768234 0.07082752 0.13402924 0.08688747

gc_mlp.2.bias f4 [64]
00000000: 1f88 563d d6cc 013e 2fdf 193d 4053 ec3d
00000010: 3731 0d3d d14e f5ba 9904 9abc 795c d8bd
00000020: 0b41 b5bd 9ef2 2d3e 7025 e7bd 1ea1 cfbd
00000030: 6a47 5ebd 141d 88bd 7198 abbd 2269 893e
00000040: 37bd cabd 63c6 8cbd d39c ac3e ab05 e93d
00000050: fc1a 893d 74c5 80bb 144c 28bd 59bb 603e
00000060: e512 f9bd 5501 fbbd 04fc 163e 05eb 753e
00000070: 7dbe f0bd f895 26bd a09a 08bc 5a98 2b3e
00000080: 3854 0c3e e7c7 333e ee2c 87bd 5ecf a6bd
00000090: d8f7 453e eab9 543e d078 2bbd c8df 3fbd
000000a0: 9a16 7dbd 8f0d 8cbd e4e9 4c3d d788 073e
000000b0: 7fe8 103e 1921 b3bb dc91 ecbd 0454 df3d
000000c0: ca30 c83d 6ec7 e03d c68a a7bc c144 00bd
000000d0: c8da 153d acdc 543e b277 fd3c 8253 733d
000000e0: 11cd bf3e e4df a43d cd49 d6bd c72d 603e
000000f0: f4ea 6d3e 4dee 47be bbe0 adbd ee22 183d
0.05237591 0.12675795 0.03756636 0.11539316 0.034470763 -0.0018715506 -0.01880102 -0.10564513
-0.088502966 0.16987082 -0.112864375 -0.101381525 -0.054267325 -0.06646171 -0.08378685 0.26838022
-0.09899371 -0.06873777 0.33713397 0.11378034 0.066946 -0.0039297882 -0.04108818 0.21946467
-0.12161807 -0.122561134 0.14744574 0.24015434 -0.11755083 -0.040670365 -0.008337647 0.16757336
0.13704002 0.17556725 -0.066003665 -0.08145021 0.19332826 0.20774046 -0.041863263 -0.046844274
-0.061789133 -0.068385236 0.050027743 0.13235794 0.1415119 -0.005466592 -0.11551258 0.109046966
0.09774931 0.10975538 -0.020451915 -0.03131557 0.0365856 0.20787305 0.030940864 0.05940581
0.3746114 0.08050516 -0.10463295 0.21892463 0.23234159 -0.19524498 -0.084901296 0.037142687

bi_mlp.0.weight f4 [64, 64]
00000000: bc89 cb3c 60b8 61bc e112 ccbe a0f1 33be
00000010: e22c 71be 252b ea3e 81cb c6bd fb32 0dbe
00000020: d664 19be dbfc bdbe 2639 383e 52f7 ac3e
00000030: 5d4b 79bc b9c7 8b3e 6e41 7e3d 7e87 18be
00000040: 7b75 bfbd caa7 973d 18aa 05be 4e7f 1ebe
00000050: 0fb7 8dbd 6a75 73be 2098 9f3e 69fa 203a
00000060: e636 e23c 022f 47bd 1965 1abe 6d90 18be
00000070: 560b 96be 1730 c43d db13 853e 60bd 6dbd
00000080: c16e 893e b9dc debd ef44 ca3c 870b d5bd
00000090: 213c a3be 9021 b5be 1ea5 0abe ba1a 163e
000000a0: 3c45 683e 6327 46be 155c c73b 15f0 0abe
000000b0: e5c7 50bd 17f5 2fbe 4dab 31bc 3a0b ad3c
000000c0: eacc 8a3e 24ec ac3e 23ad debd 667f 0abd
000000d0: 0519 db3d cfb9 903e e419 943d b4c7 1b3d
000000e0: 9072 98bc 6fb4 0bbe 0d00 97be e92b 4fbd
000000f0: b56e 8e3e f9a6 903d 3ceb 9a3e e783 8d3e
00000100: a59b a6be 3384 a93e 2567 493d a891 f4be
00000110: 59f6 5e3e ec29 1abe 2d14 be3d 9c1d e4be
00000120: 8b26 82bb 5e7b a5be aeb9 043e 72fe cebe
00000130: 6ef9 dd3e 396e b83e e51b 523e 8cec e33d
00000140: 4d1c 623d 7f36 7c3e db74 61be a893 ed39
00000150: 5c2d 45be 1d25 0d3e 21e7 733d b087 833e
00000160: 502f 66bd 0d8e 8ebe 18da 13bd e2a3 063d
00000170: abf7 083e dc48 653b e978 d73c ab54 a03d
00000180: 2dc7 65bd 4639 e0bd 6ce1 49be 860b 8f3d
00000190: 3d5d be3d 487c c3be 5361 2abd 9a0f 0fbe
000001a0: ace0 48bc 6e57 a3be 46aa 6e3e 6def ae3e
000001b0: 8861 8bbe 989c 573d b2f6 0b3e 5189 e83d
000001c0: f3e9 72bd f659 16be 79fc d4bd fb77 163e
000001d0: 330a d9bc 1c9a 543e 4dec 8b3d dd8e ad3d
000001e0: 5069 04bd c9f4 85bd 592d d83e 3b66 f6bb
000001f0: 13d0 123e a07e 733c 856c cfbe 081d 1b3d
00000200: 5d7e a13e 012b fc3c 4056 bebe 86b3 4bbe
00000210: 89e0 ac3d 5d40 cd3e 93b1 153d c4e1 8bbe
00000220: 0932 7dbd 7fac f83d 3a86 7c3e d971 1a3e
00000230: 97ec f93d 668e e43d 5f11 88bc 5dc4 abbd
00000240: f518 783e 8d15 933e 2290 a3be d6a2 86be
00000250: f0c9 703e fa2d b7be 69f9 5a3e 1cbf a13e
00000260: 34c9 c33d 6ce5 f0bd 2844 2a3e 45b3 223e
00000270: 669a 08be a934 863d 4636 d33d b5d4 48be
00000280: 3aa8 973c 6fdc 023e 57f2 dd3d a93d 283e
00000290: 14d6 83be 4255 81be 8a7c bbbd d30c 48be
000002a0: db39 823e 3b6c 59be 7aed 17be 5368 2cbe
000002b0: d70d 423e 47b1 83be 3912 a73e 0068 a6bd
000002c0: 04ac 343d b5c9 7a3d 8373 9ebd 9058 b3bd
000002d0: 6f87 a13e 7375 b93e 1fdf 1e3e 8f9e 873e
000002e0: f38b 383e a7c7 7dbd 0c99 ca3d 6ab5 87be
000002f0: 63e4 ba3c 76a4 6b3e e6af b23d 1a39 a0be
00000300: 0bee 63bb 3d22 45be bf26 3cbd 4f9c 2f3e
00000310: 59a5 3abe c11f 37be b69d 403e 10f3 453d
00000320: 932d 67be e356 843d 5247 0cbe 236c 24bc
00000330: bd5a 6cbe 60b5 3ebe 5ebd a2bd bde4 1c3e
00000340: ae07 e8bd 9169 69be 1e47 243e 4777 f5bd
00000350: 8188 c8bd d5fb 393e b44f 71be d551 4cbe
00000360: 2486 ffbd 0918 233d ba40 fc3c 618d 4abd
00000370: 4653 9e3e fb0e 693c 5133 803c e775 93bd
00000380: 1f89 8a3d 3b20 63be 244d 12be 3782 54bd
00000390: d68f 983e 98a7 1b3f 2b36 cb3e 0d12 9fbe
000003a0: 1ada 87be 91e1 c23e 8d1c 55be 44e7 943b
000003b0: 9765 65bd eca5 cd3d ce3c 3c3e 9f5a c8bd
000003c0: 2641 03be dbd1 8c3d c8bf 023e cbd3 7a3d
000003d0: ab8d 003d 62aa b6bd 0a57 87be 42aa ecbd
000003e0: 2f7f d13d 429f cbbd 27ae 9abe 79c2 7f3e
000003f0: 54ef b83c f631 183c 4ada 26bd fca3 b93e
0.02484595 -0.013776869 -0.39858153 -0.17572641 -0.23552278 0.45736042 -0.09706784 -0.13788979
-0.14979872 -0.37106976 0.1799055 0.3378244 -0.015215722 0.27300814 0.062074117 -0.14895436
-0.093485795 0.0740505 -0.13053167 -0.1547825 -0.06919681 -0.23775259 0.3117075 0.00061408296
0.027614068 -0.048628815 -0.15077628 -0.14898844 -0.29305524 0.09579485 0.2599171 -0.05804193
0.2684231 -0.10881943 0.024691073 -0.10402589 -0.31881812 -0.3537717 -0.1353955 0.14658633
0.22682661 -0.19350962 0.006083975 -0.13568147 -0.050971884 -0.17183338 -0.010844064 0.021123517
0.27109462 0.3377391 -0.10872867 -0.033812903 0.106981315 0.2826676 0.07231501 0.03803225
-0.018609315 -0.13643049 -0.29492226 -0.050578985 0.27818838 0.070630975 0.30257595 0.27639696
-0.32540622 0.33108672 0.049170632 -0.47767377 0.21773662 -0.15055054 0.09281192 -0.4455384
-0.00397188 -0.32320684 0.12961456 -0.404285 0.43354362 0.36021593 0.20518453 0.11129102
0.05520277 0.24630164 -0.22017233 0.00045314175 -0.19255584 0.13783689 0.059546594 0.2568946
-0.056197464 -0.2784275 -0.036096662 0.032871135 0.13375728 0.0034986055 0.026302772 0.07828649
-0.056098152 -0.10948424 -0.19714898 0.0698462 0.092951275 -0.38180757 -0.04159672 -0.13970795
-0.012260597 -0.3190264 0.23307142 0.34167042 -0.27222848 0.052639574 0.13668326 0.11354316
-0.059305143 -0.14682755 -0.10399718 0.14694206 -0.026494121 0.20761913 0.0683218 0.08474515
-0.032326996 -0.0654083 0.42222098 -0.007519511 0.14337187 0.014861733 -0.4051248 0.037869483
0.3154172 0.030782225 -0.3717518 -0.19892702 0.08441264 0.40088168 0.0365463 -0.27320683
-0.061815295 0.12142276 0.24660578 0.15082492 0.12203329 0.11159973 -0.016609846 -0.08387063
0.2422827 0.2872738 -0.31945902 -0.2629611 0.23514533 -0.35777265 0.21384205 0.31591117
0.09559861 -0.11762509 0.16627562 0.15888698 -0.13340148 0.06553013 0.10313086 -0.19612391
0.018512834 0.12779401 0.10837238 0.16429771 -0.25749266 -0.2526036 -0.09154613 -0.19536142
0.25434765 -0.21232693 -0.14836684 -0.16836672 0.18950592 -0.2572119 0.3263109 -0.08125305
0.04410936 0.06122752 -0.07736876 -0.08757126 0.3154864 0.3622242 0.15514801 0.26488158
0.18022136 -0.06195798 0.098924726 -0.26505595 0.022813981 0.23011956 0.08724956 -0.31293565
-0.0034779336 -0.19251342 -0.04593539 0.17149471 -0.18227138 -0.17883207 0.18810162 0.048327506
-0.22575979 0.06461885 -0.13699082 -0.010035547 -0.23081489 -0.18623877 -0.07946275 0.15321632
-0.1132959 -0.22794177 0.16042754 -0.11985641 -0.09791661 0.18162473 -0.2356556 -0.19953091
-0.12476757 0.039817844 0.030792583 -0.049451236 0.30922908 0.014224763 0.01564947 -0.072002225
0.06764435 -0.22180264 -0.1428724 -0.051881995 0.29797238 0.608026 0.39689764 -0.3106846
-0.26533586 0.3806272 -0.20811673 0.0045441706 -0.056005087 0.10041413 0.1838257 -0.097829096
-0.12817821 0.06875964 0.12768471 0.061237138 0.031385105 -0.08919217 -0.26433593 -0.115559116
0.102293365 -0.099424854 -0.30210993 0.24976529 0.022575058 0.009289255 -0.04073552 0.36257923

bi_mlp.0.bias f4 [64]
00000000: 946c 75bb e7d1 163d 7fb7 15be 1eea cf3c
00000010: f4e1 b6bc c707 f2bd 81cf 10be f16d 1bbe
00000020: e4d2 79bd fe95 a73d cadd b7bd 1e59 ac3d
00000030: b241 1abd 82ff 11be f682 8a3d b982 b73d
00000040: 15c3 ad3c 71ff e63d 6d0a 263e 2f12 d73d
00000050: a0be 12bd 6838 13bd ad55 02bd 9545 d9bd
00000060: c726 103e d5be c13d 645b 88bd 6e63 ebbd
00000070: 95cf 4f3e e71b 273c 07ea 163d 2432 093d
00000080: 7d57 f33d 66e7 f23c 982a a7bd 9405 91bd
00000090: 150f 1ebd 581d 2bbe b5e8 e1bd d039 b13b
000000a0: 247e 10bd bd99 933d 9d45 eb3d 099c 7abd
000000b0: 8a73 ba3d b350 05bd ee31 a1bd ceed 0e3e
000000c0: c403 bb3d e67d 81bd 4cca 253e c68e 21bd
000000d0: 8dab afbc 988c 2abe 9521 953d 3914 81bd
000000e0: 6796 103e f964 343e bf44 49ba b74c be3d
000000f0: 6423 dbbc 284e 46be 34cf aabd da2c 45bd
-0.003744875 0.036821272 -0.1462078 0.02538019 -0.02232454 -0.1181789 -0.14141656 -0.15178658
-0.060992137 0.081829056 -0.0897785 0.08415435 -0.03766031 -0.14257625 0.0676326 0.0896048
0.021211186 0.1127919 0.16214915 0.10501515 -0.035826325 -0.035942465 -0.031819988 -0.10608975
0.14077292 0.094602264 -0.066580564 -0.11493574 0.2029403 0.0101995235 0.03684428 0.033495083
0.118819214 0.029651355 -0.08162421 -0.07081142 -0.038588602 -0.16710413 -0.110307135 0.005408503
-0.035276547 0.072070576 0.11487887 -0.061183963 0.091040686 -0.032547664 -0.078708515 0.13957903
0.091315776 -0.06322841 0.16190451 -0.0394428 -0.021444106 -0.16655195 0.07281796 -0.06302685
0.14119874 0.17616643 -0.00076777855 0.09291976 -0.026750274 -0.19365752 -0.08340302 -0.048138477

bi_mlp.1.weight f4 [64, 64]
00000000: 1669 65bc 4522 9fbd 475c 6d3e 6e1f 2fbe
00000010: 3773 ba3c d204 7f3d 7759 fd3d 7a8a d8bc
00000020: 7594 3b3d 817f 9dbd 12f3 78bd 238a 58be
00000030: 606d 7fbd c9a0 ed3c d41f 063e 995e c6be
00000040: 7c89 383d 4a7e 6a3d cca5 89bd fac0 493d
00000050: c491 e9bd f026 78bd 3ee3 21bd 733b 023d
00000060: c013 973d 5356 7d3d 7f9f d2bd 8619 343e
00000070: 8b17 ad3b df1f 57bf 7fd7 87be f3c9 4cbd
00000080: e3e4 76bd 0a28 683c 7a31 d7bc 0102 28bf
00000090: 5e45 73bc 4834 5a3d 7d0c 7dbf 6d9f 733d
000000a0: 65a4 843d bc29 bd3c 0ce8 d43d 9533 a9bc
000000b0: 46cc 4e39 85bc fa3c bd95 513e 802d 833d
000000c0: 7882 d9bd 3fcb 06be ead5 a93d 0730 c0bc
000000d0: b2e8 853d 5fa7 8a3c f04a a5bd d2f0 283e
000000e0: 8278 6b3d aa63 483d 1f83 3d3d 0403 f93a
000000f0: 893d 053e 699b 7dbe 9172 143e c093 573c
00000100: 443d 97bd bec9 6abd a639 abbc b831 3dbe
00000110: 1417 69bd 1b77 b4bc d721 893d 4079 eb3c
00000120: 83de 203e f8b0 24bd d317 f33c 60a4 a4be
00000130: d459 5a3d e599 77bd 1456 963e e043 05bf
00000140: 79f7 f23c fbc2 d1bd b499 eebd 584b c63b
00000150: 5383 77bd 4104 32bd a4da 593d 018f c43d
00000160: 740d d83c a085 33be a859 933d f637 593e
00000170: bb92 bb3d 5b36 55bf 4d64 afbe ba75 3ebe
00000180: 7902 ae3d 9ed1 06bd 5681 fbbd 1c0f 51bf
00000190: ef29 57bd 0a92 543d 9bd4 87bf f294 c5bd
000001a0: 961a 1e3d e68b c8bd bb5f bfbd 0c6d d73d
000001b0: 3a56 223e 481f 7b3e c965 983d 00f0 473d
000001c0: f0ed 04bd 5ba9 14be fa0e 6e3d a56b 973d
000001d0: bb59 cabc 1ea1 17bd 987b 483d a33f 5c3e
000001e0: 73eb eabb 2bac 153c ca18 173e 5a83 983d
000001f0: 7315 be3b 06f1 d2ba e86a 9abd c1b0 97bd
00000200: bf56 12bd 6c0e 8d3c ff49 62bd 92f9 2b3e
00000210: 035b 9d3d d93c 5b3c fab0 f3bd 965f 593d
00000220: 777c 0a39 535d 813d ca1b eb3d a33c 733e
00000230: ac68 07be 3095 d53d 7d44 16bd da04 ef3e
00000240: 46d3 07be 7463 303c da9b fc3d 6e0f 983d
00000250: be3d debc 266c 06be cfa6 8bbc 0e3f de3d
00000260: c793 0b3e 7fe7 923d 2890 f0bc 556a 79bd
00000270: 7639 9e3c bab1 573f 9475 863e 7f18 be3e
00000280: 94fd cf3d 23cb 14bd 52f4 f7bc d2ac 7c3e
00000290: 2a9b a6ba d15e 09bd dc0b 243f d6ae 3bbb
000002a0: 7e5d 03bd 164d 033e 3310 88bd 3dda 14bc
000002b0: b4e8 d63c a2e9 7cbd c176 46be 844d bfbd
000002c0: d669 153d cd2b 883e 39ec 3ebd b237 aa3d
000002d0: fed0 b5bd dea3 833c 4755 46bd 173e 77bd
000002e0: 04d7 56bc ddd3 1f3d 008b 6d3b 6b73 093e
000002f0: 1841 aebb c39d 6d3e ce8e 993d cca8 babd
00000300: 8b0d ac3d 0548 44be d49b 7a3d 9173 d0bd
00000310: b910 89bd 03ed f23c 627a d13d 6009 93bd
00000320: 21a2 df3b b6f3 b03d 5adf ea3d 5b27 62be
00000330: 063f 6fbd efec 46bd b5e0 813e d9c8 9bbe
00000340: ed4d ed3d 1da5 55bd 9ae8 d33d 5547 59bc
00000350: 9bc0 593d a2bb 93bd c216 02be 7446 0bbd
00000360: 06c1 b4bd 2a30 803d e08e 59bd b06b 4a3d
00000370: 50ee 32bd b829 09bf 6047 6cbe 7d45 bdbe
00000380: d0d5 933b 18f4 d1bd a3a3 88bd bc60 b1bd
00000390: 8754 bf3d 1738 723d 28f2 0fbf 7b8e 83bd
000003a0: 1147 c1bd 1f47 74bd 5494 253d d454 b43d
000003b0: 871e 9ebd 444c 72bd 43a4 373e ef7d da3d
000003c0: 62d6 f3bd 4e6e 6fbe 6c25 ccbd 3a9f 5d3d
000003d0: 5dae 9b3d 7017 19bd b00a 5c3d 2111 3a3e
000003e0: 9109 e5bc 48e4 e63d 291b bd3d 1d2f 2ebc
000003f0: e004 1a3d 325b 21be d39a 2f3d 16fc 06be
-0.014002105 -0.07770208 0.23179732 -0.17101833 0.022760017 0.062260456 0.1237058 -0.026433218
0.045795877 -0.07690335 -0.060778685 -0.21146445 -0.062360168 0.029007332 0.13098079 -0.38744047
0.04505299 0.057249345 -0.06721076 0.049256302 -0.11404756 -0.06058401 -0.039523356 0.031794976
0.07376814 0.061849903 -0.10284328 0.17587861 0.0052823476 -0.84033006 -0.26531598 -0.04999728
-0.060276877 0.014169702 -0.02626871 -0.6562806 -0.014848081 0.053272516 -0.9884718 0.059478212
0.06476668 0.02309119 0.10395822 -0.020654479 0.00019721789 0.030607471 0.20467277 0.06405163
-0.10620588 -0.1316347 0.08292754 -0.023460401 0.06538524 0.016925512 -0.08070934 0.16498116
0.057487972 0.048923172 0.046267625 0.0018998091 0.13011755 -0.24766316 0.14496829 0.013157785
-0.07384732 -0.057321303 -0.020901512 -0.18475997 -0.056906775 -0.02202945 0.066959076 0.02874434
0.15709881 -0.040207833 0.029674446 -0.32156658 0.053308323 -0.0604495 0.29362547 -0.52056694
0.02965902 -0.10242268 -0.1165041 0.006051462 -0.060427975 -0.043461088 0.053187028 0.09597588
0.026373602 -0.17531443 0.07194835 0.21212754 0.09158846 -0.83286065 -0.3425621 -0.18599597
0.08496565 -0.03291475 -0.12280528 -0.8166368 -0.052530225 0.051897086 -1.0611757 -0.0964755
0.038599573 -0.097923085 -0.09344431 0.10518846 0.15853205 0.24523652 0.07441289 0.048812866
-0.032453477 -0.14517729 0.05811975 0.073935784 -0.02470099 -0.037018888 0.048945993 0.2150865
-0.007169181 0.009135286 0.1475555 0.07446928 0.005800897 -0.0016093559 -0.07539922 -0.0740676
-0.03572726 0.017218791 -0.05524635 0.16794422 0.07683375 0.013381206 -0.1189899 0.053069673
0.00013207072 0.06316628 0.1147991 0.237536 -0.13223523 0.10428846 -0.03668641 0.4668339
-0.13264188 0.010765899 0.12334414 0.07424818 -0.02712905 -0.13127193 -0.017047314 0.108518705
0.13630591 0.071730606 -0.029365614 -0.06089242 0.019314509 0.84255564 0.2626158 0.37128064
0.10155788 -0.03632654 -0.030267868 0.246753 -0.0012711037 -0.03353769 0.64080596 -0.0028638146
-0.032071583 0.12822375 -0.06643715 -0.009085235 0.026234008 -0.061746247 -0.19381239 -0.09340957
0.036477886 0.26595917 -0.046612 0.08311404 -0.08877753 0.016069349 -0.04842117 -0.060361948
-0.013112787 0.039020408 0.003624618 0.13422935 -0.0053178184 0.23204713 0.07497941 -0.09114227
0.084010206 -0.19168098 0.061183766 -0.101782925 -0.06692643 0.029654032 0.10228421 -0.071795225
0.006824747 0.08640234 0.11468382 -0.22085325 -0.058409713 -0.0485658 0.2536675 -0.30426672
0.11587129 -0.052159417 0.103470996 -0.013261636 0.0531622 -0.072135225 -0.12703994 -0.034002736
-0.08825879 0.062591866 -0.05311477 0.049419105 -0.043684304 -0.5357928 -0.23074102 -0.36967078
0.0045115724 -0.10251635 -0.06671836 -0.08661029 0.09342294 0.059135523 -0.56228876 -0.0642366
-0.09437383 -0.05963814 0.04042466 0.08805242 -0.077206664 -0.059154764 0.17933755 0.10668551
-0.11906125 -0.23381922 -0.09968075 0.05410693 0.076016165 -0.037375867 0.05372113 0.18170597
-0.027958663 0.1127401 0.09233696 -0.01063135 0.037602305 -0.15757445 0.04287226 -0.131821
